ptlpinns/models/train/overdamped_k3/model_overdamped_k3.pth (torch, 406050 bytes, 12 tensors)

linear1.weight f8 [128, 1]
000000 f9 c9 50 82 60 59 dd bf 5a b6 e5 28 8f 47 ea bf
       -0.45858013845568696 -0.821235256078306
000010 9b 39 36 f3 bd a4 ed bf db 2e 49 7f 4d a2 c0 bf
       -0.9263601064902106 -0.12995308604364805
000020 ed b7 39 d0 02 44 ee 3f 1c de 56 a3 af 33 ea 3f
       0.9458021227744645 0.81880933668339
000030 97 83 f5 4a 30 a7 d7 bf af cc 08 e6 69 51 eb 3f
       -0.3695793849965922 0.8536881916865208
000040 a9 01 97 81 24 55 dd bf 7b e5 16 eb cc a1 e1 3f
       -0.4583216920400682 0.5510010329809768
000050 67 ef 72 71 43 fd e2 3f db d6 bd db e4 0b e0 bf
       0.5934159484672649 -0.5014519016101205
000060 e9 16 1e 49 ba b2 df bf b4 e3 12 00 3a 3c e8 3f
       -0.4952836717642258 0.7573518754426147
000070 86 16 a4 cd 3d 94 eb bf 5b 58 1e cc 9d a4 e6 bf
       -0.8618458763528032 -0.7075947748842383
000080 91 a3 d9 df fa 64 e8 bf b2 49 b0 2c d8 e6 d4 bf
       -0.7623266574929507 -0.32658962597011076
000090 dc 62 97 17 8f 9e e1 bf 32 57 71 e7 eb 60 e1 3f
       -0.5506053410309408 0.5430812378278687
0000a0 1e 73 ff 0b 44 76 e3 3f 5d f6 30 38 a3 da e3 3f
       0.6081867441494955 0.6204391572461635
0000b0 b7 5f 7e 45 01 f2 ec 3f 93 60 c4 8a 2b f9 ad bf
       0.9045416219041645 -0.058541641892760364
0000c0 d1 14 90 af ac bd ca 3f f1 53 ec 18 30 21 d9 bf
       0.2089134080162354 -0.39265062745954454
0000d0 5e 14 00 5c 2f 14 e9 bf 85 f8 e8 84 f9 9b d0 bf
       -0.7837139889603681 -0.2595199392270689
0000e0 f2 28 dd 53 c9 65 f0 bf f2 93 aa 03 01 68 e2 bf
       -1.0248502040799932 -0.5751957961662113
0000f0 da f6 a6 c8 e8 b6 e0 bf 52 80 c9 58 74 b2 e2 bf
       -0.5223277968395579 -0.5842839941142393
000100 63 a7 e0 00 47 86 ee 3f c3 f5 9e 23 e6 88 f0 3f
       0.9538912789478043 1.0334226027911064
000110 73 58 0c 50 84 31 da bf 09 12 2a 87 37 e4 ed 3f
       -0.40927226845941006 0.9341085090568991
000120 cd b8 01 78 9b 76 a4 bf 74 36 33 41 ab 30 e1 3f
       -0.03996740188527923 0.5371910355986089
000130 af fe cf be 62 c1 ad bf 00 e5 be 1b f5 ad d8 bf
       -0.0581160409856215 -0.38561752042330966
000140 76 c7 c2 1a 90 cc ca bf 5f af 2a 2c 23 ca bb bf
       -0.20936776453668998 -0.10855312183656228
000150 bd b4 1d e1 26 4f a6 3f c4 ca f7 c2 7b a1 e9 bf
       0.04357263086317562 -0.8009623344390424
000160 cb 85 36 02 52 f4 e5 3f 51 23 08 3b 69 a1 e3 3f
       0.6860742610189673 0.6134534981693865
000170 e4 5a 43 58 25 5c eb bf 89 8f 4e 29 b6 26 d7 bf
       -0.8549982761276991 -0.36173776658892415
000180 6a 4f ff de 44 80 ef 3f 8b 69 11 aa f6 89 cd bf
       0.9844078402916072 -0.23077281288244608
000190 20 e7 04 d1 78 33 ea 3f 9b c8 c6 a6 ac 43 e1 3f
       0.8187831957249934 0.5395110375741469
0001a0 7f 77 5b 2d 92 94 d5 3f 05 17 75 74 d9 b8 e3 bf
       0.3371930544798189 -0.6163146280821087
0001b0 6d ff f8 a6 23 e2 d3 bf 3b 4f 10 4d c3 d3 ea bf
       -0.3106774454681645 -0.8383499627256933
0001c0 c0 b2 0f 40 64 84 d3 bf bc 5f 8c fe b7 92 d4 bf
       -0.3049555421446648 -0.32145500047908704
0001d0 4c b4 e7 db f1 c3 e2 3f 8c e9 ec 26 45 d2 d8 bf
       0.5864190382977852 -0.38783386994659774
0001e0 f8 6b b2 9e 2a c0 e5 bf 51 fe a0 e9 d8 16 dd bf
       -0.6797078227567672 -0.4545194894344365
0001f0 0e 80 a2 27 10 4d d9 bf 8b 34 8f 07 51 3b de bf
       -0.39532855864126837 -0.4723703931638929
000200 98 f9 ed 13 ba 27 e1 3f 1f e0 4a 51 56 5c ea 3f
       0.5360994710206795 0.8237716281646533
000210 67 f4 26 09 03 f3 d2 3f 4e 10 56 59 36 3b e0 bf
       0.29608226674810684 -0.507228064045657
000220 b0 a6 d5 00 c9 26 db 3f da dd 6b f3 d2 55 e9 3f
       0.42424225884915767 0.7917265657733268
000230 69 a9 15 ba 2d a5 e9 3f 69 19 d3 6f fc 80 e0 bf
       0.8014134058442269 -0.515745371253428
000240 b1 32 44 ef 0d 3f b1 3f b7 38 fc 23 1f 1e f0 3f
       0.06736838427986915 1.0073539167092755
000250 48 86 27 1f 48 8b a9 bf ed 60 93 1a b8 93 eb bf
       -0.04989076023390432 -0.8617821234757038
000260 e6 e7 3c 6f 20 01 ee 3f 44 3e b4 f7 e6 a1 e4 3f
       0.9376375362983225 0.6447634542436806
000270 0b 69 c5 43 ff 09 d5 3f 44 9d d3 0d bf dd e9 bf
       0.328735176260708 -0.8083186407138006
000280 14 fb 2b d8 4d d0 c2 3f 7a 2d a7 34 eb 08 ca 3f
       0.14698193602813403 0.20339717932652573
000290 8f 80 44 e9 82 75 d8 3f 3c b6 a2 40 81 ad ef 3f
       0.3821723249439026 0.9899297964490823
0002a0 0e a9 78 f1 40 6e e8 bf f5 71 1f 2f 7e a1 e1 3f
       -0.7634587017285257 0.5509634895675491
0002b0 ef d8 2f c3 fa 9c e8 bf 1a 1d a8 ea e3 03 df 3f
       -0.7691625416034905 0.4846124450272825
0002c0 af 84 7d d7 1d 23 d7 3f 18 a4 d1 19 85 c0 d1 3f
       0.3615183452985304 0.27737548371675436
0002d0 e4 ad 2a 2f e3 47 b6 bf 1e f9 f4 1d 47 b8 e5 bf
       -0.08703441525965833 -0.6787448487373557
0002e0 d3 08 b4 9e d5 35 d4 3f 3c b4 09 e2 34 3c e1 3f
       0.315785794242527 0.5385994353106365
0002f0 af 44 22 77 77 e9 e0 bf 85 25 59 ad 7d 29 ed bf
       -0.5284993483384336 -0.9113148103435128
000300 be 04 a3 ec 27 23 dc 3f 2c 24 05 4e 6a 90 e8 bf
       0.4396457491785205 -0.767628815062499
000310 8c 5e a6 dd ef d6 d8 3f ad f1 20 f8 58 d3 b4 3f
       0.38811871190544234 0.0813499074728898
000320 54 d4 57 82 62 4d dd bf ff 5c a8 72 45 e0 d9 3f
       -0.4578481934434582 0.4043134326652335
000330 7d 40 35 f5 77 55 de bf 26 76 09 7a 2a 1d eb 3f
       -0.4739665884599232 0.8473102935346943
000340 ca 03 cc 98 90 bd eb bf 16 76 72 d6 c4 80 d3 3f
       -0.866890238219747 0.30473442976094256
000350 80 e5 8b c6 ed f7 da 3f b4 44 24 0b f3 97 99 bf
       0.4213823737078073 -0.024993703417810223
000360 ff ad 78 a8 a6 6e e3 bf 3f c5 d4 c0 b8 e7 a9 bf
       -0.607257203145707 -0.050596021212536695
000370 b2 82 94 99 48 1e d5 3f 33 84 ba cf 6f 8c ca bf
       0.3299733638578274 -0.20741078989979797
000380 07 27 10 ed 35 7b e9 bf 51 2d 51 45 91 49 ce bf
       -0.7962903623713097 -0.23662010082839882
000390 8b 38 f2 6f 4f 51 d9 3f 70 c0 ff fb 02 23 ea 3f
       0.3955877869819992 0.8167738839965875
0003a0 27 96 f7 20 01 ac ee 3f 5f d0 3f 51 dc 1f e6 bf
       0.9584966319932321 -0.6913892352008694
0003b0 55 42 8d 26 af 09 dd bf d1 9a 6e ff 26 45 d7 3f
       -0.45371607556174826 0.36359572357689013
0003c0 9b 1a bf 4d c8 2e eb bf 60 f2 e0 38 d9 2d e2 bf
       -0.8494607466207812 -0.5680967436706617
0003d0 48 e1 31 81 13 f2 b2 3f 03 c2 f0 2c 93 8f bd 3f
       0.07400628952189436 0.1154720291822358
0003e0 02 8b b6 f3 d0 b2 e0 bf e8 35 b6 3e 60 2a e5 3f
       -0.5218281517048526 0.6614228463019431
0003f0 65 9b 4e 76 be 14 d6 3f 15 4c 71 57 6b 5f ed bf
       0.34501611283706374 -0.9178978641379013

linear1.bias f8 [128]
000000 bd 80 cc c2 99 5e e1 3f 44 c3 46 d0 95 9c eb 3f
       0.5427979283013183 0.8628644054316301
000010 64 16 18 d5 e0 f8 ed bf ad 06 15 01 08 84 e5 3f
       -0.9366306459421136 0.6723670979628956
000020 c6 6a 66 78 ef aa d9 3f 57 fb 94 f1 fb 56 ec 3f
       0.4010580707342054 0.8856181829831752
000030 91 a8 ee 26 a7 74 bb bf 8a 52 c4 d0 c2 75 eb bf
       -0.10724873257155056 -0.858125121829816
000040 7f 56 f5 b8 35 22 e7 3f 7b e0 f3 a2 35 11 c2 bf
       0.7229260075061602 -0.1411501928012092
000050 41 34 cc c1 79 e3 da 3f 0e 91 f8 81 3f d1 db 3f
       0.42013400960496844 0.4346464890716256
000060 5a ed 9a 20 6a d6 dc 3f 70 66 08 8c bf 00 ea 3f
       0.45058682617282886 0.8125913367286568
000070 6a ca 26 56 fa 2e e3 3f 52 07 d8 f1 f3 8f e1 bf
       0.599484604134273 -0.5488223765862392
000080 c1 47 25 10 35 10 e2 bf e1 13 5c 0e c5 d7 e5 3f
       -0.564478427442957 0.6825890808546512
000090 fe 82 63 cf 0a 86 d0 bf da 20 9f f7 a8 af d1 3f
       -0.2581812882690854 0.27634643728062047
0000a0 90 3e b8 5c 76 14 e5 3f dd e3 3c 37 e0 c4 e9 bf
       0.658747845738576 -0.8052826956619544
0000b0 0d ca 23 3d ca 14 e1 bf 2a d8 96 a1 4f 05 e1 bf
       -0.5337878412377123 -0.5318983226814045
0000c0 40 e0 86 e9 ae 5e cc 3f 46 8d 28 05 4e 11 e8 3f
       0.22163950350454975 0.7521123982191191
0000d0 d5 78 98 a2 73 7b e4 bf bc 43 97 07 f2 8e e5 bf
       -0.6400697875685873 -0.6736993931063959
0000e0 33 14 cc 19 87 3b ef bf ab f4 20 79 bb 94 ca 3f
       -0.9760165695048556 0.2076639501046079
0000f0 41 e2 b3 c7 51 f1 ac bf 6d 14 af 2f 03 05 e0 bf
       -0.05652862131859538 -0.5006118708921697
000100 93 49 e6 c0 8b a9 e7 bf 43 de 68 2c b0 8f d9 bf
       -0.7394465224809202 -0.3993950303733735
000110 1d 14 f6 ec fd 6a ef 3f d8 d0 0e 82 1c 60 e1 3f
       0.9818105343007378 0.5429823436920982
000120 f1 c4 9d 9c a8 61 b8 3f 2a ec ed ba 74 19 b4 3f
       0.09524015258445552 0.07851342738824543
000130 9a 8b 63 cc 85 5f ea 3f 2f 22 e7 98 37 b3 ce 3f
       0.824160479733439 0.2398442741962454
000140 38 78 3a a5 f6 d5 d7 bf ae 46 23 8f f9 76 eb 3f
       -0.372434293132645 0.8582732959423163
000150 e5 91 22 70 f1 81 cf bf 58 27 f6 6d 55 d3 93 bf
       -0.2461530492338532 -0.01936086162235226
000160 ca 52 a8 64 f2 02 ea 3f af b6 b7 92 f5 be c8 3f
       0.812859722706514 0.193327614440411
000170 23 75 5a 08 4e 8c d8 3f 32 ce 2f 12 c8 b2 ca 3f
       0.3835635263038332 0.20858097923302094
000180 0f 76 46 dd c1 d5 ec bf 94 49 6d 2f ba 44 dc 3f
       -0.9010934182912836 0.4416947806504592
000190 83 66 e3 12 f7 51 d6 3f 14 09 79 d4 df 59 d1 3f
       0.3487527546363724 0.2711104941300999
0001a0 13 57 eb 57 35 08 c8 bf af bf 9f 0c 4f bf d8 3f
       -0.1877504996579594 0.38667656166853254
0001b0 23 11 68 1c fb 36 a0 3f 37 e9 0f 43 13 10 eb bf
       0.03166947099455999 -0.8457123098189986
0001c0 49 ea 60 ba 1d f8 e7 bf a2 93 b3 af ed 61 d9 3f
       -0.7490376129347364 0.3966020789942438
0001d0 cc 57 7c 55 22 15 94 bf e3 6d bc 83 fe 28 d5 3f
       -0.01961187025798221 0.33062708725785067
0001e0 e2 1a a8 f2 08 54 ea bf 45 16 a2 03 dd 02 cc bf
       -0.8227581729305167 -0.2188373821010591
0001f0 af 0f b9 b0 69 04 e4 bf bb 71 4f d0 cb e6 ec 3f
       -0.6255386783236555 0.9031733578263393
000200 6b 39 83 15 74 43 d7 3f cc d2 56 78 ab 7d dc bf
       0.36349203205909103 -0.4451702761828471
000210 d9 98 4b 2b 37 94 e8 bf 4e 30 29 df 0e 08 c7 bf
       -0.7680927129374836 -0.17993341347244257
000220 b9 40 a6 9d 86 35 e9 3f 4b d4 5d 43 f9 31 db bf
       0.7877839163866361 -0.4249251516224077
000230 eb cf 5c 53 55 07 da 3f 79 7f d9 89 4b b7 e3 bf
       0.40669758931039607 -0.6161248867392565
000240 16 ad 0a d7 b0 ec d7 3f b5 c9 d5 7d c4 05 e6 bf
       0.3738214588181149 -0.6882040460316633
000250 f1 c0 bb e5 eb 84 80 bf dd 20 2f ab ff 3d ea bf
       -0.008066027592093824 -0.8200682013930664
000260 f9 13 dd 4d 35 19 ec 3f 31 ce 28 3a e2 33 da bf
       0.8780771752141155 -0.4094167297327856
000270 8f 53 a3 f3 6a 52 e4 bf 01 68 70 fb 54 e6 eb bf
       -0.6350607641748968 -0.8718666945380847
000280 c0 18 c8 93 65 3a dc bf 00 60 b3 98 54 ff c3 bf
       -0.4410642569713552 -0.15622956710899416
000290 58 99 7a 42 e0 86 8b 3f e7 a7 66 25 6a c0 ca bf
       0.013440849331641289 -0.20899702860088995
0002a0 b9 d7 44 30 64 8c eb 3f e6 46 21 30 05 d3 e6 3f
       0.8608876173736838 0.7132593097723798
0002b0 54 a0 8e 45 4c c3 ee 3f 17 6b d1 5c 34 c8 dc bf
       0.9613400801217815 -0.44971951545964955
0002c0 66 41 fc 63 0b 93 e3 bf 3d 1b 65 06 c9 76 ce bf
       -0.6116997673835101 -0.2380000382638289
0002d0 c7 83 56 e6 6e 12 d1 bf f0 e5 7a 32 1d 6b ee 3f
       -0.2667500733751322 0.9505754457415474
0002e0 9f 3f a5 c5 8c 2d e6 bf 83 70 a5 d6 52 fe e2 3f
       -0.6930602894080841 0.5935453598317654
0002f0 b4 b9 0b 55 f2 83 bc 3f 1e 22 b9 dc e2 a5 d1 3f
       0.11138834549249205 0.2757498889446043
000300 c0 7f fe f7 67 7c e2 bf 16 5d 49 e4 ce 76 bc bf
       -0.5776862949023709 -0.1111878688183093
000310 41 a0 83 3f 02 ef e4 3f d0 a5 67 92 b0 0a e9 bf
       0.654175876666166 -0.7825548991651718
000320 e0 33 40 45 60 ec c6 3f b7 a9 15 29 d6 5d dc bf
       0.17908862477670962 -0.44322732937021264
000330 71 03 f0 10 e5 2f d8 bf f3 20 e4 b8 68 45 ef bf
       -0.37792326597268927 -0.9772227870135154
000340 b8 66 ed 22 0f bd b0 3f 78 24 1d 9d 18 09 d2 bf
       0.06538481333464119 -0.2818051847758123
000350 42 87 0d 35 a6 30 ef 3f 5e 20 4b ff 19 2f d9 3f
       0.9746886287868863 0.39349985056879244
000360 e4 25 c6 4b 8d 3b aa 3f a9 7c 25 a1 c8 7c dc bf
       0.051235595226056835 -0.44511619317013157
000370 1a 64 83 3c 50 8a d1 3f a6 16 a8 ab 35 53 df 3f
       0.27406698140618035 0.48945371402110494
000380 3f 34 92 e6 86 1e d2 3f f1 6f 99 53 08 f2 ec 3f
       0.28311321751317914 0.9045449860382161
000390 88 61 3a 7b 44 e8 ed 3f 1a ba 44 c9 4f d3 e8 bf
       0.9346029669568887 -0.7757948809647275
0003a0 ee 2f 19 e4 12 d1 e2 bf 09 eb 52 e6 92 b5 e5 bf
       -0.5880217032477029 -0.6784147737992906
0003b0 c9 7c d5 71 47 94 e1 3f 61 b9 2e 2b 80 9d e5 3f
       0.5493504737204599 0.6754761546524543
0003c0 15 62 d8 35 45 a2 b6 bf f8 19 ea dc 03 89 e4 3f
       -0.08841354908543793 0.6417254748092196
0003d0 82 37 63 c8 0b c9 ef 3f e3 f3 48 d3 18 6f eb 3f
       0.9932917512721675 0.857311642328224
0003e0 0d cd c9 f4 0c 1d ee 3f 02 6e ef bc 3a 65 dd 3f
       0.9410462170621102 0.45930355501852216
0003f0 a9 24 32 5d 69 97 e8 bf 5f cd 82 00 c3 55 d2 3f
       -0.76848285867995 0.28648448038003055

linear2.weight f8 [128, 128]
000000 69 fb a6 c7 08 b5 6c 3f 5e e3 36 b3 aa 57 a3 bf
       0.0035042926294574406 -0.03777821958232751
000010 ca bc 95 4d e2 0f a3 bf 3b f6 28 4b b1 f6 a7 3f
       -0.03723056027490086 0.046803989815526546
000020 f3 55 e3 f5 b2 08 a2 bf 84 10 3c eb be d8 78 bf
       -0.03522261859476918 -0.006066079880614809
000030 40 99 00 83 6e a6 8a 3f f9 93 17 f1 ce 60 b3 3f
       0.013012755749582383 0.07569592844045293
000040 44 ec 32 90 6e f0 89 bf 9f 30 50 26 17 73 17 bf
       -0.012665618682481512 -8.945301813429112e-05
000050 2d 59 b8 5d 61 ef b4 3f 82 ac fe 98 3b 20 ad bf
       0.08177765405739441 -0.056886541772962054
000060 40 ed cf 16 90 4e 9a 3f 22 b0 7c d6 25 ff a7 3f
       0.025690318481776275 0.04686849826097751
000070 75 1d 13 eb ca 65 93 3f 5e 85 bb 22 ac 22 b1 3f
       0.01894299564153586 0.06693530891381758
000080 a9 2c a9 a1 a9 36 b8 bf 43 b0 3a b3 e0 83 a3 3f
       -0.09458408543393894 0.03811552226883965
000090 3a cf 8f 1c 18 5a 82 bf 19 b4 45 35 74 0f 67 bf
       -0.008960903522143949 -0.002814986199317204
0000a0 db 8b a2 dd 99 60 b2 bf 1d f6 45 8d e2 8c ac 3f
       -0.07178651486405789 0.05576236700560975
0000b0 82 74 79 12 15 b9 b5 3f f9 41 32 10 d3 5c 9c 3f
       0.08485538197551715 0.027697847236199256
0000c0 61 27 a6 3b bd c3 b1 3f 3e 4d 38 4f 75 39 b1 bf
       0.06939299303317405 -0.06728299316482819
0000d0 6f c7 8c 22 a7 58 a9 3f 1e 6c 6e 94 16 74 9c 3f
       0.04950449272872858 0.02778659134819971
0000e0 a5 eb 70 1e 22 5b a0 bf 3c 03 93 ea f6 7b a9 3f
       -0.03194529172511488 0.04977389920669004
0000f0 8a 56 95 e9 d8 3d ae bf 96 fb 18 3a ba a7 af 3f
       -0.05906560756072306 0.06182653388213237
000100 3a 80 b2 d2 6a 1d 82 bf 81 ad c2 85 2c 5f b3 bf
       -0.008845171503992433 -0.0756709887088416
000110 c6 9b 8f 24 ed 08 ad bf 50 d8 5e 02 80 af a1 bf
       -0.05670872756291305 -0.03454208401619552
000120 f9 ec a6 d9 f4 e1 90 bf 86 e7 e6 ed 09 ba 91 bf
       -0.016486955437113846 -0.01731124414957421
000130 97 63 86 80 45 23 b1 bf 7f a5 84 e2 bc fc ad bf
       -0.0669444502622255 -0.05856886162866725
000140 48 90 04 2c ea f0 60 3f fb ac e1 ce ba 4c 8e bf
       0.0020680020972055103 -0.01479478782513021
000150 69 92 f9 75 4a f3 a8 3f cc 06 b0 c0 8a 4c a3 bf
       0.04873116197703526 -0.0376933441366539
000160 19 b2 b9 92 6d 20 b0 3f 53 80 6f f7 4f 88 b5 3f
       0.06299481231844374 0.08411121169001605
000170 1a 7d c0 d8 4f 91 aa 3f 8f fc 37 87 42 7d 99 bf
       0.05188989182374311 -0.02489189100560601
000180 72 16 b0 01 67 50 97 bf 12 ed 93 79 3d 24 a0 bf
       -0.02276764819909833 -0.03152649029831357
000190 9b 52 95 df 80 1a b4 3f 57 d3 5a 87 9f f2 5c bf
       0.07852940996719797 -0.0017668302438497896
0001a0 ad 0e 8f 66 75 48 b0 3f b5 c8 53 ed 5e 8b ad 3f
       0.06360563043477425 0.057703939886680024
0001b0 74 f5 1b 37 80 36 85 3f 55 28 da 31 d8 6a b7 3f
       0.010357858354377504 0.09147406785101116
0001c0 96 22 a3 30 0e a3 23 3f 9f 36 c2 d5 0c aa b2 3f
       0.0001498179265751089 0.07290725916592543
0001d0 b1 2e 00 56 b3 dd 85 bf ab 77 34 de 2a 66 8a 3f
       -0.010676766454728566 0.012890181451947166
0001e0 d9 d4 94 29 5e a8 93 bf 92 80 18 70 ab 54 a3 3f
       -0.01919695977013167 0.037755353387411664
0001f0 ac 86 de 57 4d 6c 86 bf f5 cd d4 80 27 3b 92 bf
       -0.010948757404381247 -0.017803780782925178
000200 69 7a f4 75 38 73 a9 bf 92 52 8b e6 e4 e3 ab bf
       -0.04970718803291591 -0.05447306932697872
000210 9d 96 df e6 da be 82 bf ee 9f 35 ca bd a0 a0 bf
       -0.00915308968610456 -0.032476359304211985
000220 9a e3 78 21 61 5e b5 3f f4 5e 61 3b 3b b2 8b bf
       0.08347136561577742 -0.013523543119091631
000230 4d f7 b4 79 de 3a 9f bf 97 1e 6f 1f 3e 98 b1 bf
       -0.030498005083465164 -0.06872928874428862
000240 81 05 50 4f db a8 b2 3f b2 13 5c dc 90 2a 46 bf
       0.07288904844610579 -0.0006764609649684199
000250 cd c6 c6 a4 9a 59 90 3f e0 ef c0 0b 5d 64 b4 bf
       0.015966812426717426 -0.07965642487482638
000260 e0 0e e1 ce 11 98 a8 3f 9a ef b8 7c 24 72 72 3f
       0.048035198692131464 0.004503386047470937
000270 9b 3f be d1 2c 55 94 bf fc c3 53 41 fe ad b4 3f
       -0.019856167127329277 0.08077992529776162
000280 48 3d f1 1a f5 84 4d 3f 2b 14 16 20 1f 8c 92 bf
       0.0009008595278689269 -0.018112646420849792
000290 f5 5c 9f be d9 c5 b5 bf 4a f1 ce c5 eb f3 a6 3f
       -0.08505021003599096 0.04482971944477983
0002a0 8a 26 bd b1 cc f7 9b 3f 21 58 5b 4d d9 fb ae bf
       0.027312467907256756 -0.06051520413682022
0002b0 37 a0 d1 87 dd cd 6d 3f e9 24 a4 57 3f 5d a2 3f
       0.0036382033127218233 0.035867671440493805
0002c0 3f a8 eb 33 06 59 b4 3f 66 b8 83 ef 19 9c a3 bf
       0.07948340194312296 -0.03830033348809607
0002d0 4c 1a 36 ea cd 45 b3 3f ca 44 3c 86 41 1a b4 bf
       0.07528387992906821 -0.07852563407165572
0002e0 6b c8 19 d8 f7 85 71 3f 8e 82 96 6f 99 1f 8d bf
       0.004278152600465028 -0.014220427244084701
0002f0 78 7c a2 3d 53 a7 a5 3f 62 1d 0d b4 94 47 ad 3f
       0.04229221465470173 0.05718674371615397
000300 d5 15 9d 47 46 40 ae bf 50 5a 3c 1f 7f b2 a3 bf
       -0.059084125749489104 -0.03847119575782598
000310 7b da 65 a8 cf b0 b3 bf 77 fe f6 a9 3e ca b0 bf
       -0.0769166742446518 -0.06558601045161959
000320 85 63 57 f2 74 e6 8f bf c7 57 d9 9e 5a 1c b1 3f
       -0.015576280255958039 0.06683889749669368
000330 0a db 87 da 24 19 9d bf 50 55 7d 80 6e e2 a6 bf
       -0.028416229093603675 -0.044696286377681305
000340 3d 60 56 1e 68 85 b5 bf fa af 5b b9 f4 bc 9b bf
       -0.0840668748918469 -0.02708799725853337
000350 8c bd 8c e7 28 8e b4 3f eb be 51 2e ea 39 b5 bf
       0.08029418614454736 -0.0829149592479969
000360 da 8c b2 33 92 9b 7c bf f7 f8 8e 74 b7 7c 91 bf
       -0.006984301663723625 -0.017077318658032827
000370 d4 af f3 91 16 12 30 bf 03 45 1b d8 cf 20 94 3f
       -0.0002452187636225987 0.019656417431922268
000380 88 bd 90 8b 4a 4f b0 3f 25 9e 90 96 e4 ce af bf
       0.06370988757475093 -0.06212534273100471
000390 24 5d 0c 8e 0d 3f 75 bf 6d 21 5e 7a 88 81 b2 bf
       -0.005187085102782239 -0.07228901851170173
0003a0 82 b9 9a c3 39 98 ae bf 35 e9 0c 32 d1 24 7e 3f
       -0.059755139472474475 0.007359330339392668
0003b0 01 ab 45 46 4d cb b1 3f 28 20 23 29 cf 7e 70 3f
       0.06950839009884292 0.004027184697584153
0003c0 33 e0 58 29 10 b4 ae bf a2 33 1b 38 2e 98 7e bf
       -0.05996752266622742 -0.007469349425900969
0003d0 a7 00 01 18 f4 19 ac bf a2 b5 89 55 76 ed 92 bf
       -0.05488550942436748 -0.018483971567936693
0003e0 47 d2 1e 36 9d 12 b3 3f d0 42 37 24 1e 1a b0 3f
       0.07450277873324139 0.06289852508713101
0003f0 8c 01 96 2a b2 34 9d 3f 3d 64 64 71 47 63 9c bf
       0.02852133164333419 -0.02772246961203372
000400 3b 12 2e 8d 4c 0c 9a 3f 7f e9 82 87 d5 75 b4 3f
       0.025437542073193802 0.07992300566085041
000410 50 eb a3 85 01 8f 79 bf d7 2e 1f 44 b5 6b 65 bf
       -0.006239896722258845 -0.002614835772851136
000420 9c ee 1b a2 0f 9a b4 bf 50 b9 01 2c 71 54 99 3f
       -0.08047578532926497 0.02473618346305645
000430 ab 4e 99 fd b5 37 af 3f 21 af 82 a0 ba 96 9f 3f
       0.06097191544236343 0.030848423048765675
000440 3e a5 5b 48 54 bf 91 3f 0a 7a 5e 2a 9e 9c 94 3f
       0.017331425587064013 0.020128699623109404
000450 e8 13 64 f6 71 d1 6b bf 70 73 dd 9a ee c0 b3 bf
       -0.0033957696751962703 -0.07716265946278411
000460 bc e8 bc b4 cf 8e 29 3f 29 32 ea ed 8d 46 80 bf
       0.00019499097322201407 -0.007947071860393855
000470 94 45 db 6f 52 e2 b4 3f b0 43 fc b3 08 97 b5 bf
       0.08157839995262456 -0.08433584589171406
000480 98 c3 da 5d 8c c6 45 bf 40 71 2b 47 8d 00 a5 3f
       -0.0006645379432567043 0.04101983541269982
000490 a7 d8 4a f2 92 8f 83 3f 6a b7 5d 82 0b 1c 9f bf
       0.009551189440895348 -0.030380420524515207
0004a0 53 59 e3 1d 4b 7e 94 bf ea 9c 47 27 45 31 a3 3f
       -0.020013021182273615 0.03748527626503935
0004b0 b8 73 46 9d cd 98 87 bf a1 17 f9 9a f2 1a 88 bf
       -0.01152191768852072 -0.011770148615265987
0004c0 a9 23 0e 3c 5c 04 b2 3f ea 69 3d 3e 44 3a 83 bf
       0.07037903276626757 -0.009388478421603137
0004d0 9d 54 b9 bf 8a 63 88 3f eb c3 b4 25 f1 3f a7 bf
       0.011908611274672071 -0.045409713604733636
0004e0 7f a6 3e 0d 51 97 99 bf 66 2a 67 d7 64 f9 9c bf
       -0.024991289552110715 -0.028295112273364252
0004f0 ee 62 a1 93 1d 16 b5 bf c8 5d be 0e 46 6b b1 bf
       -0.08236870626695822 -0.06804311618758796
000500 61 27 08 9f 29 97 87 bf 24 75 2c 94 21 a4 ab 3f
       -0.011518788495795186 0.05398659642944839
000510 77 93 33 b1 46 55 a0 bf 2c ac 7a 20 c0 d8 6f 3f
       -0.03190060532668942 0.0038875343778577345
000520 8b d6 a3 46 a9 f3 b7 3f 13 26 cc 50 c4 06 b5 3f
       0.09356172537430944 0.08213450405687465
000530 11 7e 79 d5 72 40 b9 3f 27 0f ce de 9d 09 9c bf
       0.09863965713292823 -0.027380434726651217
000540 68 7c 70 49 3d 91 b4 bf ce 29 fc 11 95 1e a4 bf
       -0.08034117739633617 -0.03929582447570433
000550 3f a6 c6 cf 87 1f ab 3f 79 ff 8c d6 84 dc 9e 3f
       0.052974933732297995 0.030138087840213743
000560 5a 1a 5e 08 2c 97 b3 bf d2 ae 4c d0 05 fc b4 bf
       -0.07652545170103889 -0.08197056136549044
000570 d4 6d ca 53 12 98 88 bf 86 e9 76 a8 fb f0 67 bf
       -0.012008803541269687 -0.002922526855141774
000580 ff 1a 8c 00 9d e3 8c 3f dd b0 82 dc 6f d3 90 bf
       0.0141060128967303 -0.016431567987340457
000590 63 98 9a 9a e0 b9 94 bf 08 60 84 7c 82 e9 73 bf
       -0.02024031585337872 -0.004861364090423599
0005a0 bf d5 e8 0c 2e 85 a6 3f c1 b9 d6 92 1e 2c a4 3f
       0.04398483188235102 0.039399104523329516
0005b0 11 b7 71 e6 76 c9 a7 bf c2 fd 34 e9 18 4e a5 3f
       -0.04645892680205866 0.04161146017804242
0005c0 3a 17 d2 4e 66 47 a2 3f ec 57 cf 00 da bd 96 bf
       0.0357009860245356 -0.022208601283487825
0005d0 4d 1e ef 0b ac 85 81 3f e5 79 60 6e b5 ec b5 bf
       0.008555740465353479 -0.0856431383585697
0005e0 24 c6 5d fa 14 01 6e bf a3 e0 c3 f1 1d 53 a2 3f
       -0.0036626252867158083 0.03579038215861032
0005f0 7e 3d ac 63 76 0b 9c 3f 25 76 d8 9f c3 08 a7 3f
       0.027387475808664068 0.044988740217587066
000600 c3 7c c8 3c 05 ca b0 bf c6 a4 fe 1f 9f 77 b2 bf
       -0.06558258756602968 -0.07213778048630379
000610 cf 77 9e c3 d9 93 a1 3f d8 4a 53 24 13 7d 88 bf
       0.03433113587310254 -0.011957311197340045
000620 15 ec 4d 06 09 04 b0 3f 52 1f 8e 20 2e 75 ac bf
       0.06256157306590666 -0.05558151385690614
000630 9b 0e be 91 5d 1f 9f 3f 03 12 5d 81 42 49 91 bf
       0.030393087406550206 -0.016881026406979426
000640 ff 2e 5e 09 04 61 29 bf 5f bd 71 2e a8 5a 97 3f
       -0.00019362615847417355 0.02280676635240064
000650 4d 28 6f cd 36 3d b3 bf 55 e3 e4 00 58 87 ac bf
       -0.07515280261500941 -0.055720090970175086
000660 f9 d3 06 5b 12 36 84 3f 86 d5 ce 39 f9 08 a5 3f
       0.009868758585847447 0.04108408766425513
000670 f6 9c b3 77 8c 50 9c bf e3 cb 9e 1f 1a bd a6 3f
       -0.027651018911368085 0.044411484107875564
000680 6a 3d c2 a5 cd 5d 1d bf 6e 2e d9 f8 f9 20 98 3f
       -0.00011202399895381623 0.0235632951865185
000690 a7 37 09 ce d4 75 61 bf 95 63 02 a5 47 90 97 3f
       -0.002131381639890645 0.023011321493502008
0006a0 6a 5a ec 52 8c 6f ae 3f 36 88 5c 13 c3 a9 a6 3f
       0.0594447947716404 0.04426393138261668
0006b0 b1 d1 af fc 29 b3 b0 3f 7c 0f 28 3c c2 c9 92 3f
       0.06523382586585204 0.018347773477230586
0006c0 6b 08 8a da db b2 b0 bf 88 95 f4 67 7d 57 b5 3f
       -0.0652291687529513 0.08336623943303867
0006d0 da 05 73 14 18 ae b4 bf 96 72 4c 5a f6 af b4 3f
       -0.08078146456957516 0.08080997185283886
0006e0 8e 61 fa c7 e4 c3 ae 3f 13 96 bb 65 b0 65 b7 bf
       0.06008830014360732 -0.09139540179929666
0006f0 6d 5e 2f dd 0c ba 92 3f 8e 83 41 6d 21 b7 98 bf
       0.018287850380004068 -0.024136087697459944
000700 33 81 20 5c 21 14 a4 bf 10 0e b5 da 03 0c ae bf
       -0.03921608209225482 -0.05868541760221657
000710 b4 6c 57 cd ba 72 b6 3f 80 c0 cf c6 5a 08 bb bf
       0.0876881362268474 -0.10559623101994653
000720 03 7b bb ee 81 8b a4 3f ec 79 99 74 b5 51 53 3f
       0.040126858131534625 0.0011791488672298024
000730 45 59 0a f4 91 60 af bf c5 8f 2f 84 80 9e 9d 3f
       -0.06128364662179079 0.02892494971082706
000740 b7 68 d2 d9 3e c9 a0 3f c8 96 37 85 91 ef b3 3f
       0.03278538140257708 0.07787427427646343
000750 7e d0 3f 12 b9 5d 97 bf e3 83 1f ad e5 f6 a8 bf
       -0.022818462122771603 -0.048758675940696404
000760 9d 84 9e 15 e2 ba ae 3f fb d7 cd fd 5f 66 aa 3f
       0.06001955522447953 0.05156230900949762
000770 12 ea 0c 83 7e 92 b8 3f bc 09 d8 05 8b 0b b1 3f
       0.09598532390092654 0.06658238308594994
000780 56 ba eb 4f ec ff b3 3f 36 df 61 f0 41 1b 71 bf
       0.0781238265151186 -0.004176385473435398
000790 58 fa 0e f2 4c 35 a0 3f 46 17 60 27 8c dc ac bf
       0.03165665106597676 -0.056370143705903916
0007a0 cc 60 fd 74 95 86 98 bf 03 c9 4a 67 36 88 b4 3f
       -0.023950896516311812 0.08020343801289091
0007b0 22 72 4f 87 37 82 a7 bf 10 44 0a f3 60 fd 94 3f
       -0.04591535116899005 0.020497813066473525
0007c0 ab 27 23 16 68 eb a0 3f 22 cd 7e fb 05 a9 b4 3f
       0.03304600973349577 0.08070409193060304
0007d0 38 00 de 7c b6 d4 7f bf c2 0a 47 21 14 1a b0 3f
       -0.007771218149969221 0.06289792835654409
0007e0 d4 de a6 07 65 b7 65 3f cb 7f fe bf e8 7c 82 bf
       0.00265092594528569 -0.009027307852932062
0007f0 d6 15 37 4e f5 23 b5 bf 78 db 63 f8 97 f9 a9 bf
       -0.08257992896604746 -0.05073237330537145

linear2.bias f8 [128]
000000 4b 67 dd c5 db b9 b0 3f cf f7 60 61 3a e6 b6 3f
       0.06533597546277041 0.08945050122653629
000010 0b d6 50 d0 3d 84 a1 bf ef b8 01 05 a0 fa 95 bf
       -0.034212047270937594 -0.021463871293627198
000020 a4 57 48 03 77 c5 a1 3f a9 6d fd 22 97 23 9a 3f
       0.03470966258116384 0.025526391516320555
000030 a4 d5 c2 c6 d5 a9 7e bf 81 82 07 61 b6 ca 90 3f
       -0.007486186088660505 0.016398286506844165
000040 ca 18 7e ac 48 5a a4 bf a1 3d 59 b2 eb e8 b1 3f
       -0.03975131135580197 0.06996033767904077
000050 8a 8c d0 3e d5 92 b2 3f 46 e0 fc 85 49 97 a5 3f
       0.07255299361763626 0.04216985474198558
000060 b9 30 05 d1 7e 1a 73 bf c0 6a 5b f1 bb 51 aa 3f
       -0.004663939835449487 0.051404832088981944
000070 87 97 d8 0c d4 9c ae 3f fa 06 b8 f4 40 c8 ae 3f
       0.05979025513469965 0.060121564743907244
000080 01 09 48 4c b7 2d b3 3f 4d dd 4d f6 0f 33 27 bf
       0.07491632091845092 -0.00017699785089651324
000090 08 2f 26 dc 38 e5 b1 bf 1a eb 86 54 63 0f b5 3f
       -0.06990390181288941 0.08226605237625187
0000a0 66 73 5c a6 40 f7 67 3f 33 6b c0 38 fe e3 b0 bf
       0.0029255163853022957 -0.06597889791048032
0000b0 8a 57 4f 43 68 67 97 3f 67 a1 48 a8 76 ee b0 3f
       0.022855404957077087 0.06613866432656366
0000c0 63 87 34 c8 be fc 9f bf 0c 83 2a eb 28 66 8f bf
       -0.031237584085040192 -0.015331573178003953
0000d0 fb b5 f3 14 91 e8 a8 3f d2 d7 f0 8c 98 a1 87 bf
       0.04864934330712952 -0.011538688470050493
0000e0 46 f2 0b e9 01 14 b2 bf a7 b9 9c 10 6d 0d 9b bf
       -0.07061778964629992 -0.026418403757981015
0000f0 ce e1 22 15 2b 2a b0 3f a5 e8 92 0d 3e 70 af bf
       0.0631434370615189 -0.061403216511693594
000100 2f bc ba cd fe e1 9e bf 7e b0 55 a4 3a 92 96 3f
       -0.030158978754737994 0.022042194633670402
000110 e5 2a 3e 42 42 81 b3 bf 6b 90 9b 75 98 fb 6a 3f
       -0.07619108311898122 0.003293798229480107
000120 f4 a3 b8 68 85 b0 8f 3f 94 d9 79 e4 9c ef a3 3f
       0.015473406084383946 0.03893747605336553
000130 c3 c3 e9 b7 3b 02 b3 bf d9 6d 9e ef ea 91 3f 3f
       -0.07425282707278229 0.0004817198347326336
000140 a8 05 48 93 52 0a b2 bf 6a 18 72 48 3a b5 8d bf
       -0.07047000976310491 -0.014505820594660618
000150 51 56 5d b9 86 f4 95 3f e9 87 fa 64 28 1d a9 3f
       0.02144060617805216 0.0490505812897622
000160 f5 55 d2 2c b6 30 a6 3f 52 55 b5 90 ed 75 ae 3f
       0.043340390178098355 0.05949346915682931
000170 f5 ab 0a 49 80 a6 b1 3f 5b b1 7f bc 97 6f 89 3f
       0.0689468553852491 0.012419877471949439
000180 2e d5 0c 62 6d 16 b8 3f 6e 2e 48 37 1d 34 6d bf
       0.0940922130947299 -0.003564889013665077
000190 1c aa c3 2f fc 64 b5 bf d9 8a 7a 34 51 9c aa bf
       -0.08357216039772947 -0.05197385564431096
0001a0 87 12 32 c4 5b 5f a8 bf ff 30 6c 55 3f 6a ab bf
       -0.04760252733197939 -0.05354497831112503
0001b0 5b 5d 60 20 f3 41 ad bf c3 aa fa f4 6f 58 b0 3f
       -0.05714378137798334 0.06384944659172746
0001c0 ab 32 e8 ee 2c 4c b3 3f ac fc 90 7b 9a 2f b6 bf
       0.07538109619799609 -0.08666387097126699
0001d0 c6 ef fb 5d a4 df ab bf 70 39 02 1b 40 11 a6 3f
       -0.05444062850253277 0.043100360199889276
0001e0 d5 9d 87 97 88 ad a0 bf 97 7c 8c d6 be ef b3 bf
       -0.03257395601013583 -0.07787697542197446
0001f0 48 7b d3 5f f6 a1 a3 3f e6 ee 76 1d 0c e1 95 3f
       0.03834505004646488 0.021366299913764396
000200 4f e8 8f 1a 57 0a 99 3f bc 8b 73 80 62 ee 89 bf
       0.024453507419800066 -0.012661714119934213
000210 25 ec ac b5 e4 c1 b1 bf 47 dd 8d 0d e1 de 9f 3f
       -0.06936482844768983 0.03112365384319318
000220 6d c9 ec 4a 95 96 b1 bf c7 23 7f 05 d1 87 6c bf
       -0.06870396689627052 -0.0034827310991869284
000230 0f 78 6d be cd 47 b4 bf 4f e1 a5 dc e7 48 a6 3f
       -0.0792206373130002 0.0435249764295259
000240 92 e4 d1 5b fa 4e a2 bf 3e 5d 0a b0 9f 43 a1 bf
       -0.03575880404327693 -0.03371905349666314
000250 06 68 00 3f 42 8e 94 bf e2 bc 9c 73 3e c0 af bf
       -0.020073924155532573 -0.06201357995302616
000260 c6 33 ac bd e3 26 b0 bf 99 81 3c a6 28 25 b7 bf
       -0.06309340840034769 -0.09041074808602047
000270 aa 65 48 53 e2 8a 91 3f 6b d4 e5 ec 98 3c ae bf
       0.017131363232783116 -0.059056071203408354
000280 f1 ed 85 88 d4 01 a8 bf ec 5d d9 19 61 68 7e 3f
       -0.046888963380265276 0.007423762608218958
000290 3a 05 6d 22 ce 5b b1 3f 26 ec b7 bc f8 b7 9f bf
       0.0678070863769066 -0.030975233572444826
0002a0 a4 76 7e b9 bb 22 a7 bf cc d6 83 7a 19 ac 62 3f
       -0.04518686904269245 0.0022793290737535884
0002b0 3f 4e 9b e2 ef c9 b4 bf 7a 9e ad f7 19 e9 b5 bf
       -0.08120631487263895 -0.08558809563475647
0002c0 53 c9 2f 96 77 0a b3 3f f8 6a 55 7e 0d 4c 9c 3f
       0.07437846581141132 0.027633868060870065
0002d0 9f 53 9f e2 59 47 aa bf 8a f1 e4 b6 6b b6 b0 bf
       -0.05132561580072736 -0.06528351988976602
0002e0 10 05 a2 1a 48 2b 98 3f 53 84 3b 06 07 18 b4 3f
       0.023602606416266048 0.07849162962112759
0002f0 ea ab c7 a4 94 1b a2 bf a7 9d d9 f0 ce fb b7 bf
       -0.03536667357897001 -0.09368604068878615
000300 6d a7 a6 06 0a e9 95 bf dd 3e d2 de 0f c5 b3 3f
       -0.021396786361641263 0.07722567739460424
000310 cb 74 56 ae 4e 15 b3 3f 2b 29 a5 c9 97 af ab 3f
       0.07454387432376845 0.05407404266823542
000320 d9 94 03 4a b5 b3 94 bf 4e 2d 1b db 8f 7a 88 bf
       -0.020216782228904193 -0.011952518343057019
000330 3e 7d f0 49 eb 7d 71 bf 78 70 a9 b6 a7 f7 99 bf
       -0.004270476433730961 -0.025358791850849077
000340 6a f1 66 26 01 11 90 3f 4f 60 10 d3 05 41 b3 3f
       0.015689866989974467 0.07521091845444626
000350 3e 34 ca a1 cb dd a5 3f ba c2 be 3d 40 e9 bb 3f
       0.04270778989766953 0.10902787692499319
000360 69 f0 fc 45 31 5c bb bf 85 08 d2 bd 03 f7 86 3f
       -0.10687549551670518 0.011213330488548454
000370 36 9f dd 39 3e bd a6 bf 10 dd ad 32 5b 1f a8 3f
       -0.04441256004684961 0.0471142291416361
000380 ee 61 15 ef 92 78 93 bf e5 bf 2a 81 ac 58 aa 3f
       -0.019014640657902086 0.05145777775521746
000390 36 99 d1 19 d3 fa b1 bf 0c 90 d4 42 b5 30 a4 3f
       -0.0702335298570674 0.03943411293792573
0003a0 5a c9 b5 21 5e 0c a6 bf 51 cf 4a e6 b4 06 b2 bf
       -0.043063108077052006 -0.07041483518952175
0003b0 e3 c6 19 45 08 4a a0 3f f2 06 74 d4 2c 18 96 bf
       0.031814821658270785 -0.021576595751873158
0003c0 1d eb 07 9c 6e 7d b1 bf 01 f0 36 a9 62 2c b2 3f
       -0.06832019147251996 0.07098976737228214
0003d0 ec cd c5 c2 5a 33 4c 3f 7b 75 72 06 3a c2 71 3f
       0.0008606141250723765 0.00433561960303785
0003e0 04 fd 39 20 b1 4e a7 bf c1 79 6b 22 5d 1e b4 3f
       -0.045522246536160466 0.07858831491782949
0003f0 3a 9e 99 0e c7 9d a1 bf f9 a6 f2 14 3f 02 7f 3f
       -0.03440687230323332 0.007570501721753103

linear3.weight f8 [256, 128]
000000 75 94 35 d3 3c 56 87 3f 32 51 64 f9 e7 c0 84 3f
       0.011394953914257247 0.010133564279876415
000010 58 6b c1 ee 69 f0 b8 bf 9d 3e 73 79 b1 f4 be bf
       -0.09741842345230844 -0.12092122283069746
000020 8b 6c aa 44 0a d7 70 bf f0 bf e8 63 1f ad b1 bf
       -0.0041113282301480465 -0.06904789151371893
000030 c5 d4 3e 09 1e fd a5 bf c3 e6 d8 46 5b 34 ae 3f
       -0.04294675696238807 0.05899319877467015
000040 35 47 67 60 b0 b4 b4 3f ba 4b 5d 53 9e fe af 3f
       0.08088209489440319 0.06248945968277249
000050 24 9f c0 c1 27 86 b0 bf dd ce 11 9c b1 d1 ae 3f
       -0.06454704742702383 0.060193586636982245
000060 05 8b 7d 07 06 9e b3 bf 5b 2e ed 6e e1 2a a1 3f
       -0.07662999804373889 0.0335302780063926
000070 d0 13 cd f0 92 c1 b3 bf ce 69 27 f2 8a d0 a2 3f
       -0.07717245463307099 0.03674730497342048
000080 3d 92 1c d2 37 ff b7 bf 4d c3 16 58 a2 05 be bf
       -0.09373806838682071 -0.11727347040756549
000090 f2 bd 11 fa 16 d1 b1 bf 33 2a cb 71 f6 07 ab bf
       -0.0695967064400447 -0.05279512538034616
0000a0 f9 15 75 15 11 a9 9f bf 66 5a be bd 20 a4 a0 bf
       -0.030918375906614035 -0.03250219646649981
0000b0 f2 3f 85 0d 0b 3d c1 3f 8f 17 ae 2b 84 b0 b7 bf
       0.13467538986378674 -0.0925371748581638
0000c0 28 61 5f 2c ca 5a a9 3f 49 a3 52 36 46 40 9a 3f
       0.04952079574258256 0.025635811868286926
0000d0 34 82 02 65 9d e1 ac bf 16 2e 1a 41 70 cf b8 3f
       -0.056408804493234405 0.09691526021395477
0000e0 e4 2d 8c 51 a3 ec c0 3f 2f af 47 ed fb 28 c2 3f
       0.13222161752524564 0.14187573514879534
0000f0 67 38 7d 47 62 5e ad 3f e9 9b 2b 41 6e d8 bd bf
       0.05736071703596295 -0.1165837201220793
000100 b0 b2 9a f3 2e e4 bc 3f 04 88 65 18 d0 45 a3 3f
       0.11285680243845309 0.03764200494585171
000110 18 1f 83 62 67 bb c2 3f 0a 73 63 10 1d be a2 3f
       0.14634411153951343 0.03660670113615623
000120 97 54 74 e1 47 de b0 bf ad 49 38 eb ba 33 a2 bf
       -0.06589173559435078 -0.03555091973625522
000130 bc 16 17 be e0 cd 9a bf 0c 18 1f a3 b2 b7 9d 3f
       -0.026175986864265907 0.02902106400122055
000140 2d b4 6d 14 75 ad b3 3f 7e b9 7e 34 a6 3c b1 3f
       0.07686549900763913 0.06733168393723152
000150 b4 60 cf cb 9d 03 b4 3f e3 1d b9 b0 1b 3e ba bf
       0.07818018174964686 -0.10251019539383992
000160 19 e3 1d 6c 53 32 b3 3f 50 e7 b9 07 3d 8c a9 3f
       0.07498666181153303 0.049898059075487056
000170 37 03 5a 04 f6 4d a8 bf 59 88 54 55 88 f3 a0 bf
       -0.04746979525680788 -0.03310800592068181
000180 50 a9 92 ba 11 a7 74 3f 39 47 4c 6a 79 83 a4 3f
       0.005042142155767884 0.04006556913931409
000190 24 27 5d 9c 04 7f a7 3f b4 d3 ef 35 fd b8 c1 bf
       0.04589094551790954 -0.13845791944154728
0001a0 1a ae fd 17 3a 00 8b 3f 0e aa 37 b3 29 cf 86 bf
       0.013184026581902809 -0.011137319356710609
0001b0 b5 7a c9 33 76 35 ac bf cd ec e6 74 92 d6 b3 bf
       -0.0550953806130016 -0.07749286035589194
0001c0 8a 68 91 63 89 d3 a7 3f 67 ee 61 70 05 c6 91 bf
       0.04653577175550179 -0.017356953605924732
0001d0 c4 82 98 ac 76 19 8f bf 08 99 92 fe 12 3c ad 3f
       -0.015185286657528059 0.057098954749834674
0001e0 26 ed f6 72 ad 6d a9 3f 8c e8 c2 6b 80 ea 97 bf
       0.04966489818931512 -0.023355490281325816
0001f0 fd a2 e3 56 de a8 b0 3f a1 57 8b d5 47 d3 a8 3f
       0.06507672902410984 0.04848694307081237
000200 60 d2 bf 81 e0 31 7a 3f 6d 4c 13 0b 43 f4 ad 3f
       0.006395222644631632 0.058504195310569475
000210 28 45 1d 11 8e 2e b2 3f 7f a3 c9 50 47 e3 80 3f
       0.07102287214117509 0.008245999482100917
000220 d2 85 9c cf aa a3 a8 3f f4 70 11 52 ad 06 94 bf
       0.048123681872549576 -0.019556720861474156
000230 c9 24 5c 0d 77 d5 b3 bf a0 98 cb 1e 91 81 b7 bf
       -0.07747596813364334 -0.0918207836326439
000240 55 9d d6 62 26 75 4d 3f cf 8a 1d 58 c4 39 97 3f
       0.0008989751274172489 0.022681301000725903
000250 6d b8 c3 f6 c7 b4 a7 3f c6 b6 4e 25 5f 80 b3 bf
       0.04630112540495266 -0.0761775461275774
000260 e5 ed 86 21 f4 f3 77 3f ed af 7d 39 c0 a7 ad 3f
       0.005847886692602587 0.05792046262544646
000270 c1 4e f1 5c 11 1d a7 3f bd dd 6e 65 95 89 99 3f
       0.045143644900830456 0.024938902202590308
000280 75 be 4e 34 4a 07 97 bf 15 63 02 eb 64 65 a8 3f
       -0.022488746111490394 0.04764857643858115
000290 e8 ea 4e eb f6 3c 91 bf 43 d5 f7 6e 4f 83 a9 bf
       -0.016834123718335287 -0.049829942985449203
0002a0 2d 89 68 8d 0f 83 67 3f db 22 a9 ed c5 6a b1 3f
       0.002870111823782959 0.06803547909033673
0002b0 01 43 c4 9a 31 66 bd 3f 97 6a ec b0 96 b3 b9 bf
       0.11484060314638712 -0.10039655513211652
0002c0 73 76 39 7a 74 c0 a2 bf a3 e7 4e 67 db 19 b1 3f
       -0.03662456504819724 0.06680079719708813
0002d0 1a 7f bd 0d 5a 9b a2 bf 58 45 a6 73 26 f2 a2 bf
       -0.03634148996093085 -0.03700370942818648
0002e0 3a cb 04 f6 35 06 a6 bf 38 b7 b2 64 f8 b8 b6 bf
       -0.04301613453062321 -0.08875992258500964
0002f0 e9 8a dc 55 14 df a3 3f 38 a5 4a 18 1b 8e b9 3f
       0.03881133602251003 0.09982461302810897
000300 f1 24 a4 88 04 a8 8a 3f dc 14 80 36 d3 c2 ae bf
       0.013015780849416876 -0.0600801471737584
000310 e0 a1 f3 29 45 e8 78 3f d0 28 25 cd 32 68 a8 3f
       0.0060808850969142625 0.04766997102940851
000320 57 44 70 e8 6d 40 6e 3f 16 56 48 56 b6 f7 9f 3f
       0.0036928316726592514 0.031218384758252858
000330 c2 c7 2d a4 bd e5 91 3f 51 7c 92 2f 73 d8 82 3f
       0.017477954049759388 0.009201908005989664
000340 60 98 75 23 df 9b ba 3f ec 06 74 ec d3 05 98 bf
       0.10394091239649716 -0.023459731394729497
000350 78 6f d5 23 cc bb ac bf a5 de a0 47 b9 aa 80 bf
       -0.0561202806227063 -0.008138129709649286
000360 e9 38 bc f7 1a f4 af 3f 9a 31 18 8a 1e 94 b1 bf
       0.062409250966185166 -0.06866637107322618
000370 0f 30 72 d0 ee 84 94 bf 5a b1 b4 17 cd a0 b3 bf
       -0.02003834864858339 -0.07667238072162288
000380 f1 22 56 79 48 9b b9 bf ff de a1 26 f6 99 af bf
       -0.10002568208995989 -0.0617215082319813
000390 f3 57 5a 7c 6e e4 b0 3f 35 d4 d1 7c 97 0e ad bf
       0.06598558937034209 -0.0567519512050371
0003a0 5c e1 1d 5a 70 65 b2 bf 6b 65 94 7e 14 f0 bc 3f
       -0.07186033439746126 0.11303833093952213
0003b0 01 87 8d 97 1f 33 99 3f e5 9c 36 c0 64 90 a4 3f
       0.024609082818080278 0.04016413542131562
0003c0 9e 49 00 17 94 7b 93 bf d0 9d 70 dd c1 ae a9 bf
       -0.01902610197437015 -0.050161417275656484
0003d0 bc db 71 49 85 49 bb bf 5a e7 8d 94 56 a4 ab 3f
       -0.10659058611950817 0.05398817599684831
0003e0 62 00 b6 98 4f 26 b3 bf 3d 82 2c 71 3e 2e bd bf
       -0.07480332830709949 -0.11398687613519427
0003f0 a5 92 a9 80 a2 a3 b5 3f 85 10 91 42 28 38 b8 3f
       0.08452811852618909 0.09460689187204892
000400 6b 6b 73 08 fb 30 a9 3f 28 bf b3 e5 a6 e3 be bf
       0.049201817304228644 -0.12066119296991629
000410 fa ff d1 4a 81 2b 8c bf 82 b5 af 73 5e 73 b3 bf
       -0.01375485429366562 -0.07597914051412683
000420 bd 8f 7f 75 68 92 99 bf d3 4e 89 61 d1 f8 ae bf
       -0.02497256486084586 -0.06049207988385565
000430 05 5d b7 c6 9f ea 8e bf e1 75 2b 7c 4e 9c 89 3f
       -0.015095947505797467 0.01250516239582117
000440 19 aa 57 0c 72 7a aa 3f dc 67 2d b0 5c 2b b7 3f
       0.05171543503441373 0.09050540257649636
000450 f0 b6 6a 1a f5 7b ae 3f 93 ad 61 e5 27 3c a1 3f
       0.059539470171655284 0.03366207766597564
000460 be bb b7 4b d5 62 ba bf 23 20 62 ef d3 c9 a4 bf
       -0.10307057474686496 -0.0406023244586893
000470 8d 08 ff 7a 1a 15 a1 3f 26 50 cb eb 33 16 92 3f
       0.03336413146418336 0.017662822024092993
000480 57 d4 e6 98 f0 2b c2 bf b6 bc dc 44 1c b5 c1 bf
       -0.1419659372892592 -0.1383395515672185
000490 f6 1b ad a9 ef 5b c0 bf 88 9b 05 39 65 b4 8e bf
       -0.12780566964121903 -0.01499251442210238
0004a0 2e c7 b9 1e be 29 9c bf 54 f9 29 9d 2f ed 96 3f
       -0.02750298559698832 0.022389167754675768
0004b0 cf 6d 81 f4 ac 61 b9 3f 8e 1c c9 a0 6c 6b b6 bf
       0.09914666146635585 -0.08757666516713611
0004c0 1d a4 01 38 91 58 a8 3f 64 12 97 d7 e3 eb ad 3f
       0.04755071457550051 0.05844032294001947
0004d0 1b b7 f0 bc 37 8a 98 bf db 19 0d 93 8f 76 a0 bf
       -0.023964758784294476 -0.03215454740579889
0004e0 97 fd 94 af d0 59 a2 3f fc 42 18 8d f6 80 bc 3f
       0.035841485436772284 0.11134282059380135
0004f0 58 1d 57 43 d9 72 9a bf 53 b7 11 d5 8d a2 b6 bf
       -0.02582873795998117 -0.08841787769207814
000500 7c 4e 8f 07 9a 17 7c 3f 99 b4 91 ba 74 d4 b7 bf
       0.006858445813992749 -0.09308557085906201
000510 b9 3c 78 b6 6c 67 b8 3f 5e a7 01 a8 6f eb c2 bf
       0.09532813505960548 -0.1478099413246196
000520 76 7f 71 9e 04 59 a8 3f 48 eb e9 71 59 1b 75 3f
       0.047554153767804516 0.005153035540042712
000530 80 2d 52 16 86 a4 82 3f 4f 4c 41 70 a5 f9 b5 bf
       0.009102866703208035 -0.08584054937937079
000540 ba f6 c6 c2 f8 6c c0 3f 61 8a 84 c0 d8 9e 96 3f
       0.12832555304151133 0.022090327024793747
000550 77 31 f3 38 d4 df bc 3f ec c7 5d 0f 0d 84 62 bf
       0.11279035940532887 -0.0022602324560745315
000560 dd 25 7e 31 a6 a8 b9 3f 5d ea 76 75 3a 7f a6 bf
       0.1002296324569651 -0.04393942531483639
000570 60 08 f7 0d 9f bb ba bf 3a 42 28 4c 8c 27 bc 3f
       -0.1044253739446801 0.10997845515545004
000580 d0 71 23 43 27 67 8d bf d5 98 d5 bb 1f 67 b0 3f
       -0.01435690568580919 0.06407354675102124
000590 76 ee 70 04 19 de b7 3f 3e e0 7b f2 8c 91 b9 bf
       0.09323269232202755 -0.09987717552201134
0005a0 32 2c 01 0f 1f 29 b0 bf 26 0e f2 d5 73 ff b3 3f
       -0.0631274615890767 0.07811664555816175
0005b0 72 c7 92 bf 5a 1b c1 3f d7 fc ca 5b ad 0d a8 bf
       0.13364729265373004 -0.046979348616781706
0005c0 b6 ca b0 45 68 44 89 3f 72 0b af ae a4 b5 b8 3f
       0.012337507845676537 0.0965216566537899
0005d0 71 57 a6 dc 07 77 a4 bf f7 37 a9 f6 3f 5e b7 3f
       -0.03997063225248965 0.09128188869473762
0005e0 1a 2d 08 b5 29 8f b8 3f 13 ac a2 5e 7c 30 a6 bf
       0.09593449277615598 -0.04333866744249106
0005f0 4a 62 fb e0 dd cb b2 bf 83 db 2b 9d 73 79 a5 3f
       -0.0734232591888794 0.04194222730250543
000600 0c 50 31 82 30 29 a4 bf e5 b8 8c 42 ef a4 a2 bf
       -0.03937675084367251 -0.03641460120557997
000610 6e ec fa 79 f3 f3 a6 3f 0d 2e 60 4c f4 7b b7 bf
       0.04482994903579472 -0.09173514237061671
000620 80 f2 5c 1f a3 cd a2 3f 00 a0 ef 8c d7 9f 94 bf
       0.036725137308597944 -0.020140998818447997
000630 38 32 76 37 a4 a0 95 bf 7b cf 4f 38 2b cc 9a bf
       -0.021120611081231838 -0.026169467269894647
000640 54 e7 c5 ff aa 52 b6 3f ab 2e 45 ba 4a 66 a5 3f
       0.08719891304454325 0.041796050298754515
000650 0a ed 2d 27 71 c6 a3 3f 2c f2 6e 4c 64 c8 b5 bf
       0.03862336734069956 -0.08508898607301124
000660 fa bc 3e ff bb 90 c1 3f 22 02 e6 36 d6 2c 8a bf
       0.13722944224489436 -0.012780831861847256
000670 03 8a 59 d3 23 39 53 3f 83 5d 19 76 44 5d 9d 3f
       0.0011732911929348562 0.02867609949893569
000680 62 dd 91 47 00 0a 91 3f b7 e9 db 9b de f1 b2 bf
       0.016639713638565985 -0.07400313668396206
000690 72 b0 a4 28 50 25 c5 bf 04 45 93 5e 0e 79 a5 3f
       -0.16520120605980854 0.041939209980805386
0006a0 35 4a 52 63 94 f5 ab 3f a7 24 96 ac 78 38 c8 3f
       0.05460799896640759 0.18922336985659635
0006b0 c6 0c 1f 40 e2 25 ba 3f e7 54 10 f4 15 42 ab bf
       0.10214056077443265 -0.05323856930059794
0006c0 4d 7f 88 50 63 b6 bd 3f bf 44 e8 b0 85 50 b9 bf
       0.1160642692198028 -0.09888492173219542
0006d0 56 b2 f5 54 81 5e 91 bf 81 c2 88 e3 2c f4 c2 3f
       -0.016962071238071218 0.14807664022511705
0006e0 0e 2d c7 87 73 28 af bf 27 18 b5 7e 83 4e c4 bf
       -0.06085549385496779 -0.15864604651341205
0006f0 da eb 01 3c 7a a1 b3 3f 4c 97 15 51 12 f5 90 3f
       0.07668270077731112 0.016559873770709374
000700 48 33 7b d4 f3 66 ba 3f 68 f4 a2 6a be a4 c0 bf
       0.10313342988520191 -0.130027582234024
000710 72 94 5d 5b a0 e4 a7 bf df 3a 30 62 9c 5b 9c bf
       -0.04666615596105651 -0.02769321774763511
000720 12 ed ed 5e cf ba 9d 3f 11 0e 5f 5a 26 36 b0 bf
       0.029032936257391624 -0.06332626062708636
000730 7b e0 c7 93 2b 4a b8 bf 38 b7 0e 55 3e de bf 3f
       -0.09488174779824192 0.12448491646383963
000740 72 ef 7d e8 46 dd b6 3f 0c c5 b2 74 45 ef a0 3f
       0.08931391883919362 0.03307549523868589
000750 66 28 b1 74 2d c1 a1 bf ab c8 b6 7f 4d d8 81 3f
       -0.03467695283377807 0.00871334596636005
000760 e0 f3 91 d3 08 21 c0 3f 49 df 45 4b 0e e6 ae 3f
       0.12600813227245933 0.060348936737624266
000770 5e 77 c7 a5 5b c8 b9 bf 7e c3 d6 e8 89 97 a3 bf
       -0.10071347043364429 -0.038265523598403725
000780 13 41 99 f5 e7 f4 ab 3f c1 1c f7 4a 39 ed 9c bf
       0.054602860193542345 -0.02824868698169492
000790 18 df db 5e 14 2c ba 3f 64 33 32 97 46 ba b2 3f
       0.10223510089769794 0.07315484229384378
0007a0 ce ab 8b 07 97 98 b8 bf ed 57 a2 4c 8c 09 b5 3f
       -0.09607833799570573 0.08217694159461049
0007b0 3d d2 b6 a2 c5 3c a7 bf 4f 15 93 e2 b1 9b c5 3f
       -0.04538552867180499 0.16881393016061927
0007c0 44 3e 83 5b 0f b2 ba bf 9e 9d bd 65 df 34 a2 bf
       -0.10427947982975022 -0.035559636277692194
0007d0 88 f3 6e e3 68 92 86 3f 4f ba fd 90 dd db 9d 3f
       0.01102144187995592 0.029159032797389902
0007e0 3d a9 a9 00 f4 7c b4 bf 2d 40 7c 72 52 7e c2 bf
       -0.08003163353138106 -0.1444800433168906
0007f0 9b e4 8c b5 68 d8 b8 3f cb bf f7 91 81 02 a7 3f
       0.09705213959104457 0.044940995281535466
