ptlpinns/models/train/overderdamped_k13/model_overderdamped_k13.pth (torch, 424144 bytes, 34 tensors)

linear1.weight f8 [128, 1]
000000 aa da bd 80 8e 93 ba 3f f2 e3 d3 78 c0 4c d3 3f
       0.10381403582673934 0.3015595607717493
000010 4c 70 74 1f dc cc e3 3f 84 bc 93 e8 90 bc ed 3f
       0.6187573065140071 0.9292683165093796
000020 b6 af b0 25 4c 17 dd 3f 5e 47 9a 6c 89 f6 c9 3f
       0.45454696350747825 0.20283620646346895
000030 d4 fb 9e 3e 60 d6 d1 3f 5e fa 21 3c dc d9 df bf
       0.2787094699414727 -0.49767213699661805
000040 cc d2 02 9d 19 1b d2 3f c9 eb 76 ff 5d 69 b0 3f
       0.2829040559111433 0.0641077755634988
000050 cc d0 ba aa 4b 18 eb bf 4f e2 12 78 be 7a e5 bf
       -0.8467157682958031 -0.6712334008398758
000060 24 9a 03 5a e7 f8 db bf 33 96 50 61 09 c5 d3 3f
       -0.4370668772739086 0.3089011621799244
000070 5c ec 67 80 47 d6 dd bf 1e f3 0d 42 b2 57 df 3f
       -0.46620357074397645 0.48972755861886863
000080 29 e3 79 95 1d bc dc bf bb 08 4a c1 2a 66 df bf
       -0.44898166272428114 -0.49061077953241367
000090 42 88 d5 40 3a 18 d8 3f 57 bf 16 22 79 8c b1 bf
       0.3764787324090585 -0.06854970056769837
0000a0 73 63 38 81 85 21 df bf 88 ab 00 1d 01 c1 e5 3f
       -0.4864209901730227 0.6798101011712427
0000b0 7e 03 1a 4a 14 d1 d3 3f 11 d6 c6 00 55 8c dc bf
       0.30963618504033963 -0.4460651881775855
0000c0 35 42 5a fa 85 c2 e1 3f 6a d6 06 38 07 62 b0 3f
       0.5549955262850462 0.06399579160537319
0000d0 7a ef 12 f3 9b c7 d1 3f 2d 70 c7 e8 04 be d7 3f
       0.27780817735378316 0.3709728501542056
0000e0 a6 2b 9b 6d b5 a8 b9 3f e4 15 8d a4 cf 5d f0 3f
       0.10023054052287125 1.0229031017091694
0000f0 1f 9d 16 a6 6a 9e d2 bf d5 46 48 4a 4b 7f e9 bf
       -0.2909189817387005 -0.7967888308359884
000100 25 fc e3 4f 45 8b e7 bf 7e a8 a7 63 88 3b d1 bf
       -0.7357508240091916 -0.2692585919563796
000110 ad 5a 8c 8b a0 44 ac 3f f2 ff 2e 02 da b2 d2 3f
       0.05521108344526247 0.2921662350963735
000120 57 23 57 07 4c 4b dd 3f f9 57 06 5c a1 2f d9 3f
       0.4577207633670261 0.39353212343974026
000130 67 e8 66 59 35 9d d3 3f 3d e5 59 cd 72 0e d7 3f
       0.306470238978028 0.36025686315368316
000140 21 ab 83 9c e6 30 d3 3f c1 9f b4 4b a4 80 cd bf
       0.2998596695385221 -0.2304883355766361
000150 96 5a 1d 3e e2 5b d6 3f 58 5c 78 25 06 b3 c5 bf
       0.34935813966641527 -0.1695258791885148
000160 aa 14 d9 80 36 c6 80 3f 2f d1 ec fa e6 c9 ef bf
       0.008190561110618628 -0.9933962727432454
000170 33 62 ce 7c 46 8d 94 bf 3c a0 38 a5 04 98 d5 3f
       -0.020070172660412843 0.3374034512985451
000180 9f af 85 83 90 ad bd bf 29 20 7d 93 08 8b e5 3f
       -0.1159296341990612 0.6732218628540113
000190 31 1c 5d a1 0a df eb 3f 95 11 c7 52 7e e3 e6 bf
       0.8709767486224164 -0.7152701966047511
0001a0 8f 92 25 53 8d 97 e5 bf 7d 7e a7 dc 09 90 dd 3f
       -0.6747500060997299 0.4619164137675183
0001b0 a8 cd 63 77 4b 0a e3 3f ec 92 93 ad 98 95 e6 3f
       0.5950066882928029 0.7057612791218992
0001c0 83 72 30 6f ef 2c e7 bf 98 ff ba 38 22 46 ef bf
       -0.7242352649369227 -0.9773112400070998
0001d0 88 64 c7 d9 46 1b e3 bf e6 a4 ec 6e 26 31 de 3f
       -0.5970796826833444 0.4717498858686454
0001e0 0e e8 d4 61 fe ec dc bf ac b2 81 7a 5a f5 ec 3f
       -0.45196494630693074 0.9049503700931232
0001f0 c6 3c 9e 79 a5 ed 56 bf 78 70 76 ac 49 51 e1 bf
       -0.0013994327514160062 -0.541172825661774
000200 07 be 9e 31 c3 d2 ee bf a3 dc c3 e7 b6 c8 ef 3f
       -0.9632278412954641 0.993251278558905
000210 9b c1 ff fc eb ab d6 bf 9e fe 00 35 d2 58 b1 bf
       -0.35424327570856357 -0.06776155275383153
000220 7d bf 85 b0 ab 0b ce 3f 5e 65 d9 49 2b 92 eb bf
       0.23473116034756095 -0.8615929071776625
000230 26 58 7e c1 fd a3 f0 bf 2a 88 c7 77 3b 1c e4 bf
       -1.0400369222966304 -0.6284463252488923
000240 91 e2 01 88 41 d8 e1 bf e1 57 4f cb 97 8b ce bf
       -0.5576484352487389 -0.23863503863566307
000250 68 0c 52 a7 8d 66 c0 bf df f8 3f 5b f6 c5 e7 3f
       -0.12812967939325692 0.7429153234695852
000260 dd ff d9 8b 68 6b e9 3f 38 95 8d cc af 32 cb bf
       0.7943613749957837 -0.21248433578436177
000270 5c 60 78 15 d8 10 e5 bf fe ab d1 e4 4d ec e9 3f
       -0.6583061618175736 0.8100957364198391
000280 29 98 bb 4c 70 9f ca 3f 3f 5c 1c 1e f9 20 ee bf
       0.2079906820937947 -0.9415250385380957
000290 48 de e8 5c 24 b7 ec bf b9 c6 31 88 09 4e d2 bf
       -0.8973562063828888 -0.28601301479566704
0002a0 e3 65 2b 95 61 bb ec 3f 38 b4 a2 9b f9 8e c2 bf
       0.8978736794917349 -0.1449882516803045
0002b0 06 33 3e a3 6d 59 b3 3f bf 67 91 62 83 e4 ef 3f
       0.07558331714080788 0.9966446805149117
0002c0 6a b6 ae 4d bb 0c f0 3f d2 b6 b3 fb c6 73 f0 bf
       1.0031083139869232 -1.0282659370526983
0002d0 48 a6 38 02 c7 6b d3 bf ce 80 bb 59 5f 5d ed 3f
       -0.30345320908472617 0.9176480057322125
0002e0 cf b1 0e ed e6 a2 e8 3f 50 20 dd 3d 0f 5b cc bf
       0.7698855047252041 -0.22152891655628304
0002f0 5e 57 0a ea 5b 2a 7c bf 29 c7 ef cc 0a 4b eb bf
       -0.00687633422844222 -0.8529104235333068
000300 a4 dc 83 18 cc 2a d4 3f 34 f8 08 5c fe a0 e4 bf
       0.3151121367840892 -0.6446525380667993
000310 e2 be 3c d9 26 50 c3 bf d6 44 8b c8 0d 20 c3 bf
       -0.15088353736199794 -0.14941570560635026
000320 0f 17 50 d1 ca fe d4 bf 34 36 16 a4 7f 27 e7 3f
       -0.3280512851782626 0.7235716061420079
000330 28 37 8e 9b 09 89 e7 bf 4e 6d e0 41 4c db d4 bf
       -0.7354782140916756 -0.32588488038318963
000340 d6 74 f5 6d ec 31 ee 3f 84 69 dc a9 7a 70 e6 3f
       0.9435941836960875 0.7012303655240406
000350 17 32 4e 1f 12 49 df 3f fa c2 5b 44 aa d8 b6 bf
       0.4888348870961478 -0.0892435471430523
000360 b6 68 b9 00 6c ca e2 bf ad f6 a5 3d 47 3f db 3f
       -0.5872097028871142 0.42573719997731524
000370 08 2b 0e d0 bd fb ec bf f1 08 ba 79 3a 51 d2 bf
       -0.9057301581936779 -0.28620778930066054
000380 f3 aa 40 56 63 9b ef 3f d7 9c df a1 f0 08 ec 3f
       0.9877182659741649 0.876091304930834
000390 96 a1 eb 87 2e db e8 3f 8d ff 4f 43 4b 83 c8 3f
       0.7767555861183151 0.19150677477591352
0003a0 ee b2 1a d0 48 de bd 3f 58 c4 80 e6 c8 7b ef 3f
       0.11667304115935526 0.983860445214428
0003b0 94 d0 80 12 54 48 df bf 41 76 9e 2f 16 10 c7 3f
       -0.48878957564307624 0.1801784260286912
0003c0 48 23 64 8a d1 8a cc 3f c7 01 b6 4f 6b 55 d4 bf
       0.2229864049661734 -0.31771357330583466
0003d0 0e 3c 4d d9 03 eb bb bf 3a fe 04 20 b6 1e dc 3f
       -0.10905479483811595 0.43937447668938356
0003e0 d6 87 b2 84 ab f0 d6 bf ac 88 e1 00 db a1 e4 3f
       -0.3584393306610968 0.6447577492911214
0003f0 4d 9b 57 7f d4 f8 ed bf 0a ec dc 27 c7 28 e6 3f
       -0.9366247641708952 0.6924777773450626

linear1.bias f8 [128]
000000 1d 52 78 81 d6 01 ec 3f 4e 1a 90 b4 11 10 f0 3f
       0.8752243546210284 1.0039231351126037
000010 78 31 ac c7 18 20 d4 bf 9c 7e d5 c4 7b 73 e9 bf
       -0.31445903300552613 -0.7953471035397857
000020 90 2e 21 b8 74 83 de 3f 14 d0 91 56 91 a7 df bf
       0.4767734335079945 -0.49460252241192504
000030 52 89 3d 84 8e 59 c2 3f 56 8f ba 13 c2 f4 df 3f
       0.1433580537514652 0.4993138497031756
000040 68 53 4d 46 aa 1e e6 3f 6b 37 d9 2f 0e 2d e6 bf
       0.6912433026396743 -0.6929999289074947
000050 41 e4 50 63 67 1f c2 3f 74 f6 4f c0 cb c6 de 3f
       0.14158336972630717 0.4808835390138946
000060 77 89 00 06 18 bd e6 bf 43 bb e1 0c 0f 09 b2 bf
       -0.7105827443340748 -0.07045072617050345
000070 e7 e0 73 4e ae 4e e2 3f da 0e b1 52 c9 9a e2 3f
       0.5721046001699762 0.5813948264189677
000080 7b e2 69 92 d5 2b d8 3f f9 7d be 09 ca 07 e1 3f
       0.3776754312344008 0.5322008314432757
000090 08 53 fe ad 29 ba df 3f 29 9f ee 61 2c 68 e7 3f
       0.49573747626827513 0.7314664757477419
0000a0 33 bd 9e 46 48 7f ef bf 04 00 b0 68 9e ea e9 bf
       -0.9842873935030297 -0.8098899883916606
0000b0 1b bd 56 49 92 2d b0 bf 8f 48 94 d9 d2 6f e5 3f
       -0.06319536486147508 0.669900345763624
0000c0 4e 56 59 fe 44 c0 eb bf 39 95 2a 3c 46 61 ef bf
       -0.8672203986886389 -0.9806243109821146
0000d0 eb c4 61 99 66 f4 ef 3f a0 33 c5 c8 92 09 e0 3f
       0.9985840793362092 0.5011686250014584
0000e0 37 cc aa 8e 0b f6 ed 3f 81 a4 e0 ea ba 43 de bf
       0.9362848078220684 -0.47288392007119034
0000f0 7d 87 32 e9 9d e0 c8 3f f9 52 bb c4 86 5f e3 bf
       0.1943547619494516 -0.6054109423081108
000100 04 8d f5 af 1d cc b5 3f 37 fb e2 d2 ca a8 d9 3f
       0.08514581247213832 0.4009272632064724
000110 8d cd 8d ba 47 4e e1 3f b3 5a be b8 73 e9 c0 3f
       0.5408056872969823 0.13212439079935265
000120 c3 65 ab 61 4c d3 be bf 90 a2 df 56 52 cd d1 bf
       -0.12041165718564799 -0.27815683826205717
000130 df 6c 6c b2 6f d8 e4 bf 2f 4f db df 3d 82 be bf
       -0.6514204487642948 -0.11917483058215049
000140 9e e0 e7 12 77 33 ed 3f 61 4d df d6 14 dd e2 3f
       0.9125323647740691 0.5894874760364638
000150 a4 e2 db ad e1 c5 ee bf b7 47 1f 40 3a 6d d3 bf
       -0.9616554637605828 -0.30354172002727914
000160 36 f7 5d 1a e1 e1 c2 bf cf 30 d5 34 a8 da d3 3f
       -0.14751828944638995 0.31022076758814604
000170 7f d2 91 9c b3 48 c5 3f 6c be 69 fd de 73 86 bf
       0.16628117699623954 -0.010963193996956742
000180 dd f0 b4 0d 52 dc ef 3f 70 29 ba 91 1f 97 a6 3f
       0.9956445949278777 0.04412172941109105
000190 3c 68 a5 08 4a de e1 bf 1b a7 81 83 66 0b e9 3f
       -0.5583849114293638 0.7826416557774992
0001a0 c1 6c f3 94 a5 a6 e6 bf d5 d7 cb 91 b9 52 da bf
       -0.7078426274487343 -0.41129912603298396
0001b0 8a a1 3e 38 56 43 e6 bf 32 bb 58 ec ad 04 dc 3f
       -0.6957198236969344 0.4377856071541145
0001c0 d2 96 05 57 28 42 ec bf 13 82 79 6e 5e 83 e4 bf
       -0.8830758762021225 -0.6410362394054253
0001d0 be 76 4a 8c 76 5a ec 3f fc af 74 aa 22 c9 d6 3f
       0.8860428562217846 0.35602633138728357
0001e0 5e ec dd c1 a8 36 ec 3f 2e 84 56 db f9 56 db 3f
       0.8816722666227965 0.4271835939380847
0001f0 a3 49 d8 5f e6 47 e2 bf 1d a7 bc de f4 36 d8 bf
       -0.5712768432588756 -0.3783542800107272
000200 6c 62 1e 1e be 31 e7 bf a3 c1 b3 90 c2 b0 f0 bf
       -0.7248221004729891 -1.0431543018749856
000210 62 6e c8 46 e2 f0 ee 3f 0d 73 cb 16 e3 ff ec bf
       0.9669047720412431 -0.9062362141808947
000220 4a 63 78 43 9a c9 ec bf 18 a0 fc 8d f8 33 e3 bf
       -0.8996096914080252 -0.6000941060237919
000230 b9 86 f6 93 01 95 e3 bf 82 77 75 6d f5 50 ea 3f
       -0.6119392290022098 0.8223826539867647
000240 c0 d9 73 45 d1 2e e8 bf de 16 0a 4d 81 29 c5 bf
       -0.7557150227065037 -0.16532913457574855
000250 a1 fc d7 68 85 9c c9 bf 27 33 24 bc 74 c5 8e bf
       -0.2000891458446619 -0.015025054923648874
000260 71 57 7e d0 14 c8 e5 bf 54 ed c8 f0 29 a8 ec bf
       -0.680673987592611 -0.8955278113202589
000270 7b e4 55 8a f6 45 b9 bf a7 9d 3a 6b b0 21 93 3f
       -0.09872380139667485 0.018683201355683157
000280 a8 e5 89 f2 0c 5e cd bf d0 b6 83 52 07 89 e8 bf
       -0.2294326957960895 -0.766727124367856
000290 ae 87 f3 a2 be 39 dc bf a2 10 40 61 62 a4 d6 bf
       -0.44102445519649336 -0.3537832212171087
0002a0 1c 0d 74 3a 81 d6 ed bf 83 a0 0e 53 7e eb 6a 3f
       -0.9324346677462105 0.0032861201547867438
0002b0 52 3b de e0 d7 95 e6 3f ec 8d 81 fa 22 1c f4 bf
       0.7057914154009757 -1.2568692956345968
0002c0 55 92 51 24 1b d6 f0 bf a6 d1 5e 89 06 a9 d8 bf
       -1.0522719782540169 -0.3853164998538666
0002d0 25 5c 3b bd ed 50 c8 bf 71 24 76 14 bb 3b d0 3f
       -0.18996974696958194 0.25364567754929285
0002e0 ba 73 c2 13 04 ef d1 bf 9b 8e b6 bb e1 f2 ed bf
       -0.2802133744206078 -0.935898653628516
0002f0 b2 11 2c 21 6d 91 c3 3f dd 43 d7 49 4b e8 ce 3f
       0.15287555808766978 0.2414640532065552
000300 11 06 31 06 a6 06 d5 3f 5a 04 0d 58 b2 92 c2 3f
       0.3285307941879135 0.1451018266616611
000310 8b d6 d8 4a 2d a4 e3 bf b4 02 17 ce 76 94 e0 bf
       -0.6137911283355647 -0.5181230569069926
000320 98 f2 ca b7 95 0e e0 3f dc 45 c7 0c f5 fb ef 3f
       0.5017803754522729 0.9995064973429026
000330 db 35 af 53 80 3c 98 3f 28 d2 f0 de 46 8c da bf
       0.023668294055644395 -0.4148118188052501
000340 94 d1 03 89 6f 4b ee bf 5b 28 3f 16 7a 54 9f bf
       -0.9467084575722304 -0.030595691306907074
000350 06 fb 28 70 40 4d d0 bf bb 18 82 2c a5 cd eb 3f
       -0.25471507027752727 0.8688531750965675
000360 08 dd 6e 5f 26 54 eb bf 4f b5 35 d1 a4 58 df 3f
       -0.8540222038199383 0.4897853892387802
000370 46 d1 96 42 4c 56 db bf cd 54 ef 57 bb 39 c7 3f
       -0.4271422052654724 0.181449335038144
000380 68 4d 0c e4 e1 cf ed bf c3 71 b5 10 bf c3 ac bf
       -0.9316262678207012 -0.0561809261223263
000390 39 f1 8a 30 e0 7f d2 bf 38 e7 9f 18 5d 12 cd bf
       -0.2890549158144214 -0.22712291433691134
0003a0 bc de 9e 76 a0 81 e9 3f ba 4c 4a 7f 5f 58 c3 bf
       0.7970735852058719 -0.1511344310316412
0003b0 b2 ed 5c eb 1e 91 ec bf 9a 15 1c 9d 23 a0 e0 3f
       -0.892714938825 0.5195482319401663
0003c0 1a bc 94 22 15 14 e0 3f 36 f6 7a 97 c4 1b e4 bf
       0.5024514842424452 -0.6283896406745899
0003d0 ad bb f7 70 96 e3 e6 bf 88 75 3b 0d 7d 44 db bf
       -0.7152816969299828 -0.42605520527089213
0003e0 83 73 e3 0f ac 0c c6 bf cf db 99 f2 37 6e d7 bf
       -0.1722617223339534 -0.36610220614914807
0003f0 ef 8d 1a 42 db 00 dd 3f 8e 61 70 08 d6 34 d1 bf
       0.4531772752327176 -0.2688498575603483

linear2.weight f8 [128, 128]
000000 9d 5f 9d dd 5b b5 b2 bf 04 0c a6 2b c6 f5 af bf
       -0.07307981644168966 -0.062421982601357257
000010 ff fc 52 64 e0 c1 ae 3f 97 7f d2 44 34 77 91 3f
       0.06007291054401697 0.01705629034097419
000020 79 16 1d f7 bd e5 96 3f 92 e8 34 d7 4d e5 b0 bf
       0.022360771377199804 -0.06599890235966857
000030 32 67 8c fe 20 00 91 bf a3 94 07 8d e5 56 6e bf
       -0.016602054153828046 -0.00370354494247012
000040 f9 4a 99 94 2e 74 a8 bf 45 7d 87 a1 d8 3e 9f 3f
       -0.04776139797163199 0.030513176783526736
000050 c6 60 28 0f 19 d7 b1 bf e5 8b a6 06 d4 37 b2 bf
       -0.06968838329374014 -0.07116437113158687
000060 85 d0 f8 53 c7 15 66 3f 02 e0 fa 89 d7 b7 73 3f
       0.002695931732683179 0.004813997220189494
000070 09 03 c1 6b 4d 67 b7 3f 5f 3d 68 8e 88 26 b3 3f
       0.09142001991950734 0.07480672337282133
000080 e3 0b d1 24 f1 20 a1 bf 54 92 02 89 51 06 b1 bf
       -0.03345445227071033 -0.06650266261073884
000090 03 e5 5f 6f 4f 0d a9 3f 08 ab c9 c8 37 b8 80 3f
       0.048929674478083406 0.00816386777406343
0000a0 0b 01 a5 61 5c 4b b7 3f 2f 1a a1 5f 92 af ad 3f
       0.0909936655416496 0.05798013131475376
0000b0 56 47 cb f1 05 fe aa bf 5f d3 4e 71 50 1c ae bf
       -0.05271929337108243 -0.058809770423443146
0000c0 db d9 1e a2 34 43 ad 3f 31 e2 c0 23 ef 90 ad 3f
       0.057153363027669456 0.05774638472980021
0000d0 d3 3b 29 fe a7 d7 b1 bf 2d 16 75 9b bf 21 92 3f
       -0.0696969028006003 0.017706865180363508
0000e0 99 dd d7 63 35 ff 5f bf d6 08 15 f7 68 19 8c 3f
       -0.0019529363047448899 0.013720340767239863
0000f0 a8 7f b8 57 3c ff af 3f b7 54 24 f0 ce f6 b2 bf
       0.062494168956845286 -0.07407849657859598
000100 ab fd eb d7 78 f3 8e bf c0 20 a7 aa dc c6 96 bf
       -0.015112823571597675 -0.022242973247359243
000110 f9 65 1c c8 db dc ae bf 0f 8b 24 0a ed 6f 92 bf
       -0.060278766801456336 -0.018005088562072887
000120 63 42 2f 72 f5 56 b3 bf b5 84 86 3e 13 c1 8a 3f
       -0.07554563558302045 0.013063574166894612
000130 b6 31 3c 9a 70 67 90 bf 35 9c 3d 21 b9 d8 91 3f
       -0.01601959172607944 0.017428295759057206
000140 42 8c c8 f6 e6 04 a0 3f 5b a5 85 bd 4c 9b 90 3f
       0.03128740084164196 0.016217421596058084
000150 04 9f f5 e1 a5 2e af 3f 46 a7 0b 50 cb d1 b5 bf
       0.06090277083677445 -0.08523245529400211
000160 04 b4 5d 08 f9 c8 93 3f db 0e 46 44 47 c2 5b 3f
       0.019321337829229193 0.0016942687953766442
000170 cc 69 28 8e ba 8d a6 bf 92 63 aa 29 2f cb 9a bf
       -0.04405005441022389 -0.026165711324754044
000180 e5 41 24 98 4b 97 b1 bf ad 30 da 0a 18 fd aa 3f
       -0.0687148329200294 0.05271220333551816
000190 af 67 fb 0e ab df a2 bf a4 3a aa 12 f7 3d b9 3f
       -0.036862702921737316 0.09860176282584604
0001a0 39 0e 8e a8 dc b9 ae 3f 2f fd 45 d6 95 e9 b0 bf
       0.06001176412158 -0.0660642288330464
0001b0 04 7f d9 d8 70 95 94 3f f7 3f 7e 37 e6 71 a6 bf
       0.020101321444939493 -0.04383773257643491
0001c0 c0 0f c2 5c 4d 2a a8 3f 42 2a 82 59 e5 2c a9 3f
       0.047197740147594924 0.049170653511357645
0001d0 ca e4 ed e4 d3 ce 9d 3f 03 a7 50 07 56 00 9a 3f
       0.029109297607168107 0.025391906925654528
0001e0 31 4b d1 09 f1 b2 9b bf ee ff 84 77 8f f6 a7 bf
       -0.027049795364585797 -0.04680298170069351
0001f0 d9 32 64 94 9b bd 74 3f 30 64 05 20 05 05 b6 bf
       0.005063636525176129 -0.08601409942402038
000200 77 2c 53 e6 c0 6a 95 bf 70 da 34 28 0a c7 b4 3f
       -0.020915044839778987 0.08116210443118077
000210 77 e1 51 4b 84 20 b3 3f 9f 87 87 d0 0d b0 ab 3f
       0.07471491659987871 0.054077560143709784
000220 57 9d 13 d2 14 78 b2 3f af 6e 6d 40 92 e1 a1 3f
       0.07214479569267006 0.034924097408944525
000230 3f bd 87 70 dc 92 a5 3f 5c ed 32 e3 0b 36 a7 bf
       0.0421360862127309 -0.04533421657967082
000240 58 82 7d de c3 6e b0 3f d6 b3 c2 3d 31 6f ab bf
       0.064190141505159 -0.05358270529664082
000250 32 72 64 fa 28 a8 77 bf 9f 3a ae 25 7c 3a a2 3f
       -0.005775604315456694 0.03560245475738565
000260 b1 4c 5d 9c 61 82 a4 3f ee 1a a4 a9 b4 6e 9a 3f
       0.040057230317552046 0.025812933782641538
000270 21 e2 c8 69 dc b0 a5 3f 06 ce 55 9a 44 ad 93 3f
       0.04236496726338524 0.019215652389403835
000280 77 3e c5 c5 08 1a b0 3f 3b 5d 0f 1c c2 8b 95 bf
       0.06289725139981238 -0.021040947878501397
000290 10 64 44 ea c9 b0 58 3f 94 4d 2e c5 b0 3e b6 bf
       0.0015069934680183063 -0.08689408124910464
0002a0 87 6c 2c 53 49 8d 72 bf 57 12 a3 53 57 f5 b4 bf
       -0.004529272485139241 -0.08186860839766417
0002b0 ba ce d8 a4 f2 64 af 3f fc 5f c9 e0 3b 7e ab bf
       0.06131704580584825 -0.05369746321656518
0002c0 66 8d f8 62 50 54 b5 bf 95 ee 9c d5 8b 60 b1 bf
       -0.08331777969629214 -0.06787942853127966
0002d0 ea 43 29 2d 98 eb b1 bf 07 1c c7 5a a4 55 9b 3f
       -0.07000113585060289 0.026693885841975653
0002e0 7d 7d 13 cd 06 52 a2 3f f0 54 73 4e c7 87 a2 bf
       0.03578206303950091 -0.03619215805671583
0002f0 65 46 69 5f 4d 29 b7 3f 61 06 3b 02 05 d2 b3 3f
       0.09047397212386839 0.07742339424569301
000300 f7 be 8d 88 08 0d b6 3f 10 a0 b0 7d e2 d1 9d bf
       0.08613637288885544 -0.02912095920706298
000310 f1 c3 59 07 71 de 7e bf 43 d5 66 d9 cc 02 ac 3f
       -0.007536355513011892 0.054708863771717485
000320 26 3a c0 ae 14 3d 9a 3f 81 87 ce 5b 17 b8 a3 3f
       0.025623629728267393 0.03851387973487786
000330 48 f6 8e 0e 78 ec ac bf b9 93 8b 20 4b b7 a1 3f
       -0.056491615082887636 0.034601543162160416
000340 09 b7 16 0f 20 2d ab bf 40 47 d7 8d fb d3 a6 3f
       -0.05307865318478206 0.044586049141470685
000350 00 cc 49 48 2c d0 b9 bf 8e 71 41 b8 15 10 79 3f
       -0.10083271756029433 0.006118855326431206
000360 7a 8d e1 8d ae f3 b3 bf 3f 2e a4 9b 6f 89 8c 3f
       -0.0779370399846381 0.01393401330690047
000370 53 95 92 e5 31 4f a1 bf f4 54 c6 84 32 31 b3 bf
       -0.03380733420753281 -0.074969441810328
000380 33 42 03 a9 55 71 9b 3f ca 62 02 b2 bf 6f b4 3f
       0.026799524727552714 0.07983015151911413
000390 fb cb a2 05 f6 0a a6 3f 82 de 75 8a fa 04 af bf
       0.043052375972727895 -0.06058485927763703
0003a0 72 e7 d6 12 d7 1a ac 3f 7d d5 b2 ea a8 21 9b 3f
       0.05489227395032871 0.026495589566100975
0003b0 0c 62 08 32 61 c6 a8 3f 12 c5 45 e8 03 d6 90 bf
       0.04838851676703734 -0.01644140343836848
0003c0 15 19 11 d8 6a d7 b1 bf a1 a8 bb f2 0d c3 b3 bf
       -0.06969325804775324 -0.07719504524325994
0003d0 a2 83 22 bc 1c 45 90 3f f1 72 4a 01 92 49 a5 3f
       0.015888642294729423 0.041576922090120656
0003e0 9e 51 c7 e7 27 ea b3 3f 28 0f 82 14 fd dc b4 bf
       0.07779168518692933 -0.0814970183437792
0003f0 60 27 73 d4 6b 00 8f 3f cf 7c e6 31 47 08 94 bf
       0.0151375221452274 -0.019562828465151946
000400 8a 15 8a 33 f7 5f a6 bf 27 a1 f2 0b b1 08 a0 bf
       -0.04370090965407332 -0.031316311558216285
000410 82 f8 ab 64 c1 b3 97 3f d4 84 42 d8 a5 86 b5 bf
       0.023146650094524997 -0.08408581285268052
000420 f6 d2 10 da e2 35 b9 3f f0 9e 5a a5 0f 3b a3 3f
       0.09847848724241345 0.03755997556191726
000430 35 ee 66 bd 64 b3 b0 bf 32 34 97 6f 03 6e a1 3f
       -0.06523732780527143 0.03404246079626495
000440 f6 58 ba e9 75 17 a0 bf bf a9 d1 c2 8b 42 89 3f
       -0.03142899015544913 0.012333957560447638
000450 7d 25 47 79 49 9f a4 bf 38 05 b9 09 fe 7f b3 3f
       -0.04027776341861065 0.0761717580544613
000460 85 89 48 6f 5e 46 85 3f 00 e1 f1 0e 6f ac b4 3f
       0.01038812424764469 0.08075613131393666
000470 25 c2 9d 0b 0c c5 a8 3f 2e 19 5b f4 6e 80 6c bf
       0.048378349702833646 -0.0034792105751392443
000480 f0 09 88 44 9f 00 ae 3f fc 4f 6e 31 94 3d a1 bf
       0.05859849654736482 -0.03367293456463469
000490 af 84 d7 7d e9 3e 78 3f 47 52 b2 4d 10 a1 ab bf
       0.005919372631496929 -0.053963193401760416
0004a0 dd cd aa 20 22 11 af bf f7 f7 02 b9 6e a8 a7 bf
       -0.060677591788955466 -0.04620691307489715
0004b0 47 02 4f 7e c3 a5 b6 bf a1 5a 97 64 4d 5a b1 3f
       -0.08846685250956297 0.06778415399399275
0004c0 6d 57 4a db 29 cc b5 3f f1 e9 22 57 6c 4d b3 bf
       0.08514653781670996 -0.07540013434746819
0004d0 36 b3 22 36 0f 9a a3 bf 8e 6d 09 17 73 fb 80 bf
       -0.03828475509485545 -0.008292101994064518
0004e0 a8 dc 0e e5 08 6c b2 3f 22 f7 38 51 3d 41 a3 bf
       0.07196097938764245 -0.037607113041742815
0004f0 7c 3e 5e 27 2d 40 ae bf 4e 16 e5 35 a3 7e b0 3f
       -0.05908337693756224 0.06443233552735103
000500 31 d1 f9 35 d1 7f a0 3f a0 a9 c1 99 ee e8 b1 3f
       0.032225168074463524 0.06996051076718013
000510 75 60 bf f5 91 ff 89 bf 75 d1 7b db 2d 67 ae bf
       -0.012694492637749225 -0.05938094429248767
000520 c5 5f ba ae 27 96 a8 bf a8 b4 80 18 db da 9c bf
       -0.048020591811279746 -0.02817861878445585
000530 59 5e 01 ab 7f b3 5a bf 34 fb 99 38 97 44 a2 3f
       -0.00162970988823998 0.035679555568086135
000540 0b 88 a3 eb 13 2a b1 3f bd a9 50 c6 51 ef ac 3f
       0.06704830649280795 0.05651336236799718
000550 50 2d d2 14 af b2 ac 3f 7e c7 f3 a0 3b eb a0 3f
       0.05605075005686422 0.03304468478917409
000560 a9 d4 9f 68 23 6b a1 3f 29 bd 77 3f 44 70 b4 bf
       0.03402052547600338 -0.07983805226807718
000570 f7 d8 cb 05 e4 65 b4 bf bc 5a 8c bc bf e8 9c 3f
       -0.07967972890387275 0.02823161686236618
000580 91 6e 14 6b f5 1c 95 bf d3 9b a1 98 85 f7 a5 bf
       -0.020618281040795387 -0.042904066926716354
000590 3c f7 17 96 7c 5a b2 bf c8 23 c6 07 26 97 a9 3f
       -0.07169321693797043 0.04998129696748027
0005a0 81 ef ea ea 14 45 ac 3f a1 47 44 c4 ec fb b4 3f
       0.055214551617125636 0.08196906844776077
0005b0 e3 41 42 48 bd e9 a1 3f 84 cc a9 44 2d 66 b2 3f
       0.03498641497674606 0.07187159468030485
0005c0 b8 98 f8 d4 37 fc 9b bf c3 49 7b a1 7d f9 90 3f
       -0.02732932317135159 0.01657673166375574
0005d0 65 37 4a e8 f4 6d af 3f 6c 62 d1 75 46 72 9b bf
       0.061385777812673216 -0.02680311292746966
0005e0 4b c4 86 fc af 85 ae bf c6 ea 60 2d 2e ff a9 bf
       -0.05961370427702003 -0.05077499679506085
0005f0 83 4b 5f 00 a6 b5 a8 3f 0a 7c ee 3c ff b3 a0 bf
       0.04826086763900774 -0.03262326830667213
000600 4d 86 11 be 07 31 78 bf 3f bb 38 1d 92 4b 3a 3f
       -0.005906133884396048 0.00040123288383402464
000610 9f 87 0b 50 27 62 9f 3f 8a 97 85 25 4f a3 a0 3f
       0.03064786363655225 0.03249595006017987
000620 05 a4 dd da b0 cf 35 bf 45 69 d0 7a 34 ef 61 3f
       -0.0003328139090315599 0.0021892571444485386
000630 9b df e1 9b 62 e5 71 3f a0 84 bb 54 e5 2d b4 3f
       0.0043691493902925605 0.07882531469978682
000640 4a 11 11 1c 0d 4b a7 3f 61 bb 74 83 66 75 a8 3f
       0.04549447028742522 0.0477706943005305
000650 61 af 83 04 0c f0 97 bf df c6 bd 7d 3e 5e 84 bf
       -0.02337664392045669 -0.00994538136703532
000660 00 c0 1f 25 7a 74 a2 bf 66 be 09 81 f4 ba b9 bf
       -0.036044899970761435 -0.10050895834296511
000670 ac 53 0e b5 60 0a a7 3f ba c7 e5 e5 d0 68 a4 bf
       0.04500105104595006 -0.03986218267790727
000680 0b a8 46 bb 05 89 71 3f c4 ac 0e 1a fd d6 b5 3f
       0.004281065358023649 0.08531171690144662
000690 f0 d4 c0 38 ad fa b6 3f ed 80 f9 da 11 5e a0 3f
       0.08976252208306668 0.03196769521741936
0006a0 ef e6 ac 5d 3a 3f 72 3f 08 90 f7 e4 fa 14 96 bf
       0.004454830161927366 -0.021564407563246873
0006b0 7f d7 58 de 72 9c 98 bf 95 1a 6c 20 1d c6 8d 3f
       -0.024034304448114604 0.014538028289746744
0006c0 b8 d5 8d fa 10 7e a9 3f d4 33 ff a9 97 52 a9 3f
       0.04978993471642518 0.04945825529248507
0006d0 2c 29 ba fc e6 ef af bf 32 d5 58 71 8d 3b b3 3f
       -0.062377184248435164 0.07512744920025652
0006e0 c3 cf 2c 9f 0f 4f a6 3f 5c 31 15 0d fd ce a4 3f
       0.04357193773321868 0.040641696784038145
0006f0 23 22 b8 9a 91 a8 9f bf a8 c7 1c cc f8 f5 aa bf
       -0.030916476314844964 -0.05265786639792164
000700 42 8c aa f7 56 6d 6e bf 3a 58 36 26 3e f6 b0 bf
       -0.0037142466147357675 -0.06625736649434169
000710 88 a1 70 f5 4d 11 bc bf 14 5e f9 5c 02 1d 7a bf
       -0.10963904611765518 -0.00637532160870748
000720 36 a0 64 2e ed 0d a7 bf e6 fe 9e af 02 87 ac 3f
       -0.045028125680176265 0.05571754831134772
000730 7f e7 b7 e8 68 3b 94 3f c4 1e 3e d8 79 6a a5 bf
       0.01975788040542836 -0.04182797207527991
000740 fa d3 20 2b d8 12 ac bf 6d 90 65 cc ee 87 a3 bf
       -0.05483127142398554 -0.03814646000935871
000750 d0 a7 83 4a a8 dd 9a bf f8 82 ac 5a a0 aa 68 bf
       -0.026236180828085598 -0.003011048499857668
000760 cc b0 08 24 4d 5e b0 bf 14 a7 34 e2 4f 82 96 bf
       -0.06393892411932994 -0.021981476003168757
000770 63 6b f7 4c f5 2d 9e 3f 33 ff a1 32 56 ca a7 3f
       0.029472191641484523 0.04646558158947158
000780 5c ce c8 bc 08 e9 82 3f b8 67 15 1b 58 e8 89 bf
       0.009233539830439223 -0.012650192572141936
000790 ec 07 83 6c 5e 75 92 bf bd 00 dd 75 8e 89 ae bf
       -0.018025851605450713 -0.05964322270165343
0007a0 7e 9b e6 35 3e de aa 3f 19 df 6e 1f 66 ed a6 3f
       0.052476829604805694 0.04477996000008328
0007b0 45 90 3f 62 58 83 a2 3f cc b8 6b f9 58 7a ac bf
       0.036158334725570764 -0.055620937773583984
0007c0 b3 2a b9 27 cf 39 b7 3f b0 63 a4 a8 29 bc 55 3f
       0.09072584838683433 0.0013265997718632065
0007d0 d6 87 3e da f3 0e 87 bf 6b 9e cd 2d 81 3f ac bf
       -0.011258988473688374 -0.05517200168725086
0007e0 c8 42 c2 a5 45 99 ab bf 73 dc 91 e6 20 74 b0 3f
       -0.053903748020393716 0.06427198056359078
0007f0 5e 52 6f 27 a4 3e b0 bf b1 03 62 f5 af d3 b3 3f
       -0.0634558292652598 0.07744884243767448

linear2.bias f8 [128]
000000 3a 28 4e 33 26 7f a5 bf 80 7b 72 59 93 24 8d bf
       -0.041985696566442646 -0.014229918639385053
000010 8f a6 87 21 ae 80 8f 3f 9a e9 e0 04 2d bb 9d bf
       0.01538215675187196 -0.029034331724895425
000020 3a 83 59 d6 79 2d a8 bf 28 eb e2 9a 1a c4 a8 3f
       -0.04722195378849965 0.048371154219657264
000030 ae 24 d3 54 6f 14 a6 3f 82 e3 03 e0 15 5b a1 3f
       0.043124655823313915 0.03389805182991436
000040 1a 6f 65 56 a1 f7 a2 bf 38 67 0d 80 69 9e b3 bf
       -0.037045518680967685 -0.07663592697408894
000050 eb ac 06 e3 0e 28 92 bf 54 33 cf 2c a3 93 aa 3f
       -0.017730934721538565 0.05190763399114098
000060 4d 17 76 7b c8 92 b3 3f 38 e9 11 69 ec de b5 3f
       0.0764584828776524 0.08543279233154955
000070 e8 78 c6 d8 f2 68 a0 bf 21 c0 a7 17 5c e1 b4 bf
       -0.032050694429232085 -0.08156371667405483
000080 60 61 b3 c2 bc 85 b4 bf b6 56 ac 59 21 1b a2 3f
       -0.08016566995082064 0.03536323756831676
000090 70 03 ff b3 33 0f ae 3f d7 78 8c 27 91 26 78 bf
       0.05870973179071981 -0.005896155366626319
0000a0 c1 bf d5 58 bf bd ae bf 8c a1 dc 67 a2 4a 88 bf
       -0.06004140815173243 -0.01186110381566221
0000b0 7e bd 40 46 e6 f9 a4 3f bb 19 70 e0 49 4b b5 bf
       0.040969081950943384 -0.0831800625747751
0000c0 79 d7 4e 45 e2 40 a4 3f 54 b5 7b 2f 55 bf b9 3f
       0.039557524643369875 0.10057575616129572
0000d0 a4 66 29 ca e2 1f ab bf 77 df 09 12 8d cc 90 3f
       -0.052977645090050346 0.01640530035589857
0000e0 a9 8a bc ad 15 bd b0 bf 16 ff c5 a8 e8 7c 91 3f
       -0.06538520328153176 0.017078051854240682
0000f0 21 45 ec 1c 52 91 b2 bf 5b 39 e9 8f c2 95 65 bf
       -0.07252991872907845 -0.0026348876993217813
000100 75 9e 31 6d 5e 1b 1d 3f 61 85 a1 05 bb 3a b2 bf
       0.00011103404840328588 -0.07120865714525372
000110 32 2f 17 9a 34 1f 6f 3f 81 5f 39 a1 58 32 87 bf
       0.0037990596181084685 -0.01132649652497242
000120 ad 7c 83 99 76 10 a6 3f 0f b8 67 f9 c0 ca 8b bf
       0.04309435485787936 -0.013570315943948
000130 63 ec b0 be fd c6 b5 bf 21 4c 1a c7 cb 0c 94 bf
       -0.08506761460823635 -0.019580062892213704
000140 10 80 c0 1d 2e ef 48 3f 91 bb c5 cc 25 1f 92 3f
       0.0007609343697403421 0.01769694387752058
000150 e9 63 d6 75 fb 8a a8 3f fd 44 da 1a 23 e1 b4 bf
       0.047935350546317874 -0.08156031995374131
000160 8d 94 94 4a 09 89 7b bf 2f 41 41 73 2a e4 a3 bf
       -0.00672248486924788 -0.03885014206810166
000170 70 2e d5 0f 07 93 b0 3f 65 49 4d 6f 84 30 b2 3f
       0.06474346291104793 0.07105281560260364
000180 08 06 41 03 86 3c b5 bf 06 bf cf 07 30 17 90 bf
       -0.08295476512378042 -0.01571345374753632
000190 06 77 36 70 f4 ff 99 bf 60 05 ab eb 0d 11 a5 3f
       -0.02539045271770759 0.041145739572594264
0001a0 ea 35 7b 5d 99 48 96 3f 8f a4 fb b6 09 18 ab 3f
       0.02176131852211497 0.05291776999167396
0001b0 20 d7 9d 66 57 36 93 bf 04 27 ac 6f 4c ea 84 3f
       -0.018761983526437764 0.010212514074300134
0001c0 29 49 d3 7b 35 6a 89 bf fa 87 06 e7 60 34 b5 bf
       -0.01240960868964132 -0.08283048286696718
0001d0 92 83 00 d4 2c 80 bb bf d7 a8 dd e1 6a 7a ae 3f
       -0.107424546964934 0.05952772147323209
0001e0 39 be 10 f1 60 56 a7 3f 0e 2e 8b 4f df 54 b0 bf
       0.04558089201634314 -0.06379504863723914
0001f0 ce 9a cf f7 e1 65 ae bf 3e b9 7e 5a a1 e5 74 3f
       -0.05937105321918566 0.005101805007070857
000200 2a 0d 22 89 3b b0 ad bf ad 1f 63 44 58 2b ae 3f
       -0.05798517273890476 0.05892444453053201
000210 db a5 7a 2a ab 88 b6 bf 67 7b 5a e5 45 95 96 bf
       -0.08802289759719122 -0.022053806422828084
000220 79 82 6a df 2a b3 92 bf 2e 61 6e 97 3c 77 98 bf
       -0.018261594663842893 -0.02389235185873522
000230 ff 7b ac 23 70 bb b2 bf 60 55 23 95 24 8f b1 bf
       -0.07317257758084848 -0.06859043732705095
000240 15 1b e6 9d 66 d5 b2 3f b4 8c d5 ea e0 dc 95 bf
       0.07356873850777064 -0.021350397427693138
000250 c7 51 b7 ba f3 36 a1 3f ce 0d b7 d4 41 80 ac 3f
       0.0336223760056416 0.055666024414246715
000260 b0 6f b3 78 c3 f5 b1 3f 18 de 3a ad 96 77 b5 3f
       0.07015630432891728 0.08385602692839489
000270 af 6b 1a 46 2f 84 a0 bf 98 15 6c fb 4e c3 b1 bf
       -0.032258488948364465 -0.06938642156827368
000280 60 ae e5 9f 13 45 a9 3f 5f 12 95 f0 39 71 90 bf
       0.04935513808126468 -0.016056924160937288
000290 90 d2 e4 d0 11 b6 ae 3f a2 95 7b 08 17 91 aa bf
       0.05998283076261146 -0.05188819864796847
0002a0 ff 81 f7 d3 81 42 8c bf 94 79 e3 b7 de 02 b0 bf
       -0.013798727303709233 -0.06254379262416015
0002b0 62 ac 6c 41 66 20 81 3f c4 f9 78 2e d7 58 af 3f
       0.008362578269574598 0.061224674628181514
0002c0 93 44 13 12 20 17 aa 3f db a3 b0 bb a5 a0 b2 3f
       0.05095768185277296 0.0727637847163715
0002d0 ca 5b 49 7c 94 a1 8d 3f c5 ba c4 b9 48 a9 b0 bf
       0.014468345683026036 -0.0650830701385799
0002e0 69 36 d2 c7 4f 67 b7 bf 96 bc 20 85 cf 6c 54 bf
       -0.09142016056486003 -0.0012466455996323115
0002f0 c6 dc 09 5a 46 48 b5 3f 3d c8 78 27 06 0c b4 bf
       0.083134076101362 -0.07830847228686451
000300 60 1c 51 cf 72 4e a9 3f ba 51 60 9c 14 11 85 bf
       0.049426639373046255 -0.010286484739517533
000310 ff df bd 31 20 36 af bf eb d3 94 2d 67 65 b0 3f
       -0.06095982176969982 0.06404728758646143
000320 91 fb 16 bb f3 71 b3 bf 9a ec ab 93 27 b0 b0 3f
       -0.07595752065297591 0.06518790583861503
000330 20 61 0c b1 f1 13 5a bf 68 15 6b 92 26 1f a1 3f
       -0.0015916691083415827 0.03344078576405246
000340 b4 9f 21 44 d4 78 8b bf c1 f1 a4 8f 0e e5 b2 bf
       -0.013414057091907107 -0.07380763060513741
000350 b9 c8 89 76 26 9a 99 3f a0 1b a4 1b 2f 14 87 bf
       0.025002099022864075 -0.011268966704404637
000360 d0 53 ba ac 2a c7 85 3f e9 26 0b 13 94 61 aa bf
       0.010633786579356569 -0.05152571423020708
000370 23 3e 7b ca e3 4d ae 3f 36 db 33 d2 fb d1 90 bf
       0.05918800207802757 -0.01642602415537483
000380 d4 6f 86 01 e2 1f 69 bf 79 07 b5 98 4c 5b b8 3f
       -0.003066960733304905 0.09514311531259335
000390 cf 4f 1c c2 2c 4c ad 3f 96 88 a8 1b d8 a6 92 bf
       0.05722179288400719 -0.018214585006838556
0003a0 6d be 9f 89 da bd 90 3f 01 8e 43 6b 22 0c a6 3f
       0.016349234247114475 0.04306132850049594
0003b0 e5 21 b6 dd 9f d4 a3 3f 37 87 3f 78 1e 88 b2 bf
       0.038731571020494994 -0.07238951144929905
0003c0 cb 68 f9 f7 12 0c 9b 3f 1f 4d 43 e2 09 da a4 bf
       0.026413246522090355 -0.04072600256918179
0003d0 3b 44 c4 36 5d 7a ad bf 2b 40 59 c6 55 dd b2 bf
       -0.05757418912447362 -0.07368980495925885
0003e0 a9 80 82 af e9 66 75 bf 74 b3 cf e0 36 58 b3 3f
       -0.005225098451916357 0.075564794431285
0003f0 7e 8c 07 87 2c ed a4 bf a9 8f 68 79 c2 01 aa 3f
       -0.04087199352559255 0.05079467517887732

linear3.weight f8 [256, 128]
000000 33 4a 91 ed 8f c3 c0 bf 2f ec 3a 3f 0c 1e c8 bf
       -0.13096808528878653 -0.18841698729906528
000010 d4 f3 de 08 29 c8 c3 3f da e5 39 ab 58 20 7e 3f
       0.15454590733671003 0.007355066645339881
000020 26 b1 b8 db 83 0b c3 3f 8b 15 cc 45 cd 27 a6 bf
       0.14878891209208084 -0.04327241398827216
000030 bc d5 87 d7 3f 36 c4 bf 4f fd 1f 55 28 1c a8 3f
       -0.15790555976825071 0.04708982504962
000040 3b e0 78 3c 0e 5c c7 3f 65 a8 d3 f5 7f 19 c1 3f
       0.18249681427710293 0.13359069350491662
000050 6f 65 5f c3 5c 63 79 3f 15 73 68 fe d1 a5 c3 bf
       0.006198274952077794 -0.1534979336001007
000060 9a 56 76 60 bc 24 b0 3f 0b b9 bf e3 cc a2 c3 3f
       0.06306054453883761 0.15340577240517236
000070 3d 91 70 c7 f0 5e b6 bf 26 6e 56 9f 7d ba b3 bf
       -0.08738617772229858 -0.07706437244490214
000080 57 f9 5b dc 54 65 d4 bf e4 db 58 92 fb 8e 90 3f
       -0.31868478316746035 0.016170435721701085
000090 44 57 f7 f4 f0 85 c4 bf 32 1b 85 f0 53 ca c5 bf
       -0.16033756219138173 -0.1702370571531105
0000a0 36 20 35 b8 0e 17 a4 3f 9a 83 b1 ca 87 cb ce bf
       0.03923841475131022 -0.2405862559999406
0000b0 c6 f4 a6 1b b4 de 97 3f 33 01 21 6f 03 24 ba 3f
       0.02331048411155192 0.10211202109440336
0000c0 1e 46 87 cf 32 81 91 bf ce a5 59 f9 00 9c cb bf
       -0.01709441558506885 -0.2156983583002287
0000d0 c0 25 2e 48 b2 f9 c2 bf 67 67 4c 82 24 59 9d 3f
       -0.14824512981821947 0.02866036458281176
0000e0 3f f5 8a 94 48 1a 9c bf 29 1d 26 40 a5 a4 b2 bf
       -0.02744401365884141 -0.07282479110846353
0000f0 9b ee 7a 41 39 97 c4 bf 8d 43 42 a6 cd 00 bd 3f
       -0.16086497971797517 0.11329350766233244
000100 f6 17 cf 91 d9 a6 c0 bf 2e 9a a7 e3 78 24 c5 3f
       -0.13009185428217024 0.16517554393722506
000110 df b9 4e 36 a8 ad c7 3f d2 e4 8c a0 10 ab b7 bf
       0.1849870934651809 -0.09245399398504908
000120 f7 11 8c 81 f3 86 b7 bf 10 40 91 75 d6 36 b1 3f
       -0.09190294182560153 0.06724300737664657
000130 ff 26 98 a5 0d 38 d3 bf 19 36 63 3e 54 a4 b3 3f
       -0.3002962224132801 0.07672621272214321
000140 4f 43 b9 2c 8e f2 d1 bf 96 f0 15 54 ea 2f c8 3f
       -0.2804294049029083 0.18896226030108626
000150 a4 33 dd 39 1b ea b4 3f 30 25 33 6a d2 a4 d0 bf
       0.08169717943856242 -0.2600599324328696
000160 1b 8a 5a 04 48 9f a8 3f dc 0b db ec b8 f3 6b bf
       0.04809022000451454 -0.003412114317002486
000170 48 95 2d 95 74 27 b0 3f f2 50 c1 64 17 d5 b7 3f
       0.06310204164545496 0.09309526643602675
000180 fe 1f b4 b2 86 4e bf bf e4 05 78 88 78 ec cf bf
       -0.12229196417695218 -0.24940401710050175
000190 73 8f ad 6a 5e 29 cf bf 75 48 5e a6 72 db ba bf
       -0.24344997605214366 -0.10491100846982866
0001a0 0c 99 33 99 85 99 b5 3f fd be 5d b6 27 b6 b6 bf
       0.08437380781433407 -0.08871696665095992
0001b0 26 dd 60 7c 2a c9 cc bf c4 5f 67 78 d9 2a c8 3f
       -0.2248890979114801 0.18880766276447336
0001c0 cd 9b 06 9e 10 f1 b3 bf e7 69 2e 79 cf 99 bc bf
       -0.07789710863163109 -0.11172196110275188
0001d0 00 13 e3 ca af a3 82 3f c2 34 be 5b 3f 99 a1 3f
       0.009101270083542001 0.034372310589881674
0001e0 0c ba aa a1 cf 1f cc 3f d3 ca 49 67 7e 00 c6 3f
       0.2197207965268294 0.17189006846782337
0001f0 85 7c 5d 1f 16 f1 c0 bf b8 8b 25 22 f5 dd 7c bf
       -0.1323573735380458 -0.0070476127169482525
000200 32 b8 6e 97 97 f8 a0 bf 62 cb e3 5c fc bb b7 3f
       -0.03314660762349354 0.09271218555276797
000210 5e 76 f1 7f e3 20 85 bf 95 87 eb 08 3b c8 b7 bf
       -0.010316636411683063 -0.09289902656339984
000220 41 9e 18 cd 57 2c b1 bf 6a 41 17 0e 14 40 b7 bf
       -0.06708287007551751 -0.0908215078736753
000230 e2 5c 22 cb 2a 50 d5 bf 6d bc 0d 38 bb e0 c1 3f
       -0.33301801526381614 0.1396707557391638
000240 f9 0f df be 68 63 a5 3f 86 d9 75 36 c5 02 a4 3f
       0.04177405672047025 0.039083636186592094
000250 5c 0d 05 77 d2 e3 a3 bf 01 30 63 8a c6 70 9c bf
       -0.03884751990201593 -0.027773954578876218
000260 f4 a3 da c3 e1 98 a9 3f 8a c3 7a d0 c2 94 cb 3f
       0.04999452129170115 0.2154773252455267
000270 e7 0e a9 79 83 7b b6 bf 5c bc f4 e3 54 97 d5 3f
       -0.0878221675894185 0.33736154805496255
000280 40 00 3b 7b bc 15 c8 3f 3d 1e 70 34 0c 8e b3 3f
       0.18816333787072104 0.07638622551177661
000290 81 06 b1 24 a3 41 bc bf ea ab 09 a4 c9 58 d2 bf
       -0.11037654538906773 -0.2866691686564865
0002a0 c2 f9 de 67 00 73 ac bf bb 4c 5b 52 aa d5 a8 bf
       -0.05556489246326947 -0.04850513701753686
0002b0 ec 49 43 ec 22 95 a7 bf ac b0 c3 13 56 d1 c0 3f
       -0.04605969556873277 0.1313884350305491
0002c0 80 37 bb a1 28 fb b5 bf e0 f0 88 2c 5b 68 d7 3f
       -0.08586362789648483 0.3657443938170797
0002d0 93 f7 a4 93 8a d5 d4 3f 9c a4 57 46 e5 11 a1 bf
       0.32553352754973125 -0.033339657627785985
0002e0 48 3d 47 5e f1 8d b3 bf c8 50 24 bf 4e 19 c8 3f
       -0.07638462592807571 0.18827232678507344
0002f0 e0 fb c4 64 39 57 d1 bf de a6 f8 dd f0 a8 91 bf
       -0.27094874230163946 -0.017246020839741465
000300 a4 82 49 f4 c9 a7 8b 3f 96 7f 57 c9 6c 38 af 3f
       0.013503625648071456 0.060977363183837216
000310 0e 33 8e ac aa ba bc 3f 7b 79 18 7a 78 2a c7 3f
       0.11222330773143716 0.18098360025119206
000320 2f 1c 77 79 4e d1 b5 3f a6 29 a8 10 83 8b c0 bf
       0.08522501435719286 -0.1292575675327729
000330 5a e7 23 cf 1b 6a c3 bf 78 7f ea 0c c4 8c a9 3f
       -0.15167567838926282 0.04990208299318416
000340 15 ba f3 17 1b 2a b6 bf 42 53 18 42 f7 06 9a bf
       -0.08657998404280705 -0.025417197617645167
000350 cc 73 2b 12 7f 64 b7 3f 99 63 bb 1b 9f de 4a 3f
       0.09137720292660773 0.0008199955841191486
000360 a8 33 4b f1 ff 29 b1 bf 75 d6 c7 8e 51 8e 74 bf
       -0.06704711571656097 -0.005018538079175285
000370 72 63 d9 89 80 5c a0 bf fe 9b d7 62 59 b7 d3 bf
       -0.03195573504189654 -0.3080657449012846
000380 4c cc b5 7a b4 56 c3 bf 18 61 1c 3e 61 cb ca bf
       -0.1510835265322349 -0.20933166058308283
000390 17 e8 17 a2 7c b4 d0 bf 06 27 16 fd e1 d9 cc bf
       -0.2610160429900374 -0.22539925439587466
0003a0 08 18 93 5d d9 c2 c0 3f 50 fe 95 ff 33 f5 bf 3f
       0.13094632214614443 0.12483525266542839
0003b0 62 2f 0d 66 6d 18 c2 3f b8 30 c9 64 4d 64 c8 bf
       0.14137046320899588 -0.19056098385988718
0003c0 ab 80 11 8d f7 58 a8 bf db 1b c8 80 08 14 aa 3f
       -0.047553764314899404 0.05093409130136425
0003d0 b1 96 c4 9b fa 3b b5 bf 24 f0 ea b4 01 88 d1 bf
       -0.08294645598342744 -0.2739261881613422
0003e0 75 2a 4e 2e 37 54 bd bf 53 f5 09 4a 0d 1d 8b 3f
       -0.11456627731801368 0.013239005872714904
0003f0 98 c4 93 42 79 1a bc 3f c7 2a 65 38 7a 8e b0 bf
       0.10977895617885947 -0.06467403294406458
000400 cf 75 3a 4f 44 87 b9 3f 9a 95 52 e0 8e 85 ca 3f
       0.09972025808607231 0.20720087006808968
000410 e0 1a da 2e 23 00 c3 bf 6f 12 f8 e5 2a 8b a1 3f
       -0.14844169414228414 0.03426488930930282
000420 32 99 4e 7d cf 91 80 3f 29 43 78 45 c7 ce 95 3f
       0.008090611468855789 0.02129660951146942
000430 29 61 52 14 b3 53 bf 3f 93 0c 78 50 dc 0f c8 3f
       0.12237090345513892 0.18798402718684723
000440 c4 2c 77 70 7e f2 c6 bf 7a 36 9e eb 4d 6c a9 bf
       -0.1792753266475754 -0.04965442181774633
000450 52 31 21 04 ef 4f b5 3f db 57 15 44 ae fb b4 3f
       0.08325094080754994 0.0819653431147737
000460 10 40 8d b5 42 29 b8 bf 66 0b 6d 39 b8 fa a9 bf
       -0.09437958652893053 -0.05074096394539289
000470 1d 4a e1 85 b4 40 a7 3f af 77 ac 9b 71 07 b4 3f
       0.045415536253717394 0.07823858309390518
000480 fb b7 eb d7 d0 b6 c3 3f 4a 20 dd bf bd d1 b4 3f
       0.1540165952969231 0.08132539686369103
000490 46 ec 77 b1 06 ec 88 3f 4a 67 f5 23 cd c0 bf 3f
       0.012168934145838983 0.12403566482444464
0004a0 3e 0b 5b 32 56 8b c2 3f 0a c5 71 c2 12 bc a8 3f
       0.14487721880694865 0.048309885249986875
0004b0 57 7c e6 c4 79 3d 80 3f ca 2c 93 6a 25 cc 97 bf
       0.00792975551740775 -0.02323969328862744
0004c0 54 f8 35 fd 25 79 a1 3f 5e 5e 3a 8d d7 8e bb 3f
       0.034127413901828746 0.10764834592770842
0004d0 af 6b ec ae 2d b9 a6 3f 2b b9 bc b4 82 54 b0 bf
       0.044381549456566353 -0.06378952896622951
0004e0 95 44 df 45 93 5b 9f bf aa ab 77 aa 9f 97 a0 3f
       -0.030622769488961216 0.032406796988502976
0004f0 a8 4a 81 b5 c8 72 aa 3f 44 ea 34 d7 ab 80 be bf
       0.051656982571008314 -0.11915086750097098
000500 1d f2 85 5e 53 4e 9e 3f 33 0e dd 58 c9 54 c1 bf
       0.029595663685073704 -0.13539997900999054
000510 e3 3e 4c 2f b8 39 bf bf d2 bc f4 f0 10 1f ad 3f
       -0.12197447924358644 0.05687764111859796
000520 49 68 f1 00 4f a7 a5 bf e4 92 54 d7 30 3a b0 3f
       -0.04229208837996674 0.06338792092408202
000530 e2 d9 e9 2a a0 94 b9 3f de 6f eb c9 da e8 c1 bf
       0.09992409751598744 -0.1399186597762982
000540 5e 70 be 0f 73 4d c7 3f 4c 5d a9 58 30 ae b8 bf
       0.18205106991524905 -0.09640791096295692
000550 fb f4 6e 42 63 42 a6 3f f7 5f 9d b4 e8 8b ca 3f
       0.043475248202847504 0.2073946840198457
000560 35 d4 13 07 35 f6 ca 3f 7e 99 90 76 c3 50 b6 3f
       0.21063864560679382 0.0871698536362597
000570 dd e7 98 af c6 a3 96 bf 82 6d 0c b5 4a b6 c3 bf
       -0.02210913130532065 -0.15400060501347573
000580 54 a8 26 ba 15 31 d3 3f 3b 89 ed 01 d9 84 ca 3f
       0.2998709028130453 0.20717918962606938
000590 84 e1 24 0b 9f a8 66 3f 74 44 41 93 d0 15 78 3f
       0.0027659517592406053 0.005880179163868172
0005a0 ac c8 02 57 e5 8d c6 bf 89 dd b6 37 bf 36 7b 3f
       -0.17620531796052796 0.006644007629282974
0005b0 a0 10 9e 91 34 b7 be 3f ba dd db d0 b1 d0 b5 bf
       0.11998299174416838 -0.0852156767758662
0005c0 8f a8 65 cf ae 67 40 3f 18 d3 71 ed 70 01 c8 3f
       0.0005006412091408552 0.1875439795873255
0005d0 ed 42 01 95 94 0b 78 3f 5b 2a 6a d4 ce 04 af bf
       0.005870418928751714 -0.06058355658486355
0005e0 4c 99 1d 19 bc e1 c3 bf c9 51 45 41 f3 98 d3 bf
       -0.15532637811993266 -0.3062103402528718
0005f0 82 2f ac 42 9d 7c d0 3f 73 d1 01 c1 8d 7a a5 bf
       0.25760585318561635 -0.04195063572925308
000600 45 65 27 65 61 7f 99 bf 9a 35 c3 39 94 01 c0 bf
       -0.02489998035330145 -0.1250481874507557
000610 c1 10 b8 2b 17 f9 c7 3f c9 da 8e 87 83 c5 a0 bf
       0.18728913912503312 -0.03275691060792025
000620 7b 94 11 aa 6e 13 a4 bf b1 a8 f6 f0 44 aa ca 3f
       -0.039210756550155566 0.20832120672031842
000630 93 5e 0f ae 4c a6 cc 3f 5b e0 2b 95 6e a0 9b 3f
       0.22382505892777668 0.026979186873149135
000640 6c e6 4d 13 b9 80 bd bf 54 ba 1c 07 e8 cf bc 3f
       -0.11524540635391539 0.11254739926946772
000650 3b 92 3f e5 6a 28 b8 3f 7c 00 42 02 bb b4 b0 3f
       0.09436672303088127 0.06525772862551266
000660 39 88 9a 65 20 a8 b3 3f 2b 40 5f 58 b1 77 ae bf
       0.07678415756757397 -0.059506933248144676
000670 0c d7 66 f1 1a 5a c6 3f b4 71 15 eb 7c b8 c5 bf
       0.17462479388421348 -0.1696926257963135
000680 ac a0 b2 a5 91 85 8c bf 4c 5b fc 50 9e 84 a7 bf
       -0.013926637524790252 -0.04593367327304651
000690 10 c5 d7 3e fb 08 a1 bf 6e 9b c7 b1 5c 0b b0 3f
       -0.03327164785504 0.0626733716995724
0006a0 8d 7f 0b 89 c7 3d b3 3f 7a 19 b4 a3 93 2f 7f bf
       0.07516142936537858 -0.007613732067744622
0006b0 ed 38 1b e8 1b cd 71 bf 1b 9c 34 d7 74 1b ba bf
       -0.004345997820293085 -0.10198145154991815
0006c0 c4 d2 6b 0b 6a ab c4 bf c2 98 bd ef 62 c1 b6 bf
       -0.161481147362471 -0.08888834336321152
0006d0 45 59 2f 64 5b c5 c5 bf 33 04 e3 1b 9e 0f b2 3f
       -0.17008535758822965 0.0705508058627096
0006e0 ee 79 91 68 9f c1 a3 3f 8e 7c bb 5a ec 15 94 3f
       0.03858659888713932 0.01961488059793886
0006f0 86 44 d6 a1 d2 54 c3 3f 05 d0 03 b6 a3 20 c2 3f
       0.15102608587452354 0.1416210783714861
000700 86 da 71 f6 b4 77 c1 bf 1f 5d 56 1f b6 49 9c 3f
       -0.13646566422876932 0.027624936735802238
000710 47 07 38 36 48 e1 ae 3f ad 00 7f 4d d4 91 a3 bf
       0.06031251584864932 -0.038221964321111336
000720 30 b1 74 2a ae 99 88 bf c8 d5 ee 39 f0 4d 68 bf
       -0.012011871977471417 -0.0029668514175351414
000730 2a 05 24 81 5f 52 b6 3f b1 64 0e ee 75 8e b6 bf
       0.08719441321229185 -0.08811127721709756
000740 bc 04 cc c3 24 cf 88 3f a2 b1 8c c5 40 f1 b3 3f
       0.012113845086334833 0.07789997885692526
000750 f5 09 fe b9 e3 dc 83 3f 28 c0 0d 92 04 a1 b5 bf
       0.009698657144103765 -0.08448818746342168
000760 93 3e bb 33 ec 3f 7e 3f 20 3e d8 ff 55 4e a6 3f
       0.007385180153235321 0.043566405755083304
000770 f0 ca 1f 88 46 84 d6 3f b1 a7 ce 03 35 bd b4 3f
       0.3518234567010685 0.0810120710654292
000780 fe 5c ff 8b c2 14 75 bf b1 56 1b 6f 3b 61 52 bf
       -0.005146751354877964 -0.0011218147669089069
000790 10 59 b8 af a5 92 bb 3f bf 60 69 2f 05 1d c2 3f
       0.10770640888253902 0.14151062788983457
0007a0 03 11 28 3e c7 f5 b8 bf cc cd 2e e8 96 cd 75 bf
       -0.09750027911656294 -0.005323018532112877
0007b0 f1 c3 9c 6b b1 16 c1 bf 0a fa 10 64 c7 47 be 3f
       -0.13350503687391282 0.1182827586462524
0007c0 5f ab 18 4d 48 73 78 bf 5c 1b 77 9e 8e d7 c4 bf
       -0.005969316889187975 -0.16282828080712874
0007d0 54 60 10 fb eb e6 9f bf 02 45 09 76 1e 4a b8 3f
       -0.03115433425782073 0.09488096601241483
0007e0 88 5a 62 3f f6 1c c7 bf 47 7a ba a4 82 b4 c5 3f
       -0.18057134718829482 0.16957123797779358
0007f0 ce 52 87 04 ed 0e a9 bf d5 1f 93 e7 fa e0 b2 3f
       -0.048942000201042654 0.07374542382888134
