ptlpinns/models/train/underdamped_nonlinear/model_underdamped_nonlinear.pth (torch, 450278 bytes, 27 tensors)

fourier.B f8 [16, 1]
1.2949223223701893 -0.5904595151382427 -0.061927043694892346 2.516959970026092 0.03873276700681902 -0.8278783921921715 -0.3961168574585656 -1.1955589699957185
1.3147271661947424 -0.2325747453890936 0.16066745506442223 1.1795699837783156 0.26367571613457114 0.28442955768828754 2.141765547914637 0.183278425653542
00000000: 9a0b 1778 00b8 f43f 432f 645a 0be5 e2bf
00000010: 33a7 d0c6 e6b4 afbf 5dd3 a4e8 bb22 0440
00000020: 4cdf 27ff c7d4 a33f 5af9 70d3 fa7d eabf
00000030: 0072 0b85 fa59 d9bf 0c23 4971 0221 f3bf
00000040: be81 5f5a 1f09 f53f ef2c a95e 02c5 cdbf
00000050: 4f41 844c c090 c43f e4bc 7ac6 84df f23f
00000060: fd07 631c 10e0 d03f 3b5d 1208 1834 d23f
00000070: 6ff1 bff9 5522 0140 3746 1fde aa75 c73f

linear1.linear.weight f8 [128, 32]
-0.06067924597951051 0.04057062654419507 -0.034098085336965143 0.10390707044016667 0.12129822376595856 -0.01805935192291726 -0.011071917488846804 -0.1235559438238345
0.10638459899788559 -0.2395769259874378 -0.027975559966291044 -0.14946913898843153 -0.04527747883063599 0.10275337172610054 -0.0927770773896259 0.15122091073943233
0.13157815665381586 -0.05130014094003838 -0.13077003205870716 0.09552497342879857 0.1596490202785574 0.09187483691889987 0.10061419295855306 0.007205660951373631
-0.09659346353546566 -0.16439640160772528 0.05079414336954643 -0.11629220248256601 -0.13650027483057048 0.09195115570554994 -0.043550513346273294 0.245909153678867
0.03360208444150526 -0.057889276562278956 0.10811566333374173 -0.10485746293481385 -0.08433962121694505 0.05910363141451772 -0.18179275283926458 -0.052977268365349835
-0.0394536174836093 -0.17847084887252881 -0.00579772113655555 0.03731624848899405 0.17026635307011828 -0.17261317799081502 0.10235127165240006 -0.04004980056294963
0.13261380022157554 0.07550897662966129 -0.08282892173272338 -0.0934593264771518 0.08953894089598756 0.04271928732190878 0.03991749492716153 0.05792761843015611
-0.07989271378901304 0.20361794528740626 0.1193055406409012 0.040607277847396685 -0.045442796647802874 0.04860307177419652 -0.06261508598690674 0.15332234266456568
0.047790677980505444 0.07202775973851605 -0.10209587432593302 -0.02738815981244667 0.12077108235318168 -0.029698038885330933 0.07002788889456193 0.09101721653909192
0.021197895709287685 -0.270595645573778 -0.24740366599397626 0.061807763434839444 0.3197111940352174 0.1825634961987576 -0.05500080159358152 -0.14762086369986077
-0.1237680491986894 -0.10132894533336105 0.02837489764703565 0.09023278035846764 0.1014747408868388 0.10063304487098408 0.12130049457076021 0.007090256095364131
0.0871614288662366 -0.12158197440359865 -0.12145656735181082 -0.10339559569199473 -0.16981106495856238 0.1857578955807278 -0.05591573917940818 -0.02459198263191152
-0.061050283989560014 -0.032600496714086 -0.05435266153136212 0.0509721441232079 -0.16997811411151317 0.06565415520312086 -0.05869234785157738 0.09994859155496306
0.17040214085403219 -0.06585144962611222 -0.09097358850399227 0.12416870331173607 -0.10719165160965242 0.1486362103459356 -0.08342356755196728 -0.07848774184933065
0.022410942676994092 0.09501114109585698 -0.052478368435301743 -0.11743152382418172 0.05360809419634249 0.03571438727689754 0.14304657141433164 0.024204858949992466
-0.09258247214393614 0.037452827590653326 -0.13554818356662202 -0.10014138166460894 -0.08116259983110619 -0.0304147320067005 -0.005205469882284834 0.021103301200589415
-0.005748982161072511 0.07085395799646041 0.01493924056943919 -0.037806184512293985 -0.22816905665109619 -0.1272572056973159 0.09308231355938985 0.0969855716767898
-0.1473689610506556 -0.23317695309982767 0.1916126898533948 -0.03694836083730689 -0.10125058718098422 -0.28049910001007483 0.048072377530209376 0.16409470362559442
0.03657413976058703 -0.1447600655312287 -0.051222645371506656 -0.011200609756571268 0.07536596459597837 0.11406392577301717 -0.042169036872576636 0.022775265620599682
0.10720427100468315 0.05522521942552287 -0.17326741753063216 0.09700250869675889 0.23420389937256297 0.04860968634847115 0.037256886765168286 0.23323438955026984
-0.008927503009686538 0.0009197604141968942 0.09831473629945477 -0.012764420824764049 0.2143968556642131 0.06060362634226338 0.09786081613917089 0.016311744276416115
0.053549522459605245 0.12154255670804753 -0.2661623194044507 -0.014799154395594566 -0.1327455071190856 0.07174063943083553 -0.07277501996228769 -0.2998295390116605
-0.04758765741530835 0.11248642466364177 0.23979035647860888 -0.030192180249165368 0.14136234116994142 -0.06409451173202876 0.06296318410878457 -0.02076155860588844
0.01943061524350367 -0.11956238669070526 -0.059805023075764616 0.017720150007496275 -0.05421411894622568 -0.07531041609569816 0.019973838485021166 -0.3411358817185388
0.042008204966929676 0.1222231241704094 0.20550601639330232 0.074440225767444 -0.002381545697162651 0.026015509414059803 0.1156175553299155 0.04883661409354841
-0.02423075400475692 0.061161804226412764 -0.23997780370669292 -0.14212040214496244 0.22080570260682908 -0.03878911957829623 -0.09304012949465618 0.08463875810634516
-0.1068536119582062 -0.05167337248094609 0.12067831285534451 -0.004875166702659104 0.10802724459701528 0.0004560461947444787 0.13374896939166245 -0.046678017068431006
0.1612751354626392 -0.040591581759569 0.018742682193367263 -0.10865465737597184 -0.1413579465186818 0.13419840822305057 -0.1189555813365822 -0.08552733744745748
-0.045261565242824986 -0.09805200229571129 -0.10976394934321379 0.04687740433880763 0.06063542374459624 -0.0011685542298240533 0.0699261346663122 0.17085870256335517
-0.11816316855728828 -0.12805485768057645 0.12647750020045911 -0.08839805386397233 -0.035599327797530764 0.0920079939538037 -0.09392353068624473 0.08342570049242021
0.0420998437166098 -0.1360364749200577 -0.04051197256855873 0.009797383874775207 -0.16232732975563546 0.1385293090215835 -0.10539504890608807 0.054942048950830026
-0.10991742944100386 -0.1106314829144875 0.1806919700210169 0.08220887932711986 0.09789302024251469 0.016485717673659233 0.06420876333138903 0.024508108486194637
00000000: c64d 0ea2 5911 afbf 0f00 5f54 acc5 a43f
00000010: 73c8 c1e2 4d75 a1bf 681a 5d5d a799 ba3f
00000020: 203f 2380 660d bf3f b562 9597 267e 92bf
00000030: ac1b 269c dfac 86bf f024 f3c1 5ca1 bfbf
00000040: 5376 7e65 053c bb3f 4e02 ffea 74aa cebf
00000050: 54ed 910c a0a5 9cbf 49b9 db03 ce21 c3bf
00000060: f854 a515 9c2e a7bf 8709 1e83 0b4e ba3f
00000070: aef7 3411 3dc0 b7bf f470 0cf1 345b c33f
00000080: ef19 d993 8dd7 c03f 593d 3c17 0344 aabf
00000090: 2b98 7e89 12bd c0bf 1cf5 d31c 5374 b83f
000000a0: ffa8 770c 616f c43f a95a e4fb 1b85 b73f
000000b0: 2c3a 450c dac1 b93f 6b8c 1de2 ae83 7d3f
000000c0: cc66 e466 59ba b8bf 101d 3ef8 f00a c5bf
000000d0: 9b79 33a1 b001 aa3f 2943 7166 53c5 bdbf
000000e0: 7c6a 254c d778 c1bf 93b1 9566 1c8a b73f
000000f0: c7ae 17bd 404c a6bf 1c3c 6b7e f379 cf3f
00000100: 61e4 81db 4a34 a13f 6388 3fcb a9a3 adbf
00000110: 142a 34d6 77ad bb3f 34eb 0b4e f0d7 babf
00000120: 2841 e20a 4897 b5bf 2519 00c8 d442 ae3f
00000130: 0517 0c24 fc44 c7bf 0906 1f26 d61f abbf
00000140: 1e1c 9ab9 4333 a4bf 0733 99fd 21d8 c6bf
00000150: a0ed c3ea 59bf 77bf 4e41 bd85 1d1b a33f
00000160: f0cd 05b1 49cb c53f 7d22 2a49 3018 c6bf
00000170: 5579 7364 b133 ba3f 5425 424f 6881 a4bf
00000180: c897 792f 7df9 c03f 61c7 2d69 8e54 b33f
00000190: 1047 01b6 4634 b5bf e6bd b94e f3ec b7bf
000001a0: e7e2 dd26 06ec b63f 317c e96b 4ddf a53f
000001b0: 0b35 80de 1070 a43f eba7 6255 b0a8 ad3f
000001c0: 8d99 e950 d973 b4bf 27ae f11f 2710 ca3f
000001d0: e3c5 48d3 ce8a be3f 3d16 ab24 7aca a43f
000001e0: c8d6 e13a 4744 a7bf 9db8 8277 80e2 a83f
000001f0: 4ccc 8cd2 8a07 b0bf ecc5 be07 11a0 c33f
00000200: 76ba f50d 0578 a83f 8827 7b48 6970 b23f
00000210: 0f52 4989 f422 babf 9bb0 c44a a40b 9cbf
00000220: 886a 0289 daea be3f b942 12a7 2969 9ebf
00000230: 3a2d 9c04 59ed b13f a289 6880 e74c b73f
00000240: aafa 42b3 e6b4 953f 067b 0b66 7051 d1bf
00000250: b164 2d5f ecaa cfbf 56de 2e65 44a5 af3f
00000260: b6f7 a2f0 2576 d43f 9efc ce9a 3d5e c73f
00000270: 8a49 32a8 1029 acbf 9e2a e68e 3de5 c2bf
00000280: 6d1c 994b 43af bfbf 234f 589a b1f0 b9bf
00000290: 6e7a af25 4f0e 9d3f 6bb1 aad8 7e19 b73f
000002a0: cea2 7aa5 3ffa b93f a526 9e54 16c3 b93f
000002b0: c987 2b99 8c0d bf3f 4a33 cc20 ac0a 7d3f
000002c0: 72ff 731e 3650 b63f 81b8 d80b ff1f bfbf
000002d0: 2c13 a910 c717 bfbf 9f2c 0c3e 2278 babf
000002e0: 857b 3f75 5ebc c5bf ea1a 3f2b eac6 c73f
000002f0: 11e6 36de fca0 acbf 9c68 9704 a42e 99bf
00000300: ae18 4b9a fb41 afbf 59d2 7026 03b1 a0bf
00000310: a49c 74af 1cd4 abbf 4a48 0858 0519 aa3f
00000320: b385 92c4 d7c1 c5bf 3da4 71f1 b5ce b03f
00000330: ed90 1865 ec0c aebf 1984 021c 3b96 b93f
00000340: 5177 11c3 bccf c53f e0d0 89fe a3db b0bf
00000350: 07a6 6c8b 0b4a b7bf 441f e927 85c9 bf3f
00000360: ab53 117e e970 bbbf 32f5 37e7 8206 c33f
00000370: d4f1 5936 3f5b b5bf 5338 61cc c517 b4bf
00000380: 091b 7be7 e4f2 963f 3229 c36f a652 b83f
00000390: 91a7 5ad8 71de aabf 6524 580a fe0f bebf
000003a0: 5094 bf26 8572 ab3f 2bb0 b3fa 2749 a23f
000003b0: 18c6 039d 594f c23f 5fc7 6096 28c9 983f
000003c0: 6281 0a22 7cb3 b7bf b806 4a5b 042d a33f
000003d0: 54b5 b993 a459 c1bf b7ca 3997 dda2 b9bf
000003e0: e8d4 ee77 12c7 b4bf 783b 241d 0a25 9fbf
000003f0: 51c2 79ae 5452 75bf 7507 fa91 1a9c 953f
00000400: ca9d dfa5 3e8c 77bf 7e0f 6328 7c23 b23f
00000410: 44ee 61ed 7698 8e3f 6d39 220c 555b a3bf
00000420: d347 23c6 a434 cdbf 943d 53d0 f649 c0bf
00000430: 3dd7 9214 3ed4 b73f 1122 89e2 0bd4 b83f
00000440: 6e3b 1472 fcdc c2bf dc51 df0d bed8 cdbf
00000450: 3a9f 35be c386 c83f bec3 df42 e5ea a2bf
00000460: c7a3 a4f8 8eeb b9bf f271 467f b2f3 d1bf
00000470: 189b aa52 f19c a83f 1866 c224 0e01 c53f
00000480: 0657 4d7c d8b9 a23f d199 9c71 7f87 c2bf
00000490: 0ed6 5ec5 da39 aabf 5a40 cc64 58f0 86bf
000004a0: 23d5 2b11 2f4b b33f 0136 d91e 4b33 bd3f
000004b0: 9b06 8b14 2e97 a5bf 3325 fe33 6652 973f
000004c0: 0be6 f435 bd71 bb3f d6af b1de 7a46 ac3f
000004d0: 19d3 e071 a02d c6bf 6a87 7b0a 28d5 b83f
000004e0: 7e4e 33b4 64fa cd3f 6b60 456a 5ee3 a83f
000004f0: 9512 6aac 5513 a33f 23e1 b5dd 9fda cd3f
00000500: a33e b12b 9548 82bf 20ba 1673 8223 4e3f
00000510: 51fb 1e91 272b b93f c93b f58f 3b24 8abf
00000520: 21b5 b82d 5b71 cb3f c46b 5142 7007 af3f
00000530: eaaa e00c 680d b93f 9ce9 d4a0 06b4 903f
00000540: 4660 5ccf d76a ab3f 441f 22ba 691d bf3f
00000550: 7c41 51ae cd08 d1bf 10ab 19e1 044f 8ebf
00000560: 6b3a e205 cefd c0bf 004a 2634 985d b23f
00000570: 742a b43a 62a1 b2bf 7782 1b3c 6830 d3bf
00000580: 3081 95d0 685d a8bf 879f 2c0b e9cb bc3f
00000590: 2b64 7c4d 73b1 ce3f 0077 0feb b2ea 9ebf
000005a0: 89fe 1a44 2918 c23f aafd bd77 7f68 b0bf
000005b0: e268 99f0 5a1e b03f 79b5 e79c 8442 95bf
000005c0: a74b 0c84 9ee5 933f b614 abfc a39b bebf
000005d0: 2e6e 7e94 c39e aebf 61b5 0c23 3b25 923f
000005e0: 3703 b6f7 f3c1 abbf 74de 2d1e 8b47 b3bf
000005f0: f366 469c 0574 943f b449 de97 2bd5 d5bf
00000600: fd45 fe74 1982 a53f 9a79 20c1 034a bf3f
00000610: 3b2e c569 054e ca3f 4693 2dbf 830e b33f
00000620: 0c87 439c 7682 63bf 5719 7d48 cfa3 9a3f
00000630: f246 fcb2 1c99 bd3f ab21 c2d8 1c01 a93f
00000640: 5b0a 0860 f2cf 98bf 7866 d599 9950 af3f
00000650: e2d3 57b9 97b7 cebf 2f4b a757 0031 c2bf
00000660: a0ba bb7b 5c43 cc3f 900f 0fe0 2adc a3bf
00000670: c428 6559 7ad1 b7bf 5a72 0aba e2aa b53f
00000680: 90e9 d120 c25a bbbf b566 c2a9 ee74 aabf
00000690: 5bd7 0c1f c6e4 be3f 97b8 ce98 fbf7 73bf
000006a0: 3705 9f6a aca7 bb3f 79af ec7d 2fe3 3d3f
000006b0: 3798 b4ac af1e c13f 7188 8059 2ee6 a7bf
000006c0: 2129 3ce4 a9a4 c43f bfee 4c78 6bc8 a4bf
000006d0: 1c45 3d1c 4831 933f fbe5 fca7 cad0 bbbf
000006e0: 0fea a966 0418 c2bf 2223 3fd7 692d c13f
000006f0: 056d 847b df73 bebf 8333 409d 1ee5 b5bf
00000700: 00a8 f71c 862c a7bf 86da 2a9f ef19 b9bf
00000710: ba7a b57c 7d19 bcbf c4f3 1cad 5000 a83f
00000720: f89d ec33 9b0b af3f 4b37 d88c 4525 53bf
00000730: 6c0a 87dd ade6 b13f a690 dfad b2de c53f
00000740: 0a98 8b00 f13f bebf 507f ea00 1a64 c0bf
00000750: 1c39 852b 6a30 c03f ed34 603e 41a1 b6bf
00000760: f6c9 4c39 133a a2bf 138d 00fd d58d b73f
00000770: 524d 9f5c 5f0b b8bf 24c6 42ff 625b b53f
00000780: 00ee db57 1c8e a53f 7d21 6ca9 a469 c1bf
00000790: 9b8b 8e3a fcbd a4bf aacd a09a a610 843f
000007a0: 3c13 4656 24c7 c4bf be80 e411 54bb c13f
000007b0: 9743 3680 2bfb babf 358d d63e 5d21 ac3f
000007c0: bca1 b574 8c23 bcbf b594 0649 5852 bcbf
000007d0: 24ee f11a ea20 c73f 319a 2620 a40b b53f
000007e0: 99c1 7258 840f b93f bbae 09c9 a1e1 903f
000007f0: c0fa 9f4a fc6f b03f 7777 bd51 a718 993f

linear1.linear.bias f8 [128]
-0.03397736362289691 0.10059491514412058 -0.12973639986030208 -0.06707052208510514 0.029135228005831456 -0.07236617306073358 0.12448794122234393 -0.061633939526827
0.1628820667336158 0.0821221912407203 0.07166513799181257 0.023802451878729564 0.10573416235050027 0.15039276898722884 0.14565653702522366 -0.15685030143184012
-0.0006271728926806459 -0.05581729083976589 -0.14994124704595763 0.0104560587929533 -0.17263883456839013 0.07874374098506871 -0.07953382318101548 -0.05408803118678229
-0.10110847529160683 -0.02587109122559729 -0.03569707485277506 0.07391435008497595 0.0866255333200748 -0.06162517266681043 0.05505163983130991 -0.08554027338984745
0.16725556794922478 -0.06537090599166036 -0.08510790705006377 0.16800944383080688 0.12010936761300277 0.03815765932666437 0.1980493394114299 -0.08515862468138743
-0.13662692182734856 -0.07868602028442934 0.12443119019503288 0.08972720765560796 -0.20764948103275715 0.06408871678589617 -0.17729542827497174 0.21618660113687524
-0.043725228744416374 -0.1279236215936718 0.0786146187618408 0.13885402366029925 -0.1436895175143333 -0.11963860805330123 -0.14030696241914928 0.07514620027317787
-0.14442031202409805 0.10164775542202557 -0.15700365547678283 -0.07250128103468376 -0.06950438164875108 0.08433303712146185 0.040123837152736014 0.1302753629497015
0.009608220912001567 -0.06672950284762189 -0.15815152744561525 -0.09255439753326417 0.08921601108391242 -0.09525988993846893 -0.1335601915942966 -0.11622393361586025
-0.17662998093406393 -0.07022127474620783 0.09345925133745218 -0.04054056325307416 0.052429137535902934 -0.0019008634601944902 0.07426064771298513 -0.03558168653575498
-0.1678701055478 0.07225190075482694 0.1365444952287988 0.1596715958354877 -0.16359015379865882 -0.09052674776087423 -0.08159946804733666 -0.08204308950795076
-0.07068486774997469 -0.052815564990602 0.1372697205754615 -0.11640858894077756 0.08647446550189586 -0.08708335674580138 0.09324433444375575 -0.13677392393147103
0.0975048104924491 0.1274787457590705 -0.036511682271256285 0.05316475384598988 0.0589909629226002 0.22156732520877054 -0.09432161308592861 -0.047020967302986036
-0.018743676475916755 -0.004439727106315417 0.3156279311234894 0.09216897669755261 0.019884269664770367 -0.16154645827612993 -0.13312414962787347 0.16037687869220513
-0.06052821918068288 -0.06473454748425815 0.09089291635112623 0.04396987676219164 -0.05625399522140547 0.11214889241770253 -0.13204442414739917 -0.08666715301056538
0.08500073329151203 0.08542738331124286 -0.16907920672152246 -0.08880867165086602 0.19911844591364686 -0.2035874066150188 0.17701120628292352 0.01840590024307513
00000000: cc18 2123 7b65 a1bf c219 b09e 96c0 b93f
00000010: 7119 40cd 339b c0bf 8294 e1a2 882b b1bf
00000020: 3f44 c90d a0d5 9d3f 49ed a1ea 9686 b2bf
00000030: c5dc 4b14 71de bf3f 38c7 2ed5 7b8e afbf
00000040: 03e6 dcce 51d9 c43f c99d a7bd f505 b53f
00000050: 642b f07f a558 b23f a8f7 8881 ab5f 983f
00000060: c987 5de1 6411 bb3f a771 2dfc 1140 c33f
00000070: d168 7c97 dfa4 c23f 493d 82b1 ab13 c4bf
00000080: 776b 1088 1b8d 44bf 088e 6a7d 1594 acbf
00000090: d221 3158 4631 c3bf 3d7e 7c74 fc69 853f
000000a0: 34d2 3e82 0719 c6bf 25aa 4bc0 8c28 b43f
000000b0: c401 7d21 545c b4bf 90c1 1a2a 6db1 abbf
000000c0: f8d2 b9ba 3ee2 b9bf 0431 e78a f37d 9abf
000000d0: cf6e 1c12 e346 a2bf e1ef 5104 0dec b23f
000000e0: 36b8 9b48 172d b63f 3eb9 6daa 558d afbf
000000f0: c252 5581 ba2f ac3f 7546 b3a4 f7e5 b5bf
00000100: cb39 3565 a168 c53f 1515 58cf 25bc b0bf
00000110: 6039 69bd a1c9 b5bf 5113 565d 5581 c53f
00000120: 9351 d7cd 7cbf be3f 00c4 cc95 6689 a33f
00000130: 851c e245 ae59 c93f 0699 faa3 f4cc b5bf
00000140: c734 80b0 fd7c c1bf f425 c65b c424 b4bf
00000150: 1672 7df4 b8da bf3f 7236 71be 5cf8 b63f
00000160: 9095 0819 4294 cabf f455 a33e 1e68 b03f
00000170: baed 15d9 9db1 c6bf ebae dba6 00ac cb3f
00000180: 694d ef36 2763 a6bf c5ba 901d cd5f c0bf
00000190: 3dd2 9170 1620 b43f cefd 44f9 f7c5 c13f
000001a0: 2e44 4009 6b64 c2bf 448a edc4 a2a0 bebf
000001b0: 77e4 7e1b 94f5 c1bf 088b 9708 c83c b33f
000001c0: 56c4 8262 5d7c c2bf 1bd9 3f59 9605 ba3f
000001d0: a707 d01e b218 c4bf 564a f6a6 718f b2bf
000001e0: c22e 1c06 0acb b1bf 5db6 6894 d996 b53f
000001f0: 0cd9 b890 1c8b a43f bef7 abf3 dcac c03f
00000200: d5e3 b794 79ad 833f 06ac 6848 2f15 b1bf
00000210: 9d7e 182b 4f3e c4bf 54a0 811e a5b1 b7bf
00000220: e08d e249 dcd6 b63f 3202 e8bf f362 b8bf
00000230: b2f5 7817 8018 c1bf 1881 e409 dac0 bdbf
00000240: a16d cdab cf9b c6bf 6db5 847e 05fa b1bf
00000250: b3c4 000c f2ec b73f daaf aa92 bbc1 a4bf
00000260: 1efc 25ee fdd7 aa3f 6418 5399 cc24 5fbf
00000270: b89a 4eed be02 b33f fee2 0348 c337 a2bf
00000280: 2fe5 a682 c47c c5bf 8bd9 d0be 197f b23f
00000290: 366f ba3e 4a7a c13f 9755 1b6d 1e70 c43f
000002a0: 10a5 41ac 85f0 c4bf 81d3 0bcd c22c b7bf
000002b0: 0162 a2e6 b3e3 b4bf b5a8 4ca2 c600 b5bf
000002c0: ede7 4e4b 6718 b2bf ac73 b548 a40a abbf
000002d0: 2424 4de0 0d92 c13f b161 790a f4cc bdbf
000002e0: 900c 45c9 3023 b63f 31c6 3f49 184b b6bf
000002f0: c524 f956 dcde b73f ec99 1dd5 ce81 c1bf
00000300: 0a8b 4444 13f6 b83f 0133 fc39 3951 c03f
00000310: 78d1 8dc2 a8b1 a2bf 8507 231e 6938 ab3f
00000320: 2034 0641 1034 ae3f 8422 d16f 515c cc3f
00000330: 4391 8213 7625 b8bf 06d1 95d9 2113 a8bf
00000340: f52a e2d5 8a31 93bf cdbc 982b 642f 72bf
00000350: 2e4a 787e 3f33 d43f 9e2c 9fd4 6298 b73f
00000360: 92fe a8bf 8a5c 943f 5151 8ae9 8dad c4bf
00000370: c9d1 7a4e 360a c1bf 1240 82c4 3a87 c43f
00000380: 6478 bb03 8efd aebf 6bc2 5d7c 7192 b0bf
00000390: dc88 2a17 c244 b73f 9dd0 673d 3883 a63f
000003a0: eb94 7ddb 52cd acbf af76 3731 cab5 bc3f
000003b0: 9586 aae9 d4e6 c0bf c05b d18b d12f b6bf
000003c0: 0881 9fa9 9bc2 b53f 5e30 81a9 91de b53f
000003d0: 5dba a62f 63a4 c5bf cf77 5744 2abc b6bf
000003e0: e25e 9d96 b67c c93f a3fc a4f2 260f cabf
000003f0: 835d 019f 4da8 c63f ebc8 630e ffd8 923f

linear2.linear.weight f8 [128, 128]
0.06897305378440455 -0.0006054727373256801 -0.057708182715220095 -0.08157295800973989 -0.08099557161724032 0.08259865773555576 0.06484851803016621 -0.05429403652546469
0.08503601318881025 -0.05994147725840076 -0.04153107164444472 0.024885042303260482 -0.022113072074779985 -0.04094004108015426 0.02167627956607922 0.10783916505251985
0.06633181552723368 0.041530492384748874 0.08252243397969318 -0.08700559792810882 0.04354068188611804 -0.05291893231016325 0.07667436923127194 0.05041840670340919
0.004302658605637479 0.020306743819042627 0.06948921444732334 -0.02226884361467231 0.14280177567248653 -0.019804806346875457 -0.0459624313164318 -0.05683375732008222
0.007879177668565225 0.056955322962921495 0.03701996832617273 -0.056217440989051126 0.015975050676642972 -0.05398969091768591 -0.08837143432802527 -0.09133212462544943
-0.08829915528882733 0.07236523517532502 -0.0064839332377026266 -0.007629163426483023 -0.031808587110759394 0.011439026762572685 -0.023123540290849325 -0.06580385504028136
-0.09310295139133591 0.029752718364228253 -0.05851400750903772 0.060604943286482776 -0.005172852044082516 0.07590852764944657 0.09606139476241585 0.033737781427943064
-0.0595888474399946 0.03611560039193319 0.014463563060085 0.003121792701390417 0.07066820959784478 -0.0693173995337837 0.10776300704493669 0.05687486474829606
0.02838711542804022 0.09585128596856438 0.1028083177481236 -0.0453936730994075 0.05310779683596634 -0.1099288738203342 0.06591373432145811 0.02733614030214344
0.08943790312892341 -0.028462241326185543 0.06582774953964766 0.00535366156101993 0.01946418740515126 -0.05525200791551308 -0.01971281309402712 0.01544451750418501
-0.024260046354257048 -0.09635788064838081 -0.05467493664088728 0.01903060343318559 0.0765920645455413 0.06357553488793956 -0.003338710623992663 0.048703799457417686
-0.02141638211064523 0.004306232936427553 0.004450184604831621 0.0033786211927788563 0.03958510195452535 -0.0014877400448252962 -0.008227631135782933 -0.1136956695499013
0.05265812168492934 0.03461991045902741 0.05253751139433558 -0.008928734877698677 0.002009108250513494 -0.055240631587897444 -0.008910278665351991 0.09125359575665191
-0.08668379298945614 0.046075893840815015 -0.09151334834970205 -0.06036713318041224 -0.07781999775535066 -0.07320444723900413 0.06511603930898914 0.0674220320277717
-0.09414519772051497 0.07488820451773316 0.06513988891309123 -0.030538969849570847 0.017009576825036243 0.057395845757916016 0.01879728913897057 -0.06882924508034592
-0.04199937737673643 -0.028849200503499536 0.05005528565462911 0.03777813662370137 0.02885321258734929 0.06892089956049217 -0.09936584880218573 -0.08067393139696753
0.039344808382626606 -0.03306727935718228 0.06060694207948081 0.08181651804296453 0.020066169116293206 0.1290287843068871 -0.04291344903242015 -0.006270378751854106
0.03784268099904748 -0.017610197325747767 -0.006102463865186224 0.026832767451082505 0.04001100984567781 -0.05972548591315406 -0.058581113721670686 0.06524631381789814
-0.016001641646026535 0.03858317066860806 -0.03923548873841683 -0.06999720954132886 0.08720790228765649 0.028650288374085182 0.030445556510597504 0.03690919981970719
0.03558301116608062 0.05155915936920656 0.07983401685999776 0.07037870378509659 0.08733434009869477 -0.05522554219545263 0.07874149656258327 0.015406492354075154
-0.04779323369965644 0.011941006329097066 -0.028617815233297157 -0.013320703560093631 -0.0529072735066684 0.04079703813892785 0.040334375187886434 -0.014004722361105263
-0.028934403266982427 0.018331662526579483 0.037846178646276936 -0.004409295547343077 -0.0016183968536600606 -0.06638251554614315 0.00974211192776069 0.00015374342097127902
-0.018492154493583584 -0.020124891132968205 0.025508667984388285 0.06499706557625198 0.02205608710776381 0.08258860459826506 0.04758047795637194 -0.02497600579115857
-0.0605365311036397 0.04944094035972152 0.08432394697551819 0.07494412391153892 -0.03522497221556977 0.0694767193304081 -0.06037415768311334 0.07563426283710363
0.03473959914840395 0.05323179827374603 0.0985289575333141 -0.004242932302520779 0.07313962235193967 0.02279859308971335 0.09043860759027032 0.06995221097606623
0.021831691388854678 -0.046625027180676314 0.052243766210192666 0.05531113338493826 -0.03838178326994387 0.04969103666647425 -0.054485286146754956 -0.05044623036020498
-0.062106943795035424 0.00037612281232105705 -0.022300317042957738 -0.0452464384633715 0.09707315475833099 0.023093583922529623 -0.004936390289388385 -0.025395511885793767
0.014415883357669225 -0.060962014339801494 -0.04177432718517607 0.042106184396607696 0.02359010434353897 -0.05384153270244302 0.05901158617274115 -0.0015889349170948774
-0.07334131059800619 0.03853140054520344 0.09631683576060432 -0.062101424167171064 0.04690947129143083 -0.10909758107410712 0.04008756790757331 0.02249840608276866
-0.061354957786063084 -0.09749235844830378 0.07216745081286176 0.05208099132464002 -0.04155526924589221 0.023989201700812736 0.0879017492750459 0.06492285866984798
-0.010529245686861014 0.02889695444983497 0.029692141952437405 -0.05997741895182022 0.007673116042058369 0.014955258918551184 0.05206050087531235 -0.0716633637587198
0.038094001331459286 0.06112604038261615 0.09435685734901407 -0.029671108525329268 0.05159076175998154 -0.03964827035122708 0.017976691153854328 -0.05830333957694007
00000000: 182c 4fd2 37a8 b13f 6bd7 7ecd 12d7 43bf
00000010: b769 f24a ed8b adbf dbca e322 f7e1 b4bf
00000020: fd84 3733 20bc b4bf 01ef aa85 2f25 b53f
00000030: 9735 2298 e999 b03f 5c49 7d8e 6dcc abbf
00000040: 67cf a08f ebc4 b53f 575d ff38 a6b0 aebf
00000050: 5421 f684 8f43 a5bf bc87 68eb 767b 993f
00000060: 0447 8025 cfa4 96bf 7183 12d3 17f6 a4bf
00000070: 454f 577f 4e32 963f 9de6 20f7 589b bb3f
00000080: a1af 5f32 1ffb b03f 8896 2815 7c43 a53f
00000090: c90c 21b3 3020 b53f 218f abb5 ff45 b6bf
000000a0: 502a 7ed9 f64a a63f f707 39b7 3018 abbf
000000b0: 822c 4a74 eea0 b33f f8ac d0ff 70d0 a93f
000000c0: 69fb f31f aa9f 713f 2039 5d82 4acb 943f
000000d0: 1eda 798f 0bca b13f 84d4 2dcc a4cd 96bf
000000e0: bc7a 291e 5447 c23f 49f7 400e b647 94bf
000000f0: 898b b246 6388 a7bf 7042 ff71 5019 adbf
00000100: 2434 3f53 f522 803f 70f0 ea82 3f29 ad3f
00000110: 620d 8502 48f4 a23f b08b 064d 88c8 acbf
00000120: 851e d580 c35b 903f 510e a069 89a4 abbf
00000130: 2ee8 56a4 829f b6bf 1c2b 57c8 8a61 b7bf
00000140: 45dd 3a00 c69a b6bf c103 722e 8786 b23f
00000150: b93c 4993 e58e 7abf 8ff1 99f6 c13f 7fbf
00000160: bfcf be12 3749 a0bf bd1d bf2e 586d 873f
00000170: eb8a 4485 b2ad 97bf 9446 597d 85d8 b0bf
00000180: 9d09 6353 98d5 b7bf 6ba7 5d21 7f77 9e3f
00000190: 16eb 3749 8cf5 adbf bc62 c872 9c07 af3f
000001a0: babc b3e5 2030 75bf 29ec bdc3 bd6e b33f
000001b0: 22a8 e9c4 7a97 b83f f4c6 be17 1446 a13f
000001c0: a016 eced 6d82 aebf 8215 1e75 be7d a23f
000001d0: 3d14 9d92 129f 8d3f a2eb d5b1 df92 693f
000001e0: 1ef1 16d1 4f17 b23f 0197 0afc c8be b1bf
000001f0: d003 fa3e 5b96 bb3f b0e0 1dc8 b31e ad3f
00000200: 4c99 9011 8311 9d3f 16b8 83ba b589 b83f
00000210: d026 7c5a a551 ba3f b785 d0ea d63d a7bf
00000220: c06b 25f5 f130 ab3f 36c7 f175 4c24 bcbf
00000230: ca94 44f5 b8df b03f 33e4 6252 01fe 9b3f
00000240: a027 f604 67e5 b63f 96d4 aaae 3425 9dbf
00000250: 392b 715f 16da b03f 1b4d 1895 b8ed 753f
00000260: 2eb3 6481 6bee 933f 0d28 12be fd49 acbf
00000270: 313b 347e 982f 94bf 5bee a90c 60a1 8f3f
00000280: c08f c326 a0d7 98bf 29bf 18fa e8aa b8bf
00000290: ae24 9171 5afe abbf 9486 792d c27c 933f
000002a0: 4c31 5b9c 899b b33f 495e 2b7b 7c46 b03f
000002b0: 8c7e 1b9e c859 6bbf 359a b853 b4ef a83f
000002c0: 8131 0e13 2dee 95bf af39 189a 69a3 713f
000002d0: 9b31 6c55 5b3a 723f d6f1 e970 7bad 6b3f
000002e0: ef65 9b9c 7f44 a43f 7a2d 99b5 0860 58bf
000002f0: f4c2 36f5 a5d9 80bf e9e4 69ce 281b bdbf
00000300: c0d8 025d 01f6 aa3f 7987 6c6e b3b9 a13f
00000310: ddf8 805a 32e6 aa3f dbde 5a82 3a49 82bf
00000320: 1fcf 5cc7 6775 603f b92a 2904 8048 acbf
00000330: 413b ba5b 8d3f 82bf 37cf 6a49 655c b73f
00000340: 7ea2 fbb7 e830 b6bf 214c 5c72 4297 a73f
00000350: 8936 4f36 6b6d b7bf 35bb 86dd 70e8 aebf
00000360: a182 55e9 02ec b3bf 2233 d0d2 86bd b2bf
00000370: e1f3 46db 71ab b03f 24d2 96fe 9142 b13f
00000380: 0efa 4851 e619 b8bf c983 4295 df2b b33f
00000390: 13fb 8bfc 01ad b03f 859d 0793 9b45 9fbf
000003a0: c3b4 ba60 f56a 913f a1bb e900 fd62 ad3f
000003b0: d5dc 6bb8 983f 933f 67e2 a01c cb9e b1bf
000003c0: e125 9240 f180 a5bf 4f8e b612 a58a 9dbf
000003d0: edd3 c1ad d8a0 a93f a6f0 9aea a757 a33f
000003e0: feee c951 b28b 9d3f ff8a 9fd1 cca4 b13f
000003f0: cbd5 f14e 0a70 b9bf 7f5e fdf8 0ba7 b4bf
00000400: 18a2 8ab2 0025 a43f 4747 d0c6 31ee a0bf
00000410: e0ab 4884 df07 af3f 6862 4465 edf1 b43f
00000420: dc22 71d0 398c 943f a79c 6be4 0384 c03f
00000430: c53c 4e68 c0f8 a5bf 0792 c3fa f7ae 79bf
00000440: 5957 91aa 1d60 a33f a35b 5c56 6808 92bf
00000450: 98ae 9dab e5fe 78bf 967f a78a 0c7a 9b3f
00000460: fbc3 88b5 527c a43f 4e2b 78c1 5694 aebf
00000470: 1817 32ff 57fe adbf 084d 0880 fbb3 b03f
00000480: 543e 35fe bb62 90bf 7033 6560 2cc1 a33f
00000490: 2aba f289 ac16 a4bf 7390 ca4d 56eb b1bf
000004a0: 463b 47d0 4153 b63f d2c4 594e 8056 9d3f
000004b0: 930d 16b6 1e2d 9f3f 0f5a 4b3c c3e5 a23f
000004c0: 1cc7 80ba ef37 a23f d698 994e f665 aa3f
000004d0: fda1 858b 0070 b43f 3884 17b7 5604 b23f
000004e0: 9fa8 8a16 8b5b b63f c244 44b3 8546 acbf
000004f0: 530b 9318 6728 b43f a161 7466 708d 8f3f
00000500: 7993 6bcf 5a78 a8bf 2483 51bd 8674 883f
00000510: b238 0a12 fd4d 9dbf 42d7 3391 e247 8bbf
00000520: 9703 dd82 a916 abbf ec24 2971 59e3 a43f
00000530: 6452 ac0c b5a6 a43f 757a 3e04 82ae 8cbf
00000540: 6e3a 0bef faa0 9dbf 43c2 210c 89c5 923f
00000550: 41f0 2007 9360 a33f abac c942 7b0f 72bf
00000560: 2124 bd63 0c84 5abf 6701 4ccd 71fe b0bf
00000570: 5b58 fd20 acf3 833f 5c9d 1aee c526 243f
00000580: 2b4d 217b 9bef 92bf dab2 0195 9e9b 94bf
00000590: 32a6 07bb f11e 9a3f 8268 fcce a5a3 b03f
000005a0: 13e8 38f3 de95 963f 3c96 c5db 8624 b53f
000005b0: 5957 80e9 775c a83f 461e 3b60 4f93 99bf
000005c0: c659 9bea a4fe aebf 1863 dbab 5250 a93f
000005d0: 938c 8712 4196 b53f ef38 3ac1 892f b33f
000005e0: 0336 56ef 0109 a2bf 6783 5bed 39c9 b13f
000005f0: 9a87 8b91 5ce9 aebf 61a9 575d c45c b33f
00000600: 0ee5 6f84 63c9 a13f 01d2 62c1 3241 ab3f
00000610: cd86 509a 3139 b93f d2ce a777 0961 71bf
00000620: 651a 0b3e 47b9 b23f 274b dcae 8358 973f
00000630: 7f5f e50d fc26 b73f 23d3 6c5a 63e8 b13f
00000640: 6640 2002 0c5b 963f 230d d54d 3cdf a7bf
00000650: e0d5 95e6 b1bf aa3f f86a fca9 bd51 ac3f
00000660: cb29 d0ef c6a6 a3bf 6310 c682 1a71 a93f
00000670: 8f1e 3ad4 7ee5 abbf 2b06 359b 16d4 a9bf
00000680: 3c8b e838 7bcc afbf 7d6a 9e2d 4ba6 383f
00000690: 194b 8ff1 e4d5 96bf 3fdb eb8a 8a2a a7bf
000006a0: 1faf 0149 c9d9 b83f 6c5e c72e d8a5 973f
000006b0: dec4 a62d 2e38 74bf f403 0ff4 4701 9abf
000006c0: d45b 831c 1386 8d3f 9b84 c6c3 6936 afbf
000006d0: 843d 25d2 7163 a5bf 7ab3 e219 f18e a53f
000006e0: 4eae a81a 0128 983f 583c 3f0c 1e91 abbf
000006f0: 5fde 6441 c436 ae3f d701 48e0 7908 5abf
00000700: c8d6 7602 7fc6 b2bf 31e4 6b42 63ba a33f
00000710: 2e60 a55b 38a8 b83f 1782 aa03 c2cb afbf
00000720: 5c81 23aa 8404 a83f 3537 c9ae d1ed bbbf
00000730: 1446 4792 5b86 a43f c2b8 5979 d209 973f
00000740: c7f6 46c2 ea69 afbf 3c37 255b 42f5 b8bf
00000750: adb1 13e9 9079 b23f db15 f714 5caa aa3f
00000760: 1971 c674 bb46 a5bf fa6d 0c13 a090 983f
00000770: 78c3 65a2 ba80 b63f acf4 bfd2 c89e b03f
00000780: d54f 036f 5b90 85bf bea0 43c9 2997 9d3f
00000790: 3e1f 89ea 9d67 9e3f b509 cb39 5cb5 aebf
000007a0: a548 5867 d86d 7f3f 33c8 aadf dca0 8e3f
000007b0: 437f 5889 aca7 aa3f ed40 aabb 8758 b2bf
000007c0: 67e8 c893 0e81 a33f ff2e c190 e94b af3f
000007d0: 6da4 7760 c527 b83f 9c69 0263 1a62 9ebf
000007e0: 9dd7 11b5 1a6a aa3f dfc2 0031 c74c a4bf
000007f0: 3667 6252 7b68 923f 5909 7671 efd9 adbf

linear2.linear.bias f8 [128]
-0.14116979716131794 -0.1422331451277999 -0.006144514308455975 0.08034778726004342 0.013102280446307233 -0.023053736601515617 -0.007515483322951952 0.1063041734569749
-0.08372326193279853 -0.09161934573029075 -0.06162639063709671 0.038687777903391944 0.044752494516720635 0.03649884094953007 0.07465019966750326 -0.019675798925318337
-0.10356362669047156 -0.06308560019245373 0.02087228890447977 -0.08034931032757957 -0.055915906798127475 0.032634969483044084 0.012341874336700144 0.07993385504009512
-0.11209213884877518 0.03452481224078487 0.022478514916293463 -0.03953928685088553 0.07387140054621705 0.0355768258758854 0.03967332158556528 -0.060790031811858575
0.06638791602043541 0.08484447511458451 0.04954613466124212 -0.0887548095278716 0.009299701699348968 0.03184277055420198 -0.026440238923751747 -0.02381565844321639
-0.0610458131440973 0.09623993341970692 -0.08827314407607932 0.013776414537257795 -0.025988057122418886 -0.06275242545473295 0.005937885472297124 -0.012357677986218491
-0.04094991456549491 -0.029302669584275638 -0.021455650849671975 -0.017606605810212752 -0.03417495905469354 0.05199951782768976 -0.007079448937755866 -0.018133989704034348
0.0006250586686131882 0.005108565750793245 0.04347869970540421 0.014110542491371393 -0.05086473937538982 -0.018087761490421243 -0.10747029466948115 -0.029904284427944093
-0.06261001861616387 -0.004289114649447765 0.031986898715759625 0.06801235095868416 0.07210708853889213 0.027762991434971847 -0.02779177341371872 -0.03376488546372646
-0.1216830827898306 -0.03462976695822446 -0.051781426095624694 0.013665669795327235 -0.11058308763294243 0.06507587682230334 0.027389472820837125 -0.1030809354946936
-0.06749019140673293 0.08596735329874032 0.04834088915614359 0.08024422861169406 -0.047809385305199154 0.07874275123309972 -0.013579067657931064 0.11630734564338734
-0.0017307821275995853 -0.15394062710517903 -0.0064116914144540255 0.03933052924777794 -0.034680078828127736 -0.059459835139530286 0.01614950561088778 -0.027989195541809574
-0.06213711389587876 0.05572781438818345 -0.026841278846496976 -0.10522064380030693 0.06381720835746008 0.02854554095673943 0.06903932905281775 -0.008269083958064515
-0.05665601576004574 -0.044968261566114824 -0.0767065935267842 -0.04229003980548268 0.028414113116945184 -0.01846041670494129 0.06838710762872512 -0.04675146952303116
-0.038356400556615794 -0.052268971693660994 -0.03722427752342184 0.006491081139992742 -0.007121427421369319 0.1200545546833909 -0.08487369779736714 -0.00708113030322362
-0.11864848775425699 0.0035010192479843134 -0.04736581624372606 -0.08098433725462674 -0.07730124997033617 0.01786789170425443 0.027089595037749336 0.0023608773787566267
00000000: 00d3 fe16 da11 c2bf 6a95 5d19 b234 c2bf
00000010: 03ef 1280 fd2a 79bf 777d 962e ac91 b43f
00000020: 7fc6 2850 5ed5 8a3f d334 0413 669b 97bf
00000030: 9713 5f31 8ec8 7ebf 8c0f 6d14 c036 bb3f
00000040: 9e72 ea3f e36e b5bf 21af 978d 5d74 b7bf
00000050: 2cb5 b688 7e8d afbf 8f30 b369 e2ce a33f
00000060: 673b ba88 cce9 a63f d4b5 70e0 f9af a23f
00000070: 4d38 3686 461c b33f 1eae a083 e425 94bf
00000080: 8ed3 b055 2583 babf abd4 acbd 6026 b0bf
00000090: 1c1a f398 8b5f 953f bbf4 1cbc c591 b4bf
000000a0: 495c 0c7e 02a1 acbf 9b71 45dd 87b5 a03f
000000b0: 2104 2e55 b246 893f ba8b 3d8d 8b76 b43f
000000c0: 9d82 7e06 12b2 bcbf 630d f376 3cad a13f
000000d0: 5867 b699 9b04 973f e709 dd4f 7e3e a4bf
000000e0: fca9 7471 3ce9 b23f d0cb 432f 2037 a23f
000000f0: b5a6 77c5 0f50 a43f dc05 1cfd de1f afbf
00000100: 0b49 2868 ccfe b03f 8209 dd15 5eb8 b53f
00000110: 4ec8 0668 1c5e a93f 5ef0 489c a2b8 b6bf
00000120: 6442 4ad5 b80b 833f 88e5 4914 b24d a03f
00000130: d05c e765 2613 9bbf 16d5 95c8 2163 98bf
00000140: b1f3 0596 6541 afbf 175b 9b26 2ea3 b83f
00000150: cffe eb9a 1199 b6bf d837 260f cf36 8c3f
00000160: 37a0 b5fd 9c9c 9abf 22a0 12ff 8a10 b0bf
00000170: 0216 93fe 5252 783f 1745 7176 fb4e 89bf
00000180: 1164 aa1f 63f7 a4bf 2228 33de 8401 9ebf
00000190: 8bdd da5a 78f8 95bf 57fd 9750 7707 92bf
000001a0: f9ce f656 617f a1bf a294 f448 ae9f aa3f
000001b0: c6f1 941a 57ff 7cbf 6039 e672 b791 92bf
000001c0: 6c58 1745 5f7b 443f 2316 442d b8ec 743f
000001d0: 8358 9d12 d742 a63f e1eb 3bf4 fce5 8c3f
000001e0: e012 4670 f10a aabf e1a0 3c20 9985 92bf
000001f0: 8b9b e558 2c83 bbbf 9661 838e 3a9f 9ebf
00000200: 77be 5bce 3507 b0bf 4aea 5e72 7691 71bf
00000210: 1bf1 c437 9660 a03f 9674 17e7 4169 b13f
00000220: df95 1533 9c75 b23f 5f63 02d1 e66d 9c3f
00000230: 3999 a357 7275 9cbf bfc8 a38d a149 a1bf
00000240: 650c 0f5d 9f26 bfbf 597b 1b29 feba a1bf
00000250: 08ed 3d57 1883 aabf fd79 ca26 bffc 8b3f
00000260: e7ca df58 2c4f bcbf 5ad7 b50a d0a8 b03f
00000270: 1aa9 1468 fc0b 9c3f 8471 ca1e 8363 babf
00000280: de87 e484 0947 b1bf ab17 f1da f401 b63f
00000290: d76b f813 23c0 a83f 2479 94c1 e28a b43f
000002a0: 6cc7 a7c4 787a a8bf b9dd 5725 7c28 b43f
000002b0: 8c04 029c 57cf 8bbf abaa d275 51c6 bd3f
000002c0: 0754 9c28 6d5b 5cbf 06a3 7893 53b4 c3bf
000002d0: c275 fe4e 2543 7abf 2408 b591 2123 a43f
000002e0: f06d c758 96c1 a1bf 771d b3fe 8471 aebf
000002f0: fc04 c8f9 7e89 903f 6343 f91d 33a9 9cbf
00000300: b5eb 1990 6fd0 afbf 65b3 8c28 5b88 ac3f
00000310: d767 50bb 477c 9bbf a083 fc77 bdef babf
00000320: 283b d116 5356 b03f 3b5d 6cd3 0a3b 9d3f
00000330: 316d 6bbc 8fac b13f 5995 57a9 61ef 80bf
00000340: de42 9f6d 0402 adbf b7a1 9179 1406 a7bf
00000350: 57c9 9516 0ba3 b3bf e879 d243 0aa7 a5bf
00000360: 5d18 54da 9618 9d3f 6bb1 1298 49e7 92bf
00000370: 87c0 bb46 d181 b13f 4760 4801 cfef a7bf
00000380: 0c44 f73b 73a3 a3bf 5526 0aa8 ffc2 aabf
00000390: 5120 297d 0f0f a3bf f826 6453 6496 7a3f
000003a0: e688 029e 5b2b 7dbf a1db 1932 e5bb be3f
000003b0: 2c8d 545c 48ba b5bf d30f 2371 1a01 7dbf
000003c0: 0ad8 9f4e bf5f bebf 2d3e 8765 2bae 6c3f
000003d0: 0228 6e0f 5540 a8bf f931 ffb7 63bb b4bf
000003e0: f900 90c4 03ca b3bf 28ae 12ea f54b 923f
000003f0: 63fe fef2 5fbd 9b3f 8e47 3664 1e57 633f

linear3.weight f8 [256, 128]
0.05820638936229769 0.02847688399727672 0.05632037009542187 0.03402999927006213 -0.07137593770556941 -0.08085000187813149 -0.047446714043211304 0.06397809886445786
-0.007328329691322046 0.05261798114353113 0.05269433469560732 0.050621078431726946 -0.0275650080134619 0.034335937531223194 0.028583489070240744 0.033544650639779336
0.01707871009473611 0.03379372724592599 0.05658366172834645 0.024528580320776802 -0.07612264705299907 0.025243806013051148 -0.08296764234432498 -0.03440724809901837
0.03575558184742035 0.08592904201516362 -0.0680051882025615 -0.06924850787671594 -0.0065511580453582905 0.039047695551317894 0.036045293523798254 -0.06907755043922006
0.023286964652518626 -0.08531304802380776 0.041508835622858065 -0.027866739754646066 0.03169365177187538 -0.02523538392048389 0.055964907292908816 -0.019622140414915275
0.002488791182148901 0.049748042641236445 -0.014731511934370058 0.013435048863578072 -0.01548901841341668 0.047207372447650824 0.04217769720397739 0.07407032381352158
-0.0591535217035103 0.026367821472190404 -0.07957683484313012 -0.026639153142234907 0.03952198053977974 0.003089324968013296 -0.030525368001627144 0.07671131137130839
0.06346404681794254 0.04462092511611027 -0.04106264727917656 0.01567966629653276 -0.04090722560598537 0.012214920387581795 -0.0679780716690523 0.08378838467455428
0.03532343771371115 0.05806274057358369 0.03819073714146071 0.021780087688580654 -0.00295460060118087 -0.009480961992986843 -0.08856867707009151 -0.024696880016571512
-0.03246343669463842 0.030019163651833162 -0.03919415884459356 -0.023101774496879512 0.014411350503793665 0.03851894530328809 -0.03492912578120529 0.07767546126383668
0.005235479619928238 -0.047742808366787216 0.05114020581661063 -0.06481616279638197 -0.07186933736997062 0.00282268659160612 -0.08174175507587784 0.07274674089915993
-0.03642892686143874 -0.03129323505898455 -0.08530051763757654 -0.021176185388755788 0.09865970744823756 -0.03160961753873943 -0.0524673439973635 -0.035761898883264455
-0.08442088931652654 -0.08522718597001637 0.020841548739136923 -0.06612722029699501 0.02974259130762592 0.05583175221378975 -0.08420579190508558 0.07752502992637424
0.10087193640141008 -0.011317710108336591 -0.09770644695341028 -0.08155811298597578 0.06793408283093486 -0.049725848261921286 0.08587260608051626 -0.034980056683207
0.014034189508831518 0.05167199781284797 -0.0323439168314153 0.018683801310784964 0.09762438912312792 0.005533849635841529 0.039370326460849835 -0.04526977455994475
0.04856313225786749 -0.03510981322174648 0.004979581596881721 0.003946592940965387 -0.055228999803580696 0.020507042132847812 0.04730884529476772 0.0728393947194766
-0.05578950981468894 0.06155119123322484 -0.034378864702539376 -0.09346254284958336 -0.04380162765530169 0.01690695032924845 0.08841889983262853 -0.09351782655876385
0.013607948842949113 -0.026735554938828347 0.10860830361235374 0.10293450326206803 -0.06262864526373205 0.03507267437478887 -0.06905242690385191 0.05718915248175697
-0.09210273625456025 0.08833632182743563 -0.045880953635027776 0.007863812181529898 -0.0385306523602946 -0.07307837012195147 -0.009895773433387132 -0.03594647025104689
0.07402376485044523 -0.031424153241757666 0.08797717480014051 0.0927004592564659 -0.03639366222261958 -0.09194126476674994 0.03483368064397689 -0.03076279662187711
-0.002794263313431176 -0.002269386316264647 -0.07128483095328728 -0.006261889604472453 -0.050227285649911455 -0.0023377108716269935 -0.009653181094118767 0.06692533329839015
0.032579884665103066 -0.03130114848660214 -0.03428629994533221 -0.03417005074589168 0.07247714859134682 0.012051483934031437 0.03223589365865155 0.08387914154437393
-0.03796601843729421 0.04308908459758151 0.031045940144149194 -0.07057414204252756 0.05245076181309701 -0.01882307600464473 0.04093716308837431 -0.04308928613964355
0.059205748384923276 -0.042209284714494893 -0.05932761238956773 0.017258925611332285 0.024156138551401383 -0.09852037426120476 -0.04936850990232651 -0.0523908693386163
0.053640064703749 -0.026302880746941926 0.0005611657196916888 0.06966782956061081 0.08482187907746173 0.01164091390206409 0.009425416596376602 0.06279824595592162
-0.07452914019395242 -0.05952156518165276 0.04539406254142096 0.03714210966839599 0.05755261284097316 -0.046551028064531076 0.01224122738354032 -0.020942447809050965
-0.014745214836636801 0.014675766969825858 0.03925501706042088 -0.05064369471303744 0.06532012943928474 -0.09725221221779706 0.08711329933024606 -0.0876226949417164
0.030039724311384824 0.025816769566741643 -0.04072907502207837 0.054627507336468276 -0.06295552992574086 0.09505573327907205 0.07856431384034888 -0.010772782889932622
-0.048116196250902805 0.0755077034972126 0.06543708346610257 -0.04377541427877969 -0.029624462422775867 0.06435780416394 0.0742066501412065 0.07927757788919648
0.013350612821818353 -0.008035157417346209 0.04913566652954047 -0.012583085471556933 -0.04144766739982361 -0.05807479474557629 0.007485774128260314 0.0725177066771307
0.0070386593945036295 -0.04253716812084088 0.08129801439587915 0.0889999738242308 0.0675729598436958 0.09700561062136193 -0.06751214974003987 -0.004284144171669406
0.015835358762063486 -0.021028586642673697 0.012942492218155034 0.043242290653480606 0.06842175378202806 -0.001816455449145576 -0.10956082324582252 0.014089254753970848
00000000: 3c68 7555 3acd ad3f 1256 d755 0b29 9d3f
00000010: cc20 5107 06d6 ac3f c248 e54b 616c a13f
00000020: 62b0 2a86 b145 b2bf 8eb7 f2f1 95b2 b4bf
00000030: 1d8c 3c8a ef4a a8bf 5379 4862 de60 b03f
00000040: 1c8e bc85 4f04 7ebf 53d2 6278 bef0 aa3f
00000050: 2a7b 6778 c0fa aa3f 447d b488 01eb a93f
00000060: f028 ba5f 003a 9cbf 2d57 8ce1 7a94 a13f
00000070: 378d 0c7b fd44 9d3f f63d e8b2 c32c a13f
00000080: 914f 42d5 147d 913f 8f92 a952 694d a13f
00000090: e9eb 38a1 88f8 ac3f 6c20 2e29 051e 993f
000000a0: 66dc 9317 c67c b3bf 8faf 0225 83d9 993f
000000b0: e9be 7e0e 5e3d b5bf eb49 a9aa d39d a1bf
000000c0: 3245 5e3d 8e4e a23f 2953 3b19 72ff b53f
000000d0: c7cf 49bb c968 b1bf 4c96 a02c 45ba b1bf
000000e0: d350 e418 63d5 7abf fb0f c13e 0ffe a33f
000000f0: bf07 b859 8774 a23f a234 06fc 10af b1bf
00000100: 3336 6cbe 89d8 973f 5e30 2f6f 13d7 b5bf
00000110: d88c fd66 a540 a53f a7c3 913f 1989 9cbf
00000120: 87b8 b37b 263a a03f aada 8ff2 4dd7 99bf
00000130: 10eb 17ad 6ea7 ac3f ff35 708d d317 94bf
00000140: 8921 7c97 5f63 643f 8045 5e50 9378 a93f
00000150: 817c d40f 8e2b 8ebf 4ef1 e9bb d583 8b3f
00000160: 0e1b 43dc b4b8 8fbf 8fe3 9591 902b a83f
00000170: 462d 39ac 5098 a53f bc19 62d2 45f6 b23f
00000180: b1d1 51d2 5e49 aebf 1e2e 8f8b 2a00 9b3f
00000190: c5a1 2bbf 255f b4bf adf8 274e 4b47 9bbf
000001a0: 0173 c89b 393c a43f 19e6 89b6 c84e 693f
000001b0: d1b8 0fc5 0a42 9fbf e9b2 923d 5aa3 b33f
000001c0: 5c0c 8e05 2e3f b03f 2192 2ecc 8dd8 a63f
000001d0: 3570 4dce 2906 a5bf aabd d297 540e 903f
000001e0: 91ac 4bb8 caf1 a4bf d308 b4dc 2204 893f
000001f0: cde9 a9ca 0267 b1bf a73d f6d3 2773 b53f
00000200: 4f7e 86e3 e915 a23f a964 c247 66ba ad3f
00000210: e0be 107e bc8d a33f 244d 4ef1 844d 963f
00000220: 9fd5 8d1e 3f34 68bf b154 8e2d c16a 83bf
00000230: 9f4d 77d3 6fac b6bf 5409 f08f 234a 99bf
00000240: 69a6 d62d 0c9f a0bf 7134 8df8 57bd 9e3f
00000250: 730f ddbc 4111 a4bf f34f c6d7 fda7 97bf
00000260: 6103 d7b8 b283 8d3f 1844 b554 c1b8 a33f
00000270: abf8 d0f9 3ae2 a1bf e473 d4fd 89e2 b33f
00000280: a486 f15b cc71 753f 7ded 1bd1 be71 a8bf
00000290: 4371 fc8e 0c2f aa3f b471 76c3 ca97 b0bf
000002a0: c2d6 9665 0766 b2bf 093a 2153 9a1f 673f
000002b0: ddbe c414 07ed b4bf 2b6f 0dc9 879f b23f
000002c0: 521b fff2 cfa6 a2bf 8529 54ba aa05 a0bf
000002d0: c2d3 9535 41d6 b5bf 4782 cbbe 35af 95bf
000002e0: cd50 ec38 c341 b93f d9ca 22c3 222f a0bf
000002f0: bc3f 27ed ffdc aabf 65ff 4a34 624f a2bf
00000300: 2db6 b67e 9b9c b5bf 1ba9 78e8 72d1 b5bf
00000310: 452a eea8 7c57 953f 170d 8da8 b6ed b0bf
00000320: 43b2 db83 d774 9e3f 2c57 acbb fa95 ac3f
00000330: 4fba 5dc2 828e b5bf 19bb 272c aed8 b33f
00000340: ada1 ed43 bed2 b93f fc4f 3f56 bd2d 87bf
00000350: 1bf4 452a 4a03 b9bf 958c ff13 fee0 b4bf
00000360: 2ae9 0ac8 2064 b13f d103 1a98 aa75 a9bf
00000370: a7f4 bc42 bffb b53f 3ce6 eeee e7e8 a1bf
00000380: 46fa ba07 f5bd 8c3f e648 7389 c074 aa3f
00000390: 08ec 07c2 618f a0bf e30e 61ae d821 933f
000003a0: 7368 9376 e9fd b83f 448c 4f73 a9aa 763f
000003b0: 4315 2af1 5828 a43f 31ea 7692 992d a7bf
000003c0: 857f ad51 44dd a83f 25b5 1cd7 e9f9 a1bf
000003d0: 80b1 b341 7865 743f bf0a cb79 4d2a 703f
000003e0: 67f3 e4b7 f946 acbf 1e6f 314d ccff 943f
000003f0: 8b81 b46e dd38 a83f f53a 2e42 9aa5 b23f
00000400: f858 3a50 7190 acbf 31ca c042 a383 af3f
00000410: 215c 2447 1b9a a1bf 2aa1 f044 29ed b7bf
00000420: bd09 95bc 2a6d a6bf b3f5 f43a 0e50 913f
00000430: f122 21fb 9ea2 b63f 39b3 a9c6 c8f0 b7bf
00000440: 3307 f8f9 7bde 8b3f b124 69b8 9060 9bbf
00000450: 20cf 16f8 c0cd bb3f 8bfd 2365 ea59 ba3f
00000460: ea54 334f 6e08 b0bf 3d90 d8aa 0bf5 a13f
00000470: feef 427b 6bad b1bf 65b1 3087 e547 ad3f
00000480: 0ae0 1580 0b94 b7bf 753a 4c8d 359d b63f
00000490: 4354 be56 b57d a7bf cfe8 2101 e71a 803f
000004a0: 9ce0 8f27 4aba a3bf fd00 b899 43b5 b2bf
000004b0: 92c4 1e3a 3c44 84bf 6d0f 4564 9367 a2bf
000004c0: 26d2 28b1 38f3 b23f a6a7 f49c d316 a0bf
000004d0: dda2 8f10 ac85 b63f dba8 d4a0 37bb b73f
000004e0: a83e 0eaa 30a2 a2bf 3279 5375 7689 b7bf
000004f0: a693 545e b8d5 a13f 07a6 b255 4880 9fbf
00000500: 62ef 85b1 fee3 66bf 55c2 5480 3f97 62bf
00000510: 962f a501 b93f b2bf 5279 ff30 11a6 79bf
00000520: 9668 770a 64b7 a9bf 926e b7f7 8826 63bf
00000530: 9916 d008 0cc5 83bf 425d cac5 0422 b13f
00000540: 7dc3 4986 4fae a03f 3f86 2742 b406 a0bf
00000550: e69d ee51 f98d a1bf 979b e9a4 bc7e a1bf
00000560: 1a3c e8c6 dc8d b23f c062 ebca 72ae 883f
00000570: 42e0 0a1a 3981 a03f 78e8 bf79 1a79 b53f
00000580: 7353 182f 4870 a3bf 7c87 52c2 c50f a63f
00000590: 42eb 5ec6 81ca 9f3f f912 04a0 2511 b2bf
000005a0: 4b6b 4685 d3da aa3f 2279 663f 5b46 93bf
000005b0: f9a8 4f41 b7f5 a43f ec35 8e85 cc0f a6bf
000005c0: 7ace 1842 3750 ae3f cc63 df92 749c a5bf
000005d0: ce08 ed55 3060 aebf cc52 42e4 52ac 913f
000005e0: 56bc 4d04 63bc 983f b909 7199 a138 b9bf
000005f0: 4a2a f74e d446 a9bf 1734 d6dc f9d2 aabf
00000600: a9db 50e7 b576 ab3f 9012 6572 24ef 9abf
00000610: b084 f434 6663 423f e1ce 8b39 c0d5 b13f
00000620: 9f7a 9ffc e2b6 b53f ee11 0a04 31d7 873f
00000630: adca 4200 a24d 833f 1679 a0bc 8b13 b03f
00000640: f965 bb7b 5714 b3bf 024f b94f 9c79 aebf
00000650: 0e91 18fc e33d a73f c910 a964 4a04 a33f
00000660: a514 e73b 8977 ad3f f5c1 434e 89d5 a7bf
00000670: d99e 33ba ed11 893f ff92 c0e1 ef71 95bf
00000680: b47f f73b bd32 8ebf fcd5 6e19 540e 8e3f
00000690: bef4 f4cc 3b19 a43f 920b 1569 f8ed a9bf
000006a0: b553 b6eb d1b8 b03f 3468 f05e 85e5 b8bf
000006b0: 6a89 aba3 0e4d b63f 8a7c 29e1 706e b6bf
000006c0: 4836 fec5 bbc2 9e3f e8fb e813 b66f 9a3f
000006d0: 24ac 6efa 70da a4bf 32bb f1fa 22f8 ab3f
000006e0: ea26 2286 da1d b0bf 221d bb91 9255 b83f
000006f0: dfb4 9376 ca1c b43f e8e5 9771 0a10 86bf
00000700: 7170 9ca2 afa2 a8bf 09d9 1d0d 7954 b33f
00000710: 79ba 6e15 7cc0 b03f aa75 6429 bb69 a6bf
00000720: 2ad2 1105 e055 9ebf f961 20c8 c079 b03f
00000730: e68f 80ff 34ff b23f cc16 570c 894b b43f
00000740: 7332 9ceb 9057 8b3f d50f 9b92 bc74 80bf
00000750: ed81 9f61 4f28 a93f 7435 aa24 29c5 89bf
00000760: bc98 f4ef a038 a5bf 6dee 4ec0 fabb adbf
00000770: dad4 0e31 67a9 7e3f 8c27 8f3a 8590 b23f
00000780: 6362 83be 91d4 7c3f e40d e383 6ec7 a5bf
00000790: a95e 0f59 f2cf b43f 5c80 ebc8 b3c8 b63f
000007a0: 5e62 9f24 764c b13f d0b2 2515 5cd5 b83f
000007b0: 0b54 37eb 7948 b1bf d21b bd31 408c 71bf
000007c0: cf92 03f0 2437 903f 5d42 a58f 8488 95bf
000007d0: 4718 72e6 9781 8a3f be57 5280 da23 a63f
000007e0: 962a d48a 1684 b13f 7e0c eb2f c4c2 5dbf
000007f0: 317e c398 2d0c bcbf 8d83 25c3 d3da 8c3f
