ptlpinns/models/train/KPP_Fisher_linear/model_KPP_Fisher_linear.pth (torch, 399867 bytes, 24 tensors)

linear1.weight f8 [100, 2]
0	0xbfd8b835785dc86e	-0.38624321703458164
1	0x3fd79755dabde33e	0.3686117778921022
2	0xbfe378d3b0946143	-0.6084993790455332
3	0x3feb370b3c5daf6c	0.850469224836599
4	0xbfdd1f8c4cf7aa60	-0.45505054012634183
5	0x3fe72c3629fae3cf	0.7241469211504582
6	0xbfdbea43811dcacc	-0.43617332085629523
7	0x3fbfaaf049406c6a	0.1237020663106009
8	0xbfc32ba71aa4d878	-0.14976967621777582
9	0xbff188d4c284fa3f	-1.0959060285964737
10	0xbfe808dd26a22e25	-0.7510820154724952
11	0x3fa235dfc06caaf0	0.03556727622920686
12	0x3fdc81d2daa46431	0.4454238066842349
13	0x3f9951389e5c846e	0.024723896661388904
14	0x3fcebbdfaba0bb41	0.24010845070139378
15	0x3fb683f02fd1cb93	0.08795071761578148
16	0x3fcfed6cf5118e96	0.24943315473784783
17	0x3fdd027e1a231c71	0.45327713539558717
18	0xbfda27eb82a69433	-0.4086865211377841
19	0x3fd474a871251f76	0.3196202378207923
20	0x3fd0f23226331637	0.2647824643175655
21	0x3fd7556cb74d96f2	0.36458890820209355
22	0x3fd267995efbe665	0.28757318759708134
23	0xbfed48e90bfbd452	-0.9151501878792578
24	0xbfd2dd9e26033fa2	-0.2947764750688241
25	0x3fd5792136b1b4a6	0.3355181726572688
26	0xbfdc245fe35f10b4	-0.43972012714608444
27	0xbfdf3dc454efb087	-0.4881449536758357
28	0xbfcf80ea3a137997	-0.2461216720175343
29	0x3f576a14b3d0b391	0.0014291002437502901
30	0x3fe2c148e53eda43	0.5860943295909425
31	0x3fd45f355b961926	0.3183110613248509
32	0xbfd6439bb6c0a7e3	-0.34787648055009707
33	0xbfabd275c105c959	-0.054340057194070375
34	0xbfcb3fb162daf8e5	-0.21288125349923984
35	0x3fe0a5d979dbc315	0.5202453022048724
36	0x3fe28d6d3476f072	0.5797639870356888
37	0x3fd4af1c59bcd9d9	0.3231879116387098
38	0x3fcaacfa98facca4	0.20840389699660478
39	0xbfd69871577ba2c6	-0.353054366524287
40	0x3fd71f77af89ba12	0.36129562513716096
41	0x3fb375078f15c25d	0.07600447886739788
42	0xbfa8c6dd891e59f9	-0.048392222393136515
43	0x3fdff012147e6e95	0.4990277481208321
44	0x3fdd9987885dfcc3	0.46249569241622285
45	0xbfdd20225fdd45f5	-0.4550863205123215
46	0xbfda700f65736dca	-0.4130896082621943
47	0xbf89e9c7ff924a6b	-0.012652933585092193
48	0xbfd6c4892d9d890d	-0.35574559645296305
49	0x3fd49bc356984af7	0.3220070214894543
50	0x3fdb190be9cfaebb	0.4234037192643247
51	0xbfa2162dbd216fea	-0.03532545980189623
52	0x3fe87793d1aa769a	0.7645968527828757
53	0x3fa47688d14ca1ca	0.03996684603618268
54	0x3fc75949c244caf7	0.18241235719468538
55	0x3fe17caeffd90ff4	0.5464701649693766
56	0x3fc18c74edba1800	0.13709889991531554
57	0x3fd225f9bef2310f	0.2835678448398235
58	0xbfc32b0bb285529e	-0.14975115029178182
59	0xbfcab5f6aad9c11a	-0.2086780866843661
60	0x3fe5a5d21f30d9e4	0.6764917954631611
61	0xbfe40ed3d98079d8	-0.6268100021441638
62	0x3fd27269aab5572a	0.2882332007478562
63	0xbfe27864bb1b25ef	-0.5771964697279922
64	0x3fe5ca7f50a20a20	0.6809689116346966
65	0x3fe7fc110f238f13	0.7495198531800916
66	0x3fc239f887a34453	0.14239412901818813
67	0x3fdc9770dc5b26e2	0.4467432166971844
68	0x3fd186a3fcd9d538	0.2738428086516538
69	0x3fe18cb8acd3938c	0.5484279037014956
70	0xbfe60cb49c8251cb	-0.689050965959319
71	0x3fcb1ec12e89c223	0.2118760564076335
72	0x3fd3ab74f8de46aa	0.3073399000505598
73	0xbfe20084b6743d8b	-0.5625632823520602
74	0x3fce1aa974a69c22	0.23518865772095504
75	0xbfd6eb5920f13700	-0.3581145116521469
76	0xbfe55c2b37dec495	-0.6675010768141357
77	0xbfd8267935862b90	-0.37734823443377596
78	0x3fd15eab71e92a85	0.2714031803522306
79	0xbfd5a81de32e823f	-0.3383860319682163
80	0x3fb337083ae1b46f	0.07505847394505037
81	0xbfcb41c3833903e8	-0.2129444494949262
82	0xbfe73b6d22c44841	-0.7260041884458205
83	0x3fbcb850cfcd495e	0.11218743394173233
84	0x3fef28aadd694903	0.9737142872275232
85	0xbfa557dd5d3b532c	-0.0416859794910692
86	0x3fe73a875e643564	0.7258946269591147
87	0xbfd776d0f4a6996e	-0.3666269673507462
88	0x3fbfc3b0ca76bcb5	0.12407975142444878
89	0x3fdbbee0a2bfd01d	0.43352523702128726
90	0x3fd78af7013f8430	0.3678567421139318
91	0x3fbc788d3ea19c77	0.11121447352489776
92	0x3fd2b6e4421049a5	0.2924128194000793
93	0xbfc7a6ca37e9207b	-0.18477752428066538
94	0xbfaafd9c141c44cb	-0.052716138319860294
95	0xbfd47adce2a3f48e	-0.3199989522252701
96	0x3fe47b8b0ce590ec	0.6400809528245452
97	0x3fe1258ca65270b9	0.5358336685635755
98	0xbfc35643f09d5c13	-0.15107011078609442
99	0x3fc159826ace82f7	0.13554411139650543
100	0x3fb7ddb33d5723be	0.09322662589614958
101	0x3fd2fe35f56518a7	0.29676579441400935
102	0xbfd477df09830098	-0.3198163597953765
103	0x3fd1bfd4985ee258	0.2773334014887374
104	0x3fe46c075700d6c3	0.6381870936663393
105	0x3fcea2913035aa6e	0.23933615545259407
106	0xbfe07c264df73059	-0.5151549837842239
107	0xbfab25bcbb0e6c89	-0.05302228721048958
108	0xbfc0c6a2833c0b28	-0.1310618534845045
109	0x3fdf3bad4dfe8454	0.48801739327069993
110	0x3fb275a71aa02593	0.07210773849523937
111	0xbfd2da7a0dc5c96b	-0.294584763955888
112	0x3fc7bce8d7b8dcab	0.18545256169611454
113	0x3fc8443cca09a4c5	0.18958244195099475
114	0xbfd3e5935e05eb2d	-0.3108871858782319
115	0xbfd4eafa63383e2b	-0.32684192361282055
116	0xbfc67aed2d89a09c	-0.1756264183379742
117	0xbfc7ce88d32ebd49	-0.185990431896679
118	0xbfd3ecdccdbd0f31	-0.311331940571324
119	0xbff64865631a33b8	-1.3926748152909862
120	0x3ff37bdb9b302488	1.2177387296708577
121	0xbfb518eebc91ebc7	-0.08241169074783193
122	0xbfc2ace619d71432	-0.14590145360685508
123	0x3fce42d83fc417fe	0.23641493905614647
124	0x3fc928cd5d7cb5cd	0.1965576845627041
125	0x3fd9454ce714cb73	0.3948547608044272
126	0xbff80c312dd0aacf	-1.502976588216075
127	0x3fb69eff1df6640f	0.08836359483247257
128	0xbfc01bd778b3eff0	-0.12584966081328686
129	0x3fd00c93ff1ab817	0.250767706990588
130	0x3fc159dfd16a567c	0.13555524564133126
131	0xbfe1b2028589a0ee	-0.5529797180325013
132	0xbfe03871ecd1d873	-0.5068902612099592
133	0xbfe4bac764e377c4	-0.6478001566390437
134	0x3fb9c3d3e3321cba	0.10064434334536801
135	0xbfc62dff1904a7bb	-0.1732787010344604
136	0x3fd1d0b642f2f1c7	0.27836376703251314
137	0x3f8f83581c21ac6a	0.015387237890726452
138	0xbff0afe228775978	-1.0429402905188834
139	0x3fce73d4ddcdf398	0.23790989713952793
140	0x3fda9769d4789b9d	0.41549154042371034
141	0xbfe5505ab40464e1	-0.6660588756523361
142	0xbfe9b7f4dc169ab6	-0.8037056254005026
143	0x3fcb110d3faaf457	0.2114578781965146
144	0xbfd767a93949e362	-0.3657019671878087
145	0x3f83e9f660747870	0.009723591631481038
146	0xbfd7658e202d71ea	-0.36557343618713267
147	0xbfc2d30928445c5c	-0.14706530061877998
148	0xbfe501acd20c6fbd	-0.6564544775496796
149	0x3fe2089ea858a7cf	0.5635522163404348
150	0xbfeb206c4280b546	-0.8477078722841405
151	0x3fcf90016c01b962	0.2465822007538448
152	0xbfb7522aee1feedc	-0.09109752954094169
153	0x3fe26e7036c2448a	0.5759812421330406
154	0xbf6242aa6e21ca7b	-0.0022290543284325093
155	0xbfe7ae718ed43afd	-0.7400443830136677
156	0x3fece6fbe85cebee	0.9031962908114772
157	0xbfcab660e90bb72c	-0.20869075183093722
158	0xbfc086b5a813b783	-0.1291110106171197
159	0xbfd51140ac13ff8c	-0.32917801670554847
160	0x3fdce407e94183eb	0.4514179017915569
161	0xbfe1529d1b4816cd	-0.5413346798747739
162	0xbfc237aeadf09c46	-0.1423242902103274
163	0xbf9248c524ec82c5	-0.017855720881132315
164	0xbfce77b92b0a76cc	-0.23802866555791125
165	0x3ff02582aec1b108	1.0091578318052274
166	0xbfc485228f09d55e	-0.16031295761392078
167	0xbfb73c6dd78597ab	-0.09076582443012053
168	0x3fe351344938d494	0.6036626272313179
169	0xbfc5370445ab8c93	-0.16574147607670806
170	0x3fd732b199f6ef0b	0.3624691012916947
171	0x3fe6a8c782bc38ce	0.7081029466078463
172	0x3fc8adba79f8925c	0.19280177074064653
173	0x3fdab280c8350616	0.4171449618480393
174	0xbfe84fbfb55aae3e	-0.7597349683832773
175	0x3fdc9a3e69730ace	0.44691429422179574
176	0xbfec171c1e9767b5	-0.8778210256089013
177	0xbfdc0f53c17e3599	-0.43843549629021933
178	0xbfc3d630492a25b9	-0.154974017834588
179	0xbfc4b44894302457	-0.16175181613678788
180	0xbfc5d55d1217a63f	-0.1705738390294744
181	0x3fc242098ff58109	0.1426403000759893
182	0x3fd6ca25e5696649	0.3560881367062377
183	0x3fdf0806550ac576	0.48486479096307933
184	0x3fd0961c34caf1b4	0.25916199832479525
185	0x3fe9db6c7e4fdf09	0.8080351321250144
186	0xbfddda8f4c837eb1	-0.4664648291782028
187	0xbfaec4432513898e	-0.06009111239997643
188	0x3fb8217049c5b884	0.09426023293574032
189	0x3fbdab4ae099705c	0.11589496596701693
190	0x3fd1fc1bbddf23b4	0.281012473508379
191	0xbfb2f39a511b1224	-0.07402958374138585
192	0x3fe5dd2069114b11	0.683242993555128
193	0x3fbd9d422ce9033c	0.11568082424583975
194	0xbfac07d69c219036	-0.054747301634762754
195	0x3fdd3b40ed70c1cc	0.45674155414147033
196	0x3fd197e004149a0f	0.27489471815570793
197	0xbfdf56078cf8a035	-0.4896258236572096
198	0x3fdda73011e11c05	0.46332933183697406
199	0x3fe04b48fc5a38b1	0.5091900757559157

linear1.bias f8 [100]
0	0x3fcb8651f4c6a931	0.2150366254039198
1	0x3fe2595230536409	0.5734034484731875
2	0x3fe1f32abf99e64f	0.5609334699831353
3	0x3fc87c4f3f86ce18	0.19129362680324458
4	0xbfdb56dce9574665	-0.42717669284056675
5	0xbfc9c838bca80fb0	-0.20142277919523854
6	0xbfe17cf46dc821fc	-0.5465032715010802
7	0x3fdc1f6f4f3c845a	0.4394186281006732
8	0xbfdf7e33a6290b24	-0.492077743783897
9	0xbfd4053751f192ef	-0.3128183651190701
10	0x3fe79e0e87b75403	0.738044037886198
11	0xbfe715c02189e66e	-0.7214050917675203
12	0xbfab75c99b616849	-0.0536330225156268
13	0x3fdceeb05a30e27a	0.452068412854295
14	0xbfe01fe2f9c7a320	-0.5038924101364479
15	0xbfe3289bf5b3f079	-0.5987071799168141
16	0x3fe1c844fb82e4d8	0.5556969559030689
17	0x3fce9aad742cd647	0.23909538433660968
18	0x3fdc80235a2407ed	0.44532092860038014
19	0xbfddc85855ebd0b1	-0.4653530921052705
20	0xbfe2d7ca7c164ffa	-0.5888416694237997
21	0xbfe4d4d18d06a86d	-0.6509788278974732
22	0x3fc533837af9c838	0.1656345701663342
23	0x3fd8a336f7538696	0.38496183541256224
24	0xbfb39b307604012e	-0.07658675080529484
25	0x3fb76785354fa50f	0.09142334510365323
26	0x3fd382db06abdde1	0.30486179019450615
27	0x3f7a2026c369e47d	0.006378318232799105
28	0xbfc616d4f787a79a	-0.17257177435322718
29	0x3fd6cd8b86629c36	0.35629547236971193
30	0xbfac33a415c6a291	-0.05508148923701584
31	0xbf68fe7a7a798515	-0.0030510322720124308
32	0xbfda66b54fae6e54	-0.41251881390937695
33	0xbfc5755f9e892202	-0.1676444553470589
34	0xbfc7c2a9c599a96c	-0.18562814854096688
35	0x3fb0c60a1548b9c9	0.06552184123640993
36	0xbfde7bf87a8a7384	-0.47631656615140394
37	0xbfe2b2c890e6cdc7	-0.5843241529568609
38	0x3fd1c0eee407f34c	0.2774007059922965
39	0x3fe6e4394747cfdf	0.7153593437383242
40	0x3fe3e29af1936d93	0.6214117735175243
41	0x3fe92438dd7fda9a	0.785671646705697
42	0x3fda672780cc072b	0.41254603936987405
43	0xbfdd5d84ea587d4c	-0.4588329590350966
44	0xbfac9761f36bc771	-0.055842457737425806
45	0x3fad5840e81c9e29	0.05731394608875135
46	0xbfd0ecfa7959b598	-0.26446401453616764
47	0xbfc7af290ef21eca	-0.1850329707124188
48	0x3fdb65ae07798018	0.42808104257528745
49	0x3fb4dfb9e4567141	0.0815387899842266
50	0x3fd6d5ee31673323	0.35680727791332084
51	0x3f7d96c1a946560e	0.0072238507167603615
52	0xbfea57e79c2f1e4f	-0.8232305574865196
53	0x3fe6ffda04c4170c	0.7187318890653116
54	0x3fdb053c4dba4af4	0.42219455328556355
55	0xbfd051b20bbb6914	-0.2549862970896737
56	0xbfd114a9ef0a6e23	-0.2668862184889084
57	0xbfd24a0b5c8755e7	-0.28576931034089487
58	0x3fde24b98ae8e074	0.47099150243184984
59	0xbfc334dc172316d4	-0.1500506508802376
60	0x3fd8a42192293f64	0.3850177695612642
61	0x3faf80037f28c454	0.06152354171025168
62	0x3fe6b07c03865cca	0.7090435093731682
63	0xbfe1d6c9114148fa	-0.5574689232837777
64	0x3fe441ab36bfe1a9	0.6330162114455123
65	0xbfda0d137051476b	-0.4070480915880725
66	0xbfe3799af1f4aec6	-0.6085943914126453
67	0x3fe46d23b7e4d926	0.6383226958921895
68	0xbfbf31d6345596f4	-0.12185419824308125
69	0xbfddc982294db1e9	-0.4654240992884114
70	0xbfc2ff2f4a4ea1d0	-0.14841261986045007
71	0xbfa603eb4d653a50	-0.042998650739367705
72	0x3f987ff4c1e6c717	0.023925613722617003
73	0x3fe76a5ebf16c810	0.7317346317488518
74	0xbfe0bc1d68d41e45	-0.5229632422860467
75	0xbf99de4ab2ff7a24	-0.025262038397949507
76	0x3fd4425ca197ebb5	0.31655040531739626
77	0x3f6daef25d349ffa	0.0036234601663132056
78	0x3fd7d6dbedc765f5	0.3724889585551801
79	0xbfd21f3135e3effc	-0.283153822543454
80	0x3fdf2224d5e66039	0.4864589775911586
81	0x3fd970ecadd6cb0e	0.3975173661848864
82	0x3fdeae1a1c329932	0.4793763423316647
83	0x3fdcffa875326d5a	0.4531041283132332
84	0x3fe38b174b70cac6	0.6107288812111953
85	0xbfae3f7e2ac3fb75	-0.05907816192665553
86	0x3fd768cde8528e72	0.36577174842589166
87	0xbfdbcc12d4e9362f	-0.4343306616982287
88	0xbfe0b94d45a950b3	-0.5226198540281274
89	0xbfcd2b404a6b3e86	-0.22788241990791763
90	0xbfdd45cf16ffd914	-0.4573857998469901
91	0x3fa3082d6b7676f4	0.03717176377106837
92	0x3fc8db28ad3cff6c	0.19418819865131398
93	0x3fea00c2b8b63599	0.8125928504611465
94	0xbfe2b230b86dd31a	-0.5842517473343805
95	0x3fd87494c1b6fdeb	0.38211554448568447
96	0xbfa742872e212e50	-0.04542944372277857
97	0xbfcdfd89da7fa7f1	-0.23429988068465904
98	0xbfcc4178c73ebad7	-0.2207480404735722
99	0xbfe10544f187f463	-0.5318932263759389

linear3.weight f8 [100, 100]
0	0x3f832f200616961b	0.009367227731512042
1	0xbfab8c5a22bc9c60	-0.053805176487281114
2	0xbf7d044fd6476b5e	-0.007084190238368785
3	0xbfbde5c2795d6efc	-0.11678710425388411
4	0x3fa810581ab57c34	0.046999696026198384
5	0xbf9aced147d16a9e	-0.026179571159767982
6	0xbf8cc608ce4b1fa1	-0.014049595637871283
7	0x3fa591afc0ee1c0c	0.04212712507347058
8	0x3f74e02513ecfb10	0.005096573672573226
9	0xbf9b2c31c4ddecc7	-0.02653577579574742
10	0x3fb8b7893ecc91ef	0.09655053885632701
11	0x3fb4fbc6a7de4eda	0.08196679685925848
12	0x3fb10498f8fc2352	0.06647640303357363
13	0x3fbc40ebded509b0	0.1103656214736819
14	0xbfb4c96ad4261e6f	-0.08119838408867407
15	0x3fa881efd5ff6798	0.04786633956219005
16	0xbfafb53c72dbcde8	-0.06192959692080163
17	0xbfb4baff8a8bfd81	-0.08097836620799194
18	0xbfa3b30ebdfb0a85	-0.038475475970263275
19	0x3fa65c700bdfb1b1	0.043673993539275265
20	0xbfba647c5e75599a	-0.10309579187501186
21	0xbfbb961e2d777432	-0.1077593670847399
22	0x3fb3bc54940d070d	0.07709244360469487
23	0xbf9516820910e4c8	-0.020593673518509076
24	0xbfad3eeb30b013f2	-0.05712065667470502
25	0xbfa5ad47a342e004	-0.04233764522490449
26	0xbfb58a8a53ff97f5	-0.08414520788900844
27	0x3f9c3b503ea70d4a	0.027570012878425566
28	0x3f95d0ec054702bb	0.02130478651247601
29	0x3fb49aac62a3c730	0.08048512848088474
30	0x3fa68843058cc2a2	0.04400834505793695
31	0x3fa5509c136bf47d	0.04163062798577586
32	0xbf410ceb898dfa3c	-0.0005203390202124856
33	0xbfb9524c911c302c	-0.09891203444220825
34	0xbfa94eef6053ff6c	-0.049430351742556805
35	0xbf889cb817832cef	-0.012017667977849615
36	0xbf91ffd8c9e58e2a	-0.01757754070548693
37	0x3fb3a0bf5c9a0687	0.07667156229765669
38	0xbfb10c43b62e0816	-0.06659339139699258
39	0xbf6757383f75518e	-0.002849206790111753
40	0x3fa5258b9f7aced1	0.04130207368635087
41	0xbfa91f5ed90d9e49	-0.049067462917090916
42	0xbfb135455b59aa08	-0.06721909980993968
43	0xbfa40665a5a86b70	-0.03911130568686516
44	0x3fa030b22970e408	0.03162152057524997
45	0x3f824c0528780d6c	0.008934059426798334
46	0xbfb9b934559ea96c	-0.1004822453529976
47	0x3fb02207c5542923	0.06301926200481893
48	0xbf89918c35a4cbf2	-0.012484641444279607
49	0xbf8e742147c824ce	-0.014869937899691623
50	0x3fb8c7f8caea27be	0.09680132822009477
51	0xbfacf3af9887a97f	-0.05654667603433249
52	0x3f6b0e59c5d8d148	0.0033027413726590994
53	0xbf69b2695f2dc675	-0.003136831096917809
54	0x3fadeaedb3ec4fe0	0.05843298741652325
55	0x3fb6df55187cab4a	0.08934528205706474
56	0x3fa49e5d9ad6908c	0.04027073397745182
57	0xbfb697d253bb97be	-0.08825411361939836
58	0x3fba9ed60139845d	0.10398614435099902
59	0x3f8610837d1996f5	0.010773684745071213
60	0x3fb21dc5b6e45899	0.07076678958068995
61	0x3fae345ffdfe6398	0.058993339305010994
62	0xbfa5c0624c081632	-0.04248339822883586
63	0xbf7908f2d5fa474a	-0.0061120496535681055
64	0x3f8298dafac692c2	0.009080611017290411
65	0xbf92682310338063	-0.017975375999299447
66	0xbf991e9a8464aa8d	-0.02453080590309269
67	0x3f9ffc9881db3921	0.031237013746072798
68	0x3fba7cf6ec9c9f85	0.10346930767684455
69	0xbf54ee331a1878b3	-0.001277494339212687
70	0xbfbfcbe46b3221b5	-0.12420489899716965
71	0x3fbbe6b773326c95	0.10898920595575341
72	0x3fabd9b7112fdb0e	0.054395409439100914
73	0xbfb1041d40ff8adf	-0.0664690288245242
74	0x3fb5f6e23c0c97c8	0.08579839674038603
75	0xbfb1ae935b820f0a	-0.0690700624855333
76	0xbfa964c07d5d4519	-0.04959680109335291
77	0xbfb66d2cdf8dd899	-0.08760338266242441
78	0xbfa9476c5640da48	-0.049373040703745874
79	0xbf99d3b537f24528	-0.025221663989730164
80	0x3f9e8dc46e9bd7e1	0.02983767438032448
81	0xbfa0744183e06572	-0.03213696226903097
82	0xbfacb176a0f7e1b0	-0.05604143824524799
83	0x3fb0a87199ff61f9	0.06507024774271732
84	0x3f96ab97f1eda016	0.022138952389838172
85	0xbfa08d6db50ca738	-0.03232901415897377
86	0x3fb8ed754acce33a	0.09737332416706304
87	0xbf6cf4a902d1f105	-0.0035346318241505936
88	0xbfa156235ecd8fe9	-0.033860307047490164
89	0xbfa64b59c507dd2f	-0.04354362993393079
90	0x3fae8ff99505bdbb	0.059692191544737004
91	0xbf94d441afd9b5ef	-0.020340944631632437
92	0xbf4544a42ae731ae	-0.0006490518188058592
93	0xbfaab42fa25bc2b7	-0.05215596062578725
94	0xbfb7e78bf7000510	-0.09337687282824825
95	0xbfb2a462891b4c2d	-0.07282081458406316
96	0xbf6064ea34e4aff5	-0.0020012449596347134
97	0xbfa44c895fd474a1	-0.0396464280586113
98	0xbfb02dae2f5a2099	-0.063197027741014
99	0xbfb36fceea86793e	-0.07592480874743487
100	0x3fa84718d22c2801	0.04741742673475358
101	0x3fc03023ea2f66dc	0.12646912512609887
102	0x3f93fc8da675a009	0.019518101963882404
103	0x3f93831d539f1247	0.019054849842876
104	0xbfa88db112dcba8e	-0.04795602183582047
105	0x3fb454624e0a3eae	0.07941259770654582
106	0x3faf925f727e7287	0.06166361115103763
107	0x3fb4afc922befdbc	0.08080727670948468
108	0xbf73b6d6d3a97ee3	-0.004813040892798634
109	0xbfabe2389d0c3799	-0.05446030537687747
110	0xbfb6d9e593c815a9	-0.08926234109829657
111	0xbf98642c3a760f78	-0.023819628780543195
112	0x3fb06e4ec83e7b40	0.06418316258212275
113	0xbfb44cf4b8901d3d	-0.07929925447398474
114	0x3f9df920de5c56e2	0.029270661899395096
115	0x3fb2bce86a7562f6	0.07319500540814858
116	0xbfb8f6655db6304a	-0.09750970399744677
117	0xbfb36a312d665e57	-0.07583911283870158
118	0xbf983473fb06f6c1	-0.023637592503056085
119	0x3fad1bc12cd95501	0.05685237572166991
120	0xbfa3c820704fc665	-0.03863622065535991
121	0xbf921c58b42f9c49	-0.017686258313826895
122	0x3fad96f34f575fae	0.057792285380571115
123	0x3fa58128df585e9a	0.04200103498822934
124	0x3f97eeae72cbe618	0.023371434933301044
125	0xbfa8073b8567c53c	-0.04693017962916676
126	0xbfbe3babade76f93	-0.11809800143913511
127	0xbfa5116292bca0a5	-0.041148262417040095
128	0x3f7c633b58dc4a7a	0.006930572342542457
129	0x3f903cee91b5a044	0.015857436793709448
130	0xbf9c176bf52cc7a9	-0.027433096732415816
131	0xbfafa5563491e73e	-0.06180829421732746
132	0x3fb2402a1882cd28	0.07129157160197919
133	0x3f8cc8215aed0cd9	0.014053593242016426
134	0x3fa74c4eeeefded4	0.045504061381448274
135	0xbfb11b6e7214f190	-0.06682482037735427
136	0x3f9306e2bffd10df	0.01858095452122732
137	0xbfb31529f5c90ec6	-0.07454168558711691
138	0x3fb363a4ac221c2a	0.07573918535682425
139	0x3fb6a4cb0352241d	0.0884520419223382
140	0x3fb8748041a895ec	0.09552766421310083
141	0xbfb70ae255884558	-0.09000982845488659
142	0xbf8ad7b94a3e006a	-0.01310677297419734
143	0xbfa4b9177591fd3d	-0.04047463712867703
144	0x3f9cbe334727cdd8	0.02806930658148396
145	0xbf6016296065693f	-0.0019636924873057955
146	0x3faddecfd6bd5af6	0.05834054466565945
147	0x3faff661f7231d50	0.062426625650511824
148	0xbfa4199ae145f691	-0.03925785064619192
149	0xbfad44286f3dacdf	-0.0571606288711679
150	0xbfb6d6f96e6a2ff3	-0.08921774812387166
151	0x3fb2128e21e73406	0.07059562995637245
152	0x3fadf50cd6b3123b	0.05851020928233593
153	0xbfb0792e71e2b807	-0.0643490818062845
154	0x3fb1aa6b1077f140	0.06900662567199323
155	0x3f34f518abc0084d	0.0003197846633612486
156	0x3fae10c247d45581	0.058721610325089386
157	0x3f9e5dba97473156	0.02965442226722933
158	0x3fb086a948a082ea	0.06455476782913264
159	0xbf88bfdde12e10b8	-0.01208470672077798
160	0xbfb5d0ffc53c926d	-0.08522032323214442
161	0x3f9ac156f1e5d854	0.026128157152435286
162	0x3fa85f3c3331b2c9	0.04760158657959363
163	0x3fb687cedbc6ced9	0.08800976625098701
164	0x3f9be89bc9729223	0.027254518671400284
165	0x3fa9182221894660	0.0490122476518422
166	0x3fb709ee5964a632	0.08999528582048624
167	0x3fb22a37d9a602b8	0.0709566980713231
168	0x3fba59623a8723d9	0.10292638710883696
169	0xbfbee97708e78124	-0.120749892877488
170	0xbfa02aa4a10f66f8	-0.031575340901055016
171	0xbfb0cf6e8040d47b	-0.06566515570814772
172	0x3faf0b6be23e908a	0.060634013526653055
173	0x3fa564010f56cb11	0.041778596041146206
174	0x3fae587d58e577be	0.05926887235794663
175	0xbf61ad8316157aaa	-0.0021579323080652317
176	0x3fa8768dc8be0a55	0.04777949405162888
177	0x3f944ac26361ef0b	0.019816434207753846
178	0x3f6564eabfd8e5f7	0.0026115975331577573
179	0xbf6bbd594d72205e	-0.003386186999311077
180	0x3fa69d0ef2efd052	0.04416701045548223
181	0xbf9f6d61cb4300b3	-0.03069069674597875
182	0xbf4214b4300cf08b	-0.0005517844984761639
183	0x3fb5be5925dae605	0.08493573354908086
184	0x3f8ed528b538a9a2	0.015055006056248047
185	0x3f7ecc628a1dbe24	0.007519135398851105
186	0xbf9285079ee6a4ed	-0.018085593293709335
187	0xbfad75402f50f8ee	-0.057535177017131164
188	0xbfac9fa7c52b8f8a	-0.05590557367193501
189	0x3fa02840711f732a	0.03155709629911592
190	0x3fa9f984fbb3acca	0.050731807446788915
191	0x3f922b81c7673d0a	0.017744090839014105
192	0xbf63610f6260b277	-0.0023656177973150855
193	0xbf9743b64aa242e8	-0.022719238572395023
194	0xbfb55b614e4dc85b	-0.08342559968676382
195	0x3fb7069ec531c142	0.08994476618113814
196	0xbf91d01cbcddf8f2	-0.01739544775727437
197	0x3fa31ca9d34b94fd	0.037328059237362134
198	0x3fb203c90f7e8bdc	0.07037026050834022
199	0xbfb2f4c7b1875e79	-0.07404754718970165
200	0x3fb90a85e711cbe7	0.09781681910844463
201	0x3fc2917b4fa545d7	0.14506474865861094
202	0xbfa793aa2fe5675f	-0.04604846796674055
203	0xbf8179fcecdff932	-0.008533454874847555
204	0x3fb2bab31458fa6b	0.07316130873457787
205	0x3fba55af6a51e846	0.10286995263769069
206	0xbfb292468f332f39	-0.07254448886959332
207	0xbfa5c6cf3c276ebf	-0.042532421200772934
208	0x3fb6c7ccf003eedd	0.08898621425390325
209	0xbf851b4bded59fb1	-0.010305969941967282
210	0x3f52bfe68d8b7150	0.0011443854802371707
211	0xbfa3dc41c50eb369	-0.03878980188833376
212	0x3fb85fe7ff0a3f20	0.09521341301501396
213	0xbfbd512eba9a775d	-0.11451999717470814
214	0xbf7285ab9ed5d438	-0.0045220092700804446
215	0xbfa6c3f1afde1981	-0.04446368476696972
216	0x3fa150c94d772f32	0.03381947584747848
217	0x3f8c8c251dafbebb	0.013939180344066817
218	0xbf4f9a529bf9a50c	-0.0009644416204085695
219	0x3fa702ced0b64795	0.04494329736475248
220	0x3fbc310cf2604fe6	0.11012345235241092
221	0xbf9cd7f5b84d63bf	-0.02816757142440784
222	0xbfbbe6d1ca6ddde3	-0.1089907759868463
223	0xbfa6797808165346	-0.04389548395844271
224	0x3fab4e56a2e8d7d3	0.053332049738329744
225	0x3fad8b383a9412a2	0.05770278658932183
226	0x3faf8083ff338597	0.06152737131356927
227	0xbf58d1de5f33cd02	-0.0015148803329879117
228	0x3fb40570ca3c8020	0.07820801675234224
229	0x3fad212410073871	0.05689346976906585
230	0xbfad9b431f709e94	-0.0578251815680321
231	0xbfb0b87a01611ecd	-0.06531488927532365
232	0xbf844f73dfbc83e4	-0.009917168870346722
233	0x3f9b84b840389c38	0.026873473090884142
234	0x3fb4b210cecad4dd	0.08084206627502817
235	0xbfb7d9cafc871249	-0.09316700616097608
236	0x3fa2c7c9dac95496	0.03668051524861331
237	0x3fb52addf4e8ae25	0.08268534878941887
238	0xbfa09f71cdf6df47	-0.032466465370304
239	0x3fb4cc445cf96cca	0.08124186773186462
240	0xbf942e8aa4540660	-0.01970879199962494
241	0xbfb97edcb137386b	-0.09959201170497216
242	0x3f9c00f5bb189703	0.027347411674916177
243	0xbfa1a835c229e2e5	-0.03448646540795667
244	0x3faaf44ce59deb88	0.052645113973048885
245	0xbfba2e0e0c2f632e	-0.10226524159896819
246	0x3fa7da13cb01f00e	0.04658567288512937
247	0x3fb7db2804c4eb20	0.09318781010089738
248	0xbf8ffa936d1f7b0b	-0.015614654319447327
249	0x3fbab706f88ab15d	0.10435527389444617
250	0x3fa34904fbecb163	0.037666469337952056
251	0x3fa60825cd8997e9	0.04303091176988955
252	0x3fbcc5cd07c38258	0.1123932022051205
253	0xbfc1ada26cdde01b	-0.13811140361554028
254	0xbfa887db8e93398d	-0.047911511568247446
255	0x3f8df48b0369e7d0	0.014626585046460777

linear3.bias f8 [100]
0	0x3fa9619d2d2946da	0.0495728604916061
1	0x3f8c408c5a2a05a6	0.013794991017905666
2	0xbfa8d2dd4fe67d17	-0.0484837684664347
3	0xbf83abedd14efe2d	-0.009605272245493424
4	0xbfaf6e4310586e9d	-0.06138810705689688
5	0xbfb7ba9f807d680e	-0.09269139182052319
6	0x3fadde4ffcf3c8da	0.05833673441692762
7	0x3fa81c1f3103cccc	0.04708955262494782
8	0x3faf0e5103a9915d	0.06065610093790739
9	0xbfaf21e55bd1c6d9	-0.06080548044054774
10	0x3f8d81258fcbaa6e	0.014406484080116768
11	0xbfa1f9720db8c8a7	-0.035106243300462574
12	0x3fb27daec880d53f	0.07223026652430507
13	0xbfb56cd79527b286	-0.08369204894524715
14	0x3fa6de8df03be33a	0.04466670568030513
15	0xbf57a54ec43d55c8	-0.001443221016378048
16	0xbfbf3c4c3db54bb6	-0.12201382166430971
17	0xbf9f8477e7cafe3c	-0.030778764269369527
18	0x3fb34442a6993c65	0.07526032035205928
19	0x3fa15ec4ce69cb8d	0.033926153370791835
20	0x3fb42e7ce3c3b568	0.07883434830337921
21	0xbf9e44ffa1cf4929	-0.02956008362873167
22	0xbf995f0069436852	-0.024776464867365462
23	0x3f90349c2c3380c9	0.015825691411806262
24	0x3fb0a5f53fb161e0	0.0650323181629413
25	0x3fb9a614c6b08c46	0.10019044733830737
26	0xbfa7f6ab6effde16	-0.046803815173856275
27	0xbf877d2d99071ace	-0.011469227058922195
28	0x3fb245b9b8690ee4	0.07137642624098423
29	0xbfa276bfb28ef78e	-0.036062231585204704
30	0x3fba458a073381fa	0.10262358356295201
31	0x3fb10c34535ee4e6	0.06659247432152746
32	0xbfb1b8a43d40f087	-0.06922365661097461
33	0xbf9c3514283acb2a	-0.027546229319976558
34	0x3fb85a27545755b7	0.09512563523397587
35	0xbfb3302e091a03e4	-0.07495391580779615
36	0x3fb0c93bff5b09eb	0.06557059273021763
37	0x3faed9d168d8ab3a	0.060255569504383336
38	0xbfa1005eb2e43baf	-0.033205947244020144
39	0x3fb29e2d4afa865c	0.07272608833820854
40	0x3fa9f6ec3f573cd9	0.05071199677660738
41	0xbf7de5ef689fb51c	-0.007299361410315865
42	0xbfac563c52a73657	-0.055345425691126486
43	0xbfa0bc38aa0fb682	-0.03268601489967883
44	0xbfadff5bdb8af008	-0.058588858174943026
45	0xbfacd76b4efb155e	-0.05633101786728888
46	0xbfb298a2e469510a	-0.07264154507112522
47	0x3fb44d98156f039e	0.07930899165422864
48	0xbfb163185b7e33e7	-0.06791832193103141
49	0xbfa80027f2d75e11	-0.04687619056101878
50	0xbfbf6c5af38a4467	-0.12274712034037948
51	0x3f6146400678fba6	0.002108693169958059
52	0x3fb4bb92943b6b04	0.08098713034580035
53	0xbfb45d6d8f628b99	-0.07955059767350149
54	0xbfaef28486d7dbaa	-0.06044401308093168
55	0xbf93e9b0b334cfc2	-0.019446144998440003
56	0x3fa2360d165c1119	0.03556862733788275
57	0xbf7d0023ab060af7	-0.007080210998881445
58	0xbf95711ab0a99b94	-0.020939271004319318
59	0xbfa6baa1215a88d7	-0.04439261943959288
60	0x3fbdf6e3f1cb25b7	0.11704849866068555
61	0xbfc0de11667ad903	-0.13177697662258234
62	0x3faf4664bd3bb625	0.06108393487907574
63	0xbf7a5dc5c9c3b592	-0.0064370847796743225
64	0xbfa510d8458bf812	-0.04114414071044349
65	0x3fb8f65167289774	0.09750851410407596
66	0x3f9513c2bda31e78	0.020583193611655365
67	0x3f6a9d1dc1d0b6f0	0.0032487469857390636
68	0xbfb1e358ec76f455	-0.06987529538214805
69	0x3fbb466e26ecc4a0	0.10654343080820405
70	0xbfa71156db4545c6	-0.04505416323321358
71	0x3f8b8ff5e616e89e	0.013458176693223852
72	0xbfa372a30efa4025	-0.03798398549872698
73	0x3f89904bcd763733	0.012482254226394573
74	0x3f865c5b2c8d54c1	0.010918342873689093
75	0x3fb396869f281c5d	0.0765155924383278
76	0x3fb44afc4fe2c641	0.07926918936097939
77	0x3fb166bd771569e8	0.06797393948855979
78	0x3f92380a79bb4b73	0.0177919041441998
79	0x3fa31a9570c193f3	0.03731219293039336
80	0x3fb73d58758bef2d	0.09077980871000753
81	0xbfa7508e9f0dfbd0	-0.04553647700867425
82	0x3fb3e615867e5418	0.07772955449611663
83	0xbfb943d178bf7864	-0.098691074351764
84	0xbfbe88cf056ce5a8	-0.11927503473716305
85	0x3f9399430bd8c345	0.01913933524901103
86	0xbfa7080966fc9fea	-0.04498319036639471
87	0xbfb6d36477bb6861	-0.08916309283395797
88	0xbfb99fd368642407	-0.10009499834644951
89	0x3fbbb6ad6847ad9b	0.10825618549249898
90	0x3f923a8e51db87e5	0.017801498171031844
91	0x3f795e7dc960321c	0.006193629602432551
92	0xbfb9527291871208	-0.09891429951591857
93	0x3fb3f0922c845383	0.07788957201803552
94	0xbfb577a111107ed7	-0.08385664621936982
95	0xbf65f982921e76be	-0.002682452221917624
96	0x3fa20ae43adda831	0.03523934572770349
97	0x3f9590d4b5a42660	0.021060298525333088
98	0xbf9f2df6c04629a0	-0.030448775754430835
99	0xbfa6da865bde164c	-0.044635962213800257

linear4.weight f8 [350, 100]
0	0x3fa057b6d73a6e2d	0.03191920640275856
1	0x3fb3202cd085ce2a	0.07470970240483923
2	0xbfb5980fffde20b8	-0.08435153958100983
3	0x3fb54f8b2ca919f9	0.08324498977990648
4	0xbfa856288bbb3af0	-0.04753233628945519
5	0x3fb88e4fca3baf5f	0.0959215038998855
6	0x3f9c9f0b95c64f65	0.027950459496039488
7	0x3fb3031e02cad02c	0.07426631515664955
8	0xbfacfc3921ce9167	-0.05661181008989296
9	0xbfac85fa8a02cea7	-0.05570967611984417
10	0x3fb1e7c9609e342c	0.06994303330266466
11	0x3fa0896e127d02d5	0.03229850745856814
12	0x3fb4bca2bc8c5a61	0.08100335219601497
13	0x3f613d571d920c89	0.002104444644432106
14	0xbf990e40768feac5	-0.024468428837262097
15	0x3f9a227da4f7a212	0.025522196954542116
16	0x3faf0e6f65b2833a	0.06065700642034817
17	0x3f939371910180c0	0.01911714026971434
18	0x3fb087635751fffa	0.06456585771411474
19	0xbf7de69eea29c462	-0.007300015221162944
20	0xbfa7f12652ea0344	-0.04676170122275505
21	0xbf724107171f95b5	-0.004456546494087933
22	0xbf837517ae7ec025	-0.009500679981869162
23	0x3fb877e64d8c9047	0.09557952302253724
24	0x3f99b4bd3b2af608	0.025103527771298345
25	0xbfbfca29ac8d2073	-0.12417850935628554
26	0xbf850c832bbc2f8d	-0.010277771732510899
27	0xbfbbee3e7a8485cc	-0.10910406581071824
28	0xbfaa2ab7a0e80598	-0.05110715712727226
29	0xbf91bd8f25ebab12	-0.017324673356522054
30	0xbfb6fabb45b5e899	-0.0897633595649573
31	0xbfb995d1a94bf3c9	-0.09994230635852754
32	0xbf4377bbbfa2f323	-0.0005941073170770732
33	0xbfa3aa8c5cc73fb5	-0.038410555196264275
34	0x3fa04153d9a0bb57	0.031748409572506624
35	0xbfaf59c0c91c1e3d	-0.061231636571446015
36	0x3fb71b2a85ea95a4	0.09025827187959706
37	0xbfa4c73a82ae87c2	-0.04058249325977627
38	0xbfb7cb6d0f241cd3	-0.09294778461127189
39	0xbfb857cb7d25f13f	-0.09508964352966574
40	0x3fa6d5ba8fabb393	0.04459937099259217
41	0xbf99aa662364e2f8	-0.02506408301380511
42	0x3fa40cf356fad7b0	0.03916130482450286
43	0x3fb44bca1f09174b	0.07928145654395029
44	0xbf6cdbb8c5d510f0	-0.0035227402537732974
45	0x3fb49db7a7668ae2	0.08053157650878576
46	0x3fb0ec67c4e269fb	0.06610725933789034
47	0xbfa7575f95b7dfc6	-0.0455884809743448
48	0x3fa17758262737ef	0.0341136499952056
49	0x3fb8408a6a5bdf29	0.09473481270458407
50	0xbfb59990923a29a5	-0.08437446184158277
51	0x3fa5660a3f6b01e2	0.04179412864823796
52	0x3fb4c830d1c965de	0.08117966768022408
53	0x3fa6c868204d8bf0	0.044497732108332744
54	0x3fbf22a9d0bc4578	0.12162267061309773
55	0xbfaedcf3d6b0b36e	-0.060279483754448346
56	0x3f7da4c1d39b4395	0.0072372027731980775
57	0x3f8ded402071fbce	0.014612675657415777
58	0x3fb3abfd77a85ebc	0.07684311076479394
59	0x3f91abdff8c8fe81	0.01725721317256879
60	0xbfb80c3671e728d3	-0.09393635063966892
61	0x3fa3c2d80f45eb04	0.03859591661872311
62	0xbfa0fa8f1c0248a4	-0.03316161362558148
63	0xbfa0a9c55e2dfa9f	-0.0325452496972407
64	0x3fb719b045783ed4	0.09023572631871996
65	0x3fa2ddfc5b8e1c83	0.036849867035067006
66	0x3faec2fe403c56f9	0.06008142980696891
67	0x3fad7206f8c3a81e	0.05751058375047101
68	0x3fafd03537d90379	0.06213537508711559
69	0x3fa31f7459ca9a94	0.037349353752962916
70	0x3fb2b7763c1bbac1	0.07311190574157946
71	0x3fb3b2a109542b48	0.07694441297296095
72	0x3f8f402e81aa5de3	0.015259135562970044
73	0x3f8ba5b341b957ff	0.013499641841161035
74	0x3f907942bf746707	0.016087572989909506
75	0xbfa919d3370abded	-0.049025154561032604
76	0xbf96dbad05e3e554	-0.022322371944914224
77	0xbfa4ede520f91cba	-0.04087749507430645
78	0xbf9ac940948350f0	-0.026158341469298685
79	0x3fa749319ac8fcfa	0.045480299133936655
80	0x3fa064d99b13c65b	0.03201942461045056
81	0x3facd06c8bd6c204	0.05627764899270818
82	0x3f5c9f4a42afc815	0.0017469620895522776
83	0xbf5240947140a7de	-0.0011140298493139615
84	0x3f9554ed020f1f96	0.020831778765369423
85	0x3fc0e04ca0b62dd8	0.13184507224319364
86	0xbfbe25f2f014e9cf	-0.11776655541772317
87	0x3fb3ca6c51af8927	0.07730748171119171
88	0x3fa567c371a4ea2f	0.041807277319510276
89	0xbfa2bddc5d4489f3	-0.03660477293512434
90	0x3faf279440366003	0.060848839605739634
91	0xbfb72772b988fd6e	-0.09044568090120261
92	0x3fa0de83096899ec	0.03294763078547533
93	0xbfb14e6db819e48e	-0.0676029753175433
94	0x3fabc89b6ee40a37	0.054264886175606035
95	0xbfb6db14f4facba9	-0.08928042393635728
96	0xbfafbcceb8d29cc8	-0.061987361966481525
97	0x3f9f8da1732f9a74	0.030813715606110084
98	0xbfaabc7af25e14c8	-0.05221924027049735
99	0xbfb8a974243a5067	-0.09633565792529596
100	0xbfb5ebb1a70d9c56	-0.08562765434690908
101	0xbfaa339aea0920bb	-0.05117496592407763
102	0xbf84b94e3881764f	-0.01011906728688952
103	0xbf904106229498af	-0.015873046742080173
104	0xbfbbb4ffe611a9cc	-0.10823058478278041
105	0xbfb2c03d1d956447	-0.07324583027129093
106	0xbf9515db06455f00	-0.020591184861898704
107	0x3fb5947f41a44a40	0.08429713585454923
108	0xbfb7e7bb27b41d6a	-0.09337968558621915
109	0x3fa40566c50f5f89	0.03910370975034911
110	0xbfc194685a3bc48b	-0.13734154134684604
111	0xbfad22697c09a756	-0.05690316809780309
112	0xbfa4372349de5905	-0.039483168379932855
113	0x3fc0622c18496c38	0.1279959791744163
114	0xbfc00c17c789dbc9	-0.12536904566851906
115	0x3fabe3c75967d465	0.05447218862892881
116	0xbfad1df129e3fc3a	-0.05686906467780557
117	0xbf925889732f15e7	-0.017915866523045578
118	0xbfb86984c2e38f21	-0.09536008604078151
119	0x3fb380cd645b6a70	0.07618411731838548
120	0xbfb9f500a3677c11	-0.10139469136582614
121	0x3faac5224a2e1129	0.05228526263730011
122	0x3fa1a75188258beb	0.03447966372439012
123	0x3fba4cd4be45e3a6	0.10273484845482858
124	0xbfa37082ce583091	-0.037967765511070735
125	0xbfb1da584110dc03	-0.06973792637369063
126	0xbf93c9289f68950d	-0.01932204697563571
127	0xbfa7fe27b8091b93	-0.046860924926071544
128	0xbf91dcfd2338ffba	-0.017444567942447732
129	0x3fa481a4f736f7c0	0.04005160825498377
130	0x3fab7247cb4520c6	0.05360626560519814
131	0x3f78fdffbbee6409	0.006101607285835983
132	0xbf8de782c6f911cc	-0.014601728150531644
133	0x3fa392f6c01f634b	0.03823062033888521
134	0xbfb9e048aaf5e57f	-0.10107855008927479
135	0x3f795bc6a8daff3a	0.00619104005244236
136	0x3fa795e146021a43	0.046065368457722154
137	0x3fa6e3fe64be87a5	0.04470820407665536
138	0x3fb85d796f498c44	0.0951763054559232
139	0x3fb089c103ca4103	0.06460195868044498
140	0x3fa4192945245a8e	0.039254464807688114
141	0x3fb9d8c8d0a61579	0.10096411794628136
142	0xbfb197ed720dc365	-0.06872448000446026
143	0x3f95f67a3e13994e	0.021448049582340638
144	0xbfa7f0c478f67c5e	-0.046758785024615376
145	0x3f977d1a306a10ac	0.022938164906478306
146	0xbf7a4a982ad4f6f4	-0.006418795016825508
147	0x3fb5b6d906adb290	0.08482128537225209
148	0x3fbd5a6b6e66a432	0.11466094441733857
149	0xbfb7202a8ecc8517	-0.09033456789304171
150	0x3fa990fb3fd666b1	0.049934245627082936
151	0xbfb6cf994d158dd0	-0.0891052067941509
152	0xbfa9e6e1ca12de7f	-0.050589614789200425
153	0xbfb87c560ad13fd5	-0.09564721836181829
154	0xbfb3ed3ccb3dd67f	-0.0778387066073609
155	0xbfc27fcf7ef955a2	-0.14452546787167103
156	0xbfb331b8c633fbea	-0.07497744406644782
157	0x3f95de3882c6fe16	0.021355517370237186
158	0x3fbfb053feafaff0	0.12378430335928647
159	0x3fa616526a84fc2d	0.04313905287062201
160	0x3f91bb98f089f265	0.017317189866377442
161	0x3fb953970da915ca	0.09893173297412897
162	0x3fb2d2f04063b0e7	0.07353116580970075
163	0x3fb33864a7826048	0.0750792416532714
164	0x3fafb8b3abaa8bb7	0.06195603819403266
165	0x3fad1930e68818cb	0.05683281721216956
166	0xbfb8f60d1348441b	-0.09750444145926489
167	0x3fb70cfaa3a4c0ac	0.0900417947311804
168	0xbf3484b223530e18	-0.00031308507034230734
169	0xbfa0f58aa48d3ed9	-0.03312333353698955
170	0xbf84eb5fcea934a6	-0.010214565748493176
171	0x3fb67b0614b72e26	0.08781469350577051
172	0x3fadb685488272cf	0.05803314695478933
173	0xbfb1768d863dcbd1	-0.06821522261979786
174	0xbfa5e003aef3f6df	-0.0427247191491753
175	0xbf862ca68b8edb8e	-0.010827351697896306
176	0xbf8ee9546c6faaab	-0.015093478736124174
177	0x3fb53ecf23a33314	0.08298964138084514
178	0xbfa020e0b5be3eba	-0.031500837502901516
179	0xbfa9c0d1302e77b9	-0.050299203044445524
180	0x3fb6de30651d1226	0.08932783573715905
181	0xbfa2d26027b8b96e	-0.03676128849871217
182	0xbfc2e26a829d565d	-0.14753466966310472
183	0x3fb525e6e5674979	0.08260958767576722
184	0x3fc21b45b358e4ba	0.1414572835654207
185	0xbfaa0bfd2de4645e	-0.050872718669958
186	0xbfb4662858e0331c	-0.07968380136317105
187	0xbfbf45e5a94be7e5	-0.1221602953263808
188	0xbf92c29860cc3a5c	-0.018320446880404226
189	0xbfb11876e57dc38f	-0.0667795477181825
190	0x3fa029bfc89739fa	0.0315685207711915
191	0x3f919ef545281d93	0.01720793947791106
192	0xbfb2935bced84a96	-0.07256101417469049
193	0xbf874c65b454a463	-0.011376185003046218
194	0x3fba9c6d522266f0	0.10394938712343182
195	0x3f9c57aa6fd02135	0.02767816836788591
196	0x3fb52cb17cf0b1db	0.08271321583078566
197	0x3fa7e0116162a192	0.046631377351619055
198	0xbfb0fafdb0c51304	-0.06632981839818447
199	0xbfb459faff9c970d	-0.07949799290198829
200	0xbfb01965f4618225	-0.06288754669504522
201	0x3fb4075743010c36	0.07823701272813896
202	0xbfb74d80b8072d20	-0.09102634899970896
203	0xbfab2eae7b6f9b7a	-0.05309052712237068
204	0x3fb77bf4ad550221	0.09173516494502866
205	0x3fbdc479251b6c6b	0.11627919345794317
206	0xbfb4699a6ffe08bb	-0.07973637804210203
207	0xbf50e49ecbc1595f	-0.0010310698262592994
208	0x3f924a0720ef7254	0.01786051882287361
209	0xbf959959bc36b1ef	-0.021092798340463344
210	0x3fb889919ac03575	0.09584913280578695
211	0xbf576398fbe5d87f	-0.0014275545105113805
212	0x3fb16320333d8a25	0.0679187893961531
213	0x3fbd9dcf27c5e101	0.11568922730464594
214	0x3f4ec6352ebe9d36	0.0009391555481571892
215	0x3f99c669919391ab	0.025170945654183246
216	0xbfa609e19e2d0179	-0.04304413848740558
217	0xbf99e97346884d67	-0.02530460470195575
218	0xbf975536517c2a55	-0.02278599617333506
219	0x3fbf7dd566326cbe	0.12301381821673638
220	0x3f86ed4455230817	0.011194738243265374
221	0x3fb379ac485baab2	0.07607533232264066
222	0x3fbb8173288cb43b	0.10744399776440698
223	0x3f60d6b29279102b	0.0020555007684226654
224	0xbfb4ee357d70cdb3	-0.08175978004947275
225	0xbf7a1d2dc3b76e98	-0.006375483291289584
226	0xbf8d72e0adff698b	-0.014379267988194019
227	0xbfb8b3711fded5f8	-0.09648806598746507
228	0x3f89688e3af0e14c	0.012406455205664323
229	0xbfb5029cc123ae6f	-0.08207111087147621
230	0x3fa483871488a196	0.0400659763875552
231	0x3fb231d642b89849	0.07107295159275497
232	0xbfb3fdb311023e5d	-0.07808989682438879
233	0xbfb951638638eecf	-0.09889814402498164
234	0x3fa27fba40afa381	0.036130733867884686
235	0x3fb07eff641bf2f2	0.06443782991477656
236	0x3f96cb9295b513b4	0.022260942828569788
237	0xbf55c59dcf79e88a	-0.0013288537137712574
238	0xbfa9e41d11e5a285	-0.05056849330396055
239	0xbf71827d61430b22	-0.0042748353627668784
240	0x3fb586b58aeb94dd	0.0840867485199683
241	0x3f53bcc13148e897	0.001204670586175049
242	0xbf91bae255292ce2	-0.017314468810849422
243	0xbfaee615ab44080e	-0.0603491565289148
244	0x3fb9352d14674e17	0.09846765277989565
245	0x3fb04014e16cbb1f	0.06347780707868055
246	0x3fb2742d1301c3eb	0.07208520616565266
247	0xbfb2df4b19a5f002	-0.07371968628098105
248	0x3fa363fe9679fd03	0.03787227236625237
249	0xbf9f05608df7fa1d	-0.030293949761466366
250	0x3f9992c77ee3ace7	0.024973981017791493
251	0xbfb33f8bc1f17068	-0.07518838391246307
252	0x3fb2a156df89d519	0.07277434308510457
253	0xbfb126493af7fca1	-0.06699044885316364
254	0x3fa1e812b116597d	0.03497370158872835
255	0x3fbfe8d72f70ba3a	0.12464661510669198
