ptlpinns/models/train/overdamped_k1/model_overdamped_k1.pth (torch, 402804 bytes, 8 tensors)

linear1.weight f8 [128, 1]
0	0xbfd6e105c2a56fe9	-0.3574842835275818
1	0x3fcf3177ce7058d4	0.2436971433641647
2	0x3fe709d066f532ee	0.7199480067152686
3	0xbfe4d1956f2e3f9c	-0.6505839511391858
4	0xbfd93b43dcbfc055	-0.3942422538521034
5	0xbff071bdd953f0af	-1.0277689446802858
6	0x3fded797c48c4b3a	0.481908742848805
7	0xbfd456abc79fc2ea	-0.31778997892892724
8	0xbfdc386aa3ccbf6f	-0.44094339366983254
9	0xbfecb697d633839c	-0.897289198266765
10	0x3fefab26246b244c	0.9896422110842962
11	0xbfe594bb65635f63	-0.6744057636487749
12	0xbfd7242cd71161fc	-0.3615829563400721
13	0x3fba664957e41148	0.10312326808713579
14	0xbfed22722930760b	-0.9104548267820872
15	0xbfe11917013d794c	-0.5343127273770647
16	0x3fe876e935ce2eac	0.764515500153228
17	0xbfec38436c7f1547	-0.8818680876799271
18	0x3fe86b1a1ca97a3b	0.7630739745907883
19	0xbfac34dff95de7f0	-0.0550909034636361
20	0xbfd27cfd421e9799	-0.2888787408540963
21	0x3fdb70b544e2c2fa	0.42875415541770645
22	0x3f9b6920b59b9df4	0.026768218121018664
23	0x3fe4fdec3846a19b	0.6559964274538744
24	0x3fcab85d132b0e1e	0.20875132976480953
25	0x3fcd95059e98f168	0.23111028903975783
26	0xbfdd30e6a1fb0ce6	-0.45610967462944385
27	0xbfb55624600f2532	-0.08334567399210327
28	0xbfb8edaa0946cb0b	-0.09737646795728609
29	0x3fcac616609a61a3	0.20917014805742182
30	0xbfe847ec152530f5	-0.758779565142986
31	0x3fb375ae2e17cadf	0.07601441026035215
32	0xbfe33f5710c1bd34	-0.6014819457322234
33	0xbfe4c283ee67f3cb	-0.6487445503586228
34	0xbfc8c923b68fde4e	-0.19363829054030862
35	0x3fd9571f3d2d2935	0.39594250654467383
36	0x3fea00dbaffe2081	0.8126047551495647
37	0x3fe0e73380238f3a	0.5282227995598767
38	0x3fcc5e16695d4662	0.2216213240122214
39	0x3fa1f212f98cdec8	0.03505000396984098
40	0x3fe326a7d0d4c6f6	0.5984686926587688
41	0x3fedef52c996f09c	0.9354642808243798
42	0xbfdcb265f59b0a34	-0.44838856682705175
43	0xbfd12bd08bf1f1fd	-0.26829923311723275
44	0x3fdeaaff62d4673c	0.47918686534250177
45	0x3fea539a890b97e3	0.8227055241266011
46	0xbfa4014111d88083	-0.03907206862300063
47	0xbfc1d3b22677cf27	-0.1392729461509756
48	0xbfc72e464eedfe71	-0.18109968999850737
49	0xbfdfccb6ab14e8de	-0.49686972338862556
50	0x3fe30436a77039d0	0.5942643423348333
51	0x3fe66065353efb2a	0.6992670097314193
52	0x3fef5fdc6016aeb0	0.980451762841275
53	0xbfdad0df52da5f17	-0.41899855700602145
54	0x3fef2cc5cddaa47b	0.9742154141032552
55	0x3fe9c2b296e9f4c4	0.8050167987381873
56	0xbfe278c847e7927b	-0.5772439388643557
57	0x3ff046ed57384d0d	1.0173161894825313
58	0x3fe5f38aa1dc16d5	0.6859791909525607
59	0x3feafb1583b413dd	0.8431499073345737
60	0xbfdb5ad5162050ef	-0.42741896782651073
61	0xbfd219d42e99c6bf	-0.2828264670452931
62	0x3feb047609989aab	0.8442945659088158
63	0xbfe74f665cc2ecbc	-0.7284423648592546
64	0x3fea1dcf890440af	0.8161389995675757
65	0x3fe40c55fc4ffe6b	0.6265058448770565
66	0x3fd187b41ce0d7aa	0.2739076883329924
67	0xbfe72518287a1f1a	-0.7232781210486536
68	0xbfe441f1e5edbc13	-0.6330499163431135
69	0xbfe91c8024372bbb	-0.7847290713628959
70	0xbfd00d847e772b20	-0.25082504606386813
71	0xbfdea4379153cd09	-0.47877301399348987
72	0x3fe823fa9eee8697	0.7543919662604875
73	0x3fb3c2c247402aec	0.07719053496854728
74	0xbfdf6bd5f0d26873	-0.4909567691589764
75	0xbfe957287c313fc0	-0.7918894220001604
76	0x3fe3d632c2e0c902	0.6198972517215966
77	0xbfe0e026df5c7dd6	-0.5273622858548446
78	0x3fe2666507b0e0e4	0.5749993467534549
79	0x3fd27029479cf957	0.288095779356714
80	0x3fd0b3cedc2e504a	0.26097461225549934
81	0xbfe91d67601f8381	-0.7848393323330215
82	0x3fdd3e978144f80f	0.45694530128446414
83	0x3fe48228b9772c97	0.640888559567787
84	0xbfd25ffbc5e28321	-0.28710836720169836
85	0x3fe0eabe32da8fea	0.5286551469075651
86	0x3fea17baa95ab305	0.8153966243458802
87	0xbfe3a6d492d10ca1	-0.6141150348197649
88	0x3fedd129b0ef33bc	0.9317825752019568
89	0xbfad27f9098eb3bb	-0.05694559327762457
90	0x3fe4cf05862f4f09	0.6502711888119573
91	0xbfda4085ad3bf122	-0.41018812100789337
92	0xbfef1310dbd39751	-0.9710773747908467
93	0x3fe2c112cd151f9e	0.586068535377297
94	0xbfbc1427b98c72e5	-0.10968254356380276
95	0x3fced05ba5fc7fb7	0.24073358158875433
96	0x3f9cbc80ee928119	0.02806283432130483
97	0xbfcb5f5fea67d97c	-0.21384810395802478
98	0xbfdec9355d3c667f	-0.4810307894236771
99	0x3fe6cc84679402f8	0.7124654791842593
100	0xbfdb9bf29ae4e220	-0.43139329077124167
101	0xbfe0974a2d9303eb	-0.5184679880259159
102	0xbfe3e212a1dd808a	-0.6213467751913566
103	0xbfe51399a285ceed	-0.6586425947448028
104	0x3fe5f3faa49fdd58	0.6860326018640235
105	0xbfe6fb15b4535bc9	-0.7181499979004623
106	0x3fe7d45d0691b9e9	0.7446732643418815
107	0xbfeb726648212923	-0.8577147873668632
108	0x3fdfe0870559c444	0.4980790664913608
109	0x3fdc2f76bd6bc41a	0.4403969621481011
110	0x3feff5a8c171ea0c	0.9987376955244271
111	0xbfdc08f9aa3ae715	-0.4380478060153206
112	0xbfbf4120732b067a	-0.12208750545235061
113	0xbfd1016e552c3994	-0.2657123405232593
114	0xbfe2165b69fcddce	-0.5652291364739825
115	0xbfbdab149050bafb	-0.11589172862361956
116	0xbfae5d4f6c25bf2c	-0.05930565066489488
117	0x3fecaab1a8162d14	0.8958366663877393
118	0x3fef3414217caaaa	0.9751072553675233
119	0x3fef701d146bd0b6	0.9824357413149503
120	0xbfd5bf2ad97b30d4	-0.33979293096923624
121	0xbfe4ba90ba299026	-0.6477740894301902
122	0xbf97fbbb4359073c	-0.023421216950971088
123	0xbff0c89277a53e5e	-1.048967807164352
124	0xbfee3551203f88f8	-0.9440084104392374
125	0xbfc23a24cd02ce95	-0.14239940653134356
126	0xbfd2d0759b6a3b66	-0.2939733522152238
127	0x3fd09e67183aa70e	0.259668134366266

linear1.bias f8 [128]
0	0x3fc6708eb8f4423b	0.17530998259509709
1	0xbf8c691e5ef65e1f	-0.013872372887632043
2	0xbfdb51722204b1e8	-0.42684605905631523
3	0xbff0ad377e2a25a2	-1.0422892502122996
4	0xbfd9328266f6c577	-0.39370784812043474
5	0xbfddb05f9c0637e9	-0.4638899825739587
6	0x3fc6ce987a00a7d4	0.17817979771763126
7	0xbfe1b9de1f73114b	-0.5539389242408473
8	0x3fd095de9c3010ca	0.25914731266699376
9	0x3fd975903317c3b2	0.39780049314054644
10	0x3fe5e9ab200af7f6	0.6847739816510046
11	0xbfe2cab04ec86ea5	-0.5872422732095016
12	0xbfd0fd6efc6dbcee	-0.2654683556674645
13	0x3fe7a06b5d20090f	0.7383324450350147
14	0x3fe6449e797f37e6	0.6958763478266945
15	0xbfeace5526afdf8c	-0.8376870875936091
16	0x3fdd6ad619ba1e36	0.4596457720985855
17	0x3fec6ee7feac2003	0.8885383581227874
18	0xbfe36f7710560d1c	-0.6073565787377535
19	0xbfbcc8ef5c53f11c	-0.11244102481936519
20	0x3fe8f4bdfe2b82e3	0.7798757519013545
21	0xbfc0057df997ee9b	-0.12516760527784218
22	0xbfd8d1b5a2811b0e	-0.3877996527630082
23	0xbfce7443347037b2	-0.2379230505034094
24	0xbfee3abbf2fad53e	-0.9446696992587602
25	0x3fd1dfb89caa628f	0.2792798547684833
26	0xbfea5cf31c274163	-0.8238463926191283
27	0xbfe6143f2fdd3c39	-0.6899715361449871
28	0x3fd96c485b420a5a	0.3972340480033033
29	0x3fe9e9c87ccf87db	0.8097879827221236
30	0xbfe1edc91bbb30c9	-0.5602765599847085
31	0x3fdaa888c1c44d89	0.4165365116361604
32	0x3fe19502aa457b19	0.5494397473920315
33	0x3fa9e85ec6c9f8a6	0.05060096909163407
34	0xbfe74f50f096862e	-0.7284321497901993
35	0x3fee26373d7a9e58	0.9421650124322225
36	0x3feed37d31dc5534	0.96331653345502
37	0xbfdaa63cb68ae173	-0.4163963110581996
38	0x3fe1aee969a25926	0.5526015341918409
39	0xbfd2e46d1d53696e	-0.2951920305619272
40	0x3fd185058800d216	0.27374399453700116
41	0xbfafcd64869e78d7	-0.06211389678286288
42	0x3fe817c0f9969beb	0.7528996348163423
43	0x3fd1d1d46b826267	0.27843199252087064
44	0xbfe3531f8d5fb503	-0.603896881218731
45	0xbfda486dddad8396	-0.41067072532865134
46	0x3fe9269be9c3407b	0.7859630170514856
47	0xbfe3363fd6a8090f	-0.6003722374446471
48	0x3fdf1a000dc7c6b4	0.485961926896475
49	0xbfe1a53845918a5c	-0.5514184340248209
50	0x3fe07cad05494a6c	0.515219221424855
51	0x3fef6e73a8c1d24a	0.982232884982815
52	0xbfe3bf2f6bcf6af0	-0.6170880418461291
53	0xbf86c2f42640e8aa	-0.011114032189756113
54	0xbfea69e6b1f1216e	-0.825427386801534
55	0x3fc8c233992f9b7c	0.19342656116279133
56	0x3fe208ec2f9a03be	0.5635891847342618
57	0xbfe4f1fb55bc2bf7	-0.6545387911331763
58	0xbfea697fdb638126	-0.8253783497748699
59	0xbfef098465edcb04	-0.9699117651747149
60	0xbfe99b9e5511a87b	-0.8002463971618136
61	0xbfd5ccb2c32de1ff	-0.34061879215690277
62	0x3fa0540ff8bfae3f	0.031891345133626896
63	0xbfe2ddf92bebc188	-0.5895963533239845
64	0xbfa9e61b39f7200f	-0.050583697152944855
65	0x3fedd9a0d0efb6e2	0.9328159409321553
66	0xbfdce761f219a433	-0.4516224731692688
67	0xbff077c1b31aeb2e	-1.029237460736748
68	0xbfea2162ca10ab53	-0.8165754267296087
69	0x3fbbdb112162823f	0.10881144585665313
70	0xbfe4d29537a8725e	-0.6507059180326669
71	0x3fe945951603637a	0.7897439413019207
72	0x3fe9ca35731b4f98	0.80593368989729
73	0x3fe61abc7c9dfd0e	0.6907637056282583
74	0x3fc8cef31f530960	0.19381560353765348
75	0x3fd57ad6aa09f85d	0.3356224689995367
76	0xbf828dd8f578d94e	-0.009059615126812883
77	0xbfe3b818dcc49d64	-0.6162227928042907
78	0x3fc6bd902b6a8f9a	0.1776600086205889
79	0x3fecac4187e77bf8	0.896027341306648
80	0xbfe1ec33e669a614	-0.5600833416221485
81	0xbfd50c20f5a97b5a	-0.3288652800601334
82	0xbfec9668298c89a5	-0.8933602153304504
83	0xbfbc27f54e4ba131	-0.10998471414098245
84	0xbfeb95833460f9b7	-0.8620010397933616
85	0xbfd53eb9a1d902b3	-0.33195343785704806
86	0xbfe9e54e0d9db30c	-0.809241320222641
87	0x3fbea22e0067c5cc	0.11966216573616534
88	0xbfd6b1b019651d0b	-0.3545952079770848
89	0xbfde6a1a7e1ab848	-0.4752260428894073
90	0xbfd1e37ad7ed0572	-0.2795092686320323
91	0x3fe8a2f193e4f51e	0.7698905838548489
92	0x3fd2f334a991eb6c	0.29609409865923086
93	0x3fe202b13d84dbfb	0.5628286553900347
94	0xbfed48b46d797e99	-0.9151250971007868
95	0xbfd0073bcc28677d	-0.250441502926712
96	0xbfe7c797740c702b	-0.7431142107557255
97	0x3fe4fb08b634eeb2	0.6556438025213167
98	0x3fe2473c48421ef6	0.5711957370085361
99	0x3fb22cfb06a376d5	0.0709988490302423
100	0x3fdd8b386272c32b	0.4616223298462951
101	0xbfe99129385ddc4f	-0.7989698506270403
102	0xbfeb2cedef8b9c11	-0.8492345503444786
103	0xbfdd8933f149994a	-0.4614992004702755
104	0x3fc35a862fee2d2e	0.1512000783953708
105	0xbfe01e4537076a67	-0.5036951136383551
106	0xbfd290ec64de59d7	-0.2900954232258334
107	0xbfddf0ab2a46bd28	-0.4678142464499211
108	0xbfebe619eb80cb07	-0.8718385314626581
109	0x3fed6d52f9969f39	0.9195952296040338
110	0xbfc060c4c735c73a	-0.12795314528517016
111	0xbfc2bae557621fa3	-0.14632860914957488
112	0xbfcf7b87b47661f6	-0.24595733939783287
113	0x3fd77aea3cc6f966	0.3668771356132282
114	0x3fecbc7e6480bf61	0.8980094874332104
115	0x3fdf4f50b9a94736	0.4892160237405848
116	0x3fe2a92d47078a4f	0.5831514727872874
117	0x3fedd8d0e04ea4a5	0.9327167874336239
118	0x3fecf63ad4427a06	0.9050573487946287
119	0x3fb248c74afc28df	0.0714230115956158
120	0xbf5b75d6cb952389	-0.0016760442361649383
121	0xbfe5becbbe61a848	-0.6795405119312443
122	0xbfd0288a8324b3c6	-0.25247443015069526
123	0xbf9ff21cf8139076	-0.03119702591074299
124	0x3fa299c622fdac98	0.036329452296592624
125	0xbfc92ee2e3592c47	-0.19674335576050536
126	0x3fdeb765a85e30ff	0.4799436706750981
127	0x3fdf2c6969fd4e0b	0.4870856795361937

linear2.weight f8 [128, 128]
0	0x3f920408394d3aec	0.01759350633374883
1	0x3fa0f472bdb04c3e	0.03311499181304399
2	0x3f922833fed321b7	0.01773148768259755
3	0x3fb4de35df840f84	0.08151566225939005
4	0xbf7c8ed188490db7	-0.006972139821815152
5	0xbf9253b80b0d1d6f	-0.017897487329972813
6	0x3fb0e80e5a33292d	0.0660408945288153
7	0xbfa7b442208d29e0	-0.04629713675838665
8	0x3fafdd8d2d9494cb	0.062237178625119315
9	0x3fb788ff56b675fe	0.09193416468630031
10	0xbfa65637ccc688bf	-0.04362654089642736
11	0xbfa1c641b6575774	-0.03471570349544964
12	0x3f9f58f8f3e7b6a3	0.03061284054449821
13	0x3f9c9620e2eb69ad	0.027916444635459992
14	0xbf4a5b3f195d5c41	-0.0008043344593983219
15	0xbfb5e32981f26b95	-0.08549746916325625
16	0x3fb1b0e10e22cf4d	0.06910521121136277
17	0xbfb742f652c70e8d	-0.09086551209389367
18	0x3fb4d8f03b3e8e8b	0.08143521734614916
19	0x3f8ca335280c3739	0.013983168873462059
20	0x3fad5188d328af06	0.05726268365500968
21	0xbfb1a7c6146d83f3	-0.0689662742493196
22	0x3fa27931f49d952a	0.036080895529077076
23	0x3fb2e8f53d75e5e3	0.07386715651036684
24	0xbfb23d5ed3e6634e	-0.07124893830622378
25	0xbf9731d2f8555ea0	-0.022651001364777046
26	0x3faeb8403949fa19	0.059999472611696976
27	0x3f70e1a63dfb61ac	0.0041214460213371655
28	0x3fab86609c66efe0	0.05375959309773726
29	0x3fa4e6b8c0db563a	0.040822766820991466
30	0xbf84a77d22de9d35	-0.01008508455909283
31	0x3f9299648d22e7be	0.018163272012976732
32	0x3faeefd4458db315	0.06042350148240964
33	0x3fb2321e6fa6753d	0.07107725358806234
34	0xbfa406cdfdaa5d9c	-0.03911441537382673
35	0xbf8125fdb1c07c10	-0.008373243319566043
36	0xbfbccecced5c918f	-0.11253052515946237
37	0x3fb203b1fdaf284c	0.07036888545477032
38	0xbfadf94d301fc256	-0.05854264461948293
39	0xbfaded5793109657	-0.0584514014265493
40	0x3f7f336709aac84b	0.0076173806107125526
41	0xbfa66c1a27e4c82a	-0.04379350411399259
42	0x3fa8b62b008c2173	0.04826483136827422
43	0x3fb6dae4dc90ed9b	0.08927755722918677
44	0xbfb7fe8235d31cf6	-0.09372724355772619
45	0x3fb468317a909827	0.07971486322694031
46	0x3f91f2031e59a101	0.017524765708373916
47	0xbf9329469e89be99	-0.018712142397304097
48	0x3f88a2b1bd6bc2b1	0.012029064744156189
49	0xbf7a1945f0e78d51	-0.006371758658562613
50	0xbfb24d800b1b878a	-0.07149505873851872
51	0x3f741c07a635966a	0.004909543876555492
52	0x3fb20b1b602c07af	0.07048197839688329
53	0x3fb04c73ab21dba1	0.06366656234773284
54	0x3fb121f734308b0d	0.06692452453766524
55	0xbfb6a9dd757aab6e	-0.08852943533081056
56	0x3fb4f360664f84b1	0.08183863160913309
57	0x3fc06c5e25d01e78	0.1283071217187517
58	0xbfb61322e39f193a	-0.08622949654736525
59	0x3fa8d56c634b2c57	0.0485032912452758
60	0x3faf09fbfa6e2418	0.06062304908761734
61	0xbf9e808032cdc44d	-0.029787066555801812
62	0xbfb03566e7cd7191	-0.06331484946480816
63	0xbf9058d57ba6057d	-0.015963874504000487
64	0x3fad3bb1cb904062	0.05709605798631469
65	0xbfa941c2e537c54d	-0.04932984397954474
66	0x3f9dcd2f3a3fb393	0.029103029184557604
67	0xbfb2205b9ba9d79b	-0.07080624151589492
68	0x3fb4ef866839636e	0.08177986187491879
69	0x3f90c898852ddad2	0.016390212181671533
70	0xbf989fe8b4275fe4	-0.024047504420963053
71	0x3fa3b2e302da2c48	0.03847417268578873
72	0x3fafe1bedafbd5ca	0.06226917670384642
73	0x3fa675aa93121a5a	0.04386647267624673
74	0xbfacc2289908e82a	-0.05616881244755263
75	0xbfb6e63383cc512b	-0.08945009200789815
76	0x3fa21bde9c3e5051	0.03536887795704103
77	0xbfb43a808160210f	-0.07901766928273822
78	0x3f859ebd7d2713bc	0.010556679136138551
79	0x3fad4fa03b2c63e5	0.0572481224282411
80	0xbfa7907381f3852e	-0.04602395020789128
81	0x3fba70facd6ddd52	0.103286433366397
82	0x3fb2a977950cf40c	0.07289836300783764
83	0xbfb4d770152ae73f	-0.08141232029711619
84	0x3f87881f9070f1eb	0.01149010333585295
85	0xbfb4dd57c0cb44cd	-0.0815024228752634
86	0x3fa9080aaa2a8181	0.04888947798940802
87	0x3fa432ad04cc8028	0.03944912608699297
88	0x3f78f725ee2e70a9	0.006095073857889024
89	0xbf850207ffc0186d	-0.01025778054464529
90	0xbfa6c949fa5dd3df	-0.04450446301681387
91	0xbf99d635f5a0e14a	-0.025231211773843833
92	0xbfaa9b54bd316342	-0.05196633157237908
93	0x3fb4416c889ec089	0.07912329040004996
94	0x3fb156b4156683ce	0.06772923967811481
95	0x3f902b1b49d5e061	0.015789438611563237
96	0x3fa134216c3bb24b	0.03360084959226536
97	0xbf7f5c6a7bce426e	-0.00765649409449108
98	0x3f6afc5bfabf032c	0.0032941624139940697
99	0xbfacc90bac3533fb	-0.056221356173956814
100	0x3fb2a4b460a7c00f	0.0728256927466193
101	0xbfb4fc7cdd4a7490	-0.08197765734299112
102	0x3fa5e0d7007fd533	0.042731016932444986
103	0xbfad509da151ed7d	-0.05725567430723808
104	0xbfa05f60d0606c7b	-0.031977677761653354
105	0x3fb070d5e4e2db85	0.0642217334560496
106	0xbf9cbb139dadbcfb	-0.028057390688840816
107	0x3fbd31a659f57345	0.11403884598025822
108	0xbf9646278e6e8236	-0.021751993244494915
109	0x3fa86f03c7f1e037	0.047721975476577354
110	0x3fb575a9336d7d2b	0.08382661347922198
111	0xbfb537877eb72908	-0.08287855952872658
112	0x3fa493c97f743a13	0.0401900261004934
113	0x3f81e6fd5cb9f607	0.008741359131131622
114	0x3fa09f41e5c86707	0.03246503763166513
115	0x3fa0ade3134b4f35	0.03257665262722612
116	0x3fb29627134aff4f	0.07260364743251312
117	0xbf6a8a6c11083753	-0.0032398329424329435
118	0x3f9e212da8c92aef	0.029423440386646623
119	0xbf66eb4e81b1dfa6	-0.002797749837153379
120	0xbfb399a49a50fb32	-0.07656315581787679
121	0x3fb5a6a44ef2b624	0.08457400252765318
122	0x3fa068eb9d4f85c5	0.0320504788903793
123	0x3fb3dc3b3baf93d4	0.07757921416448649
124	0xbfb16c58e9cc5048	-0.06805949886285234
125	0xbfb440e65e158535	-0.07911529347395148
126	0xbf93cb00e1e0e675	-0.01932908419278197
127	0xbfb32096af7f62bf	-0.07471601280793559
128	0xbfbcf3a3fd067e03	-0.11309266021134338
129	0xbf8b630813ef3e94	-0.013372481449464936
130	0xbfa5d0bf32335861	-0.04260823715019125
131	0xbfc09556dcf1cf56	-0.12955747402485923
132	0xbf711905612adc40	-0.004174252523333755
133	0xbfc10993cfd814b0	-0.13310477875362414
134	0xbf962bada27f369a	-0.02165099434187443
135	0x3f79d6b3874f0ac0	0.006308270724675935
136	0xbf92060f337cf748	-0.01760123969801633
137	0xbf804c1357278934	-0.007957602593653058
138	0x3fc0b17fe4522c4c	0.13041685722814333
139	0xbfc0211e5b190dd9	-0.1260106987775618
140	0x3f97a3c9eeeed194	0.023085742195421213
141	0xbfb4809bfc184340	-0.08008742241532918
142	0x3fa4421b03ad2d2d	0.03956684512976447
143	0xbfb70664b9952ef8	-0.08994130640820319
144	0x3fbe3a160d851496	0.11807382421564436
145	0xbfa802e0e8187c26	-0.046896961528766476
146	0x3fb4682330e1c0e2	0.0797140116062596
147	0x3f9a2a183487986e	0.0255512029706541
148	0x3f97a3f33eceab93	0.023086357792333322
149	0xbfa6a2c2a02bcb43	-0.04421051221097241
150	0x3fbb1ab3de4f6c8a	0.10587619950767838
151	0x3fa536a643f04400	0.041432567399290576
152	0xbfa417298c5ed216	-0.03923921431070114
153	0xbfab711673016247	-0.05359716562151511
154	0x3f92035440a05017	0.01759082455107838
155	0xbf777156d5987e39	-0.005723323055945744
156	0xbfaf1a04448714c4	-0.060745366444771715
157	0x3f74c599ab9971d1	0.005071258806847515
158	0xbf8313ee7942c5c6	-0.009315360141360151
159	0xbfb344762a2a83eb	-0.07526339082188797
160	0xbfafbb172610a888	-0.061974261662116226
161	0xbfc15403a73b267b	-0.13537641206339743
162	0x3fb53dd485388e6c	0.08297470333541818
163	0x3fae5c601e49a904	0.05929851884578066
164	0x3fa8e6a23e9a8764	0.048634596006435854
165	0x3facf1f092b4f544	0.056533353718331486
166	0xbfa8c517cbd064f9	-0.04837869990314831
167	0x3f9fcf692edf46da	0.03106464718422939
168	0x3fc15ef126117735	0.1357098995094305
169	0xbf81257c6a60a0f5	-0.008372280117399525
170	0xbfb35e441e9c5c05	-0.07565713641484713
171	0xbfb5f842ede52cb8	-0.08581941898335088
172	0x3f7882392b4bd280	0.0059835656327221765
173	0x3fbfb1785503e810	0.1238017280155932
174	0xbfbaf1f5228aacdd	-0.10525447934439876
175	0x3f9784834aa8bc55	0.02296643393691185
176	0x3f804a2a974bc90a	0.007953961126507387
177	0x3f83172af4049ffa	0.009321532794800181
178	0x3f98efe188824488	0.02435257335361432
179	0xbfa75621176163cc	-0.045578989128166464
180	0xbfb043162821d80f	-0.06352365951337922
181	0xbfb31dd5c7f948df	-0.07467399723217082
182	0xbfa17ae98c14585c	-0.034140871381325794
183	0x3f69b56bdbaf57b0	0.0031382662395839853
184	0xbfb4fe13871f759a	-0.08200189637087477
185	0x3f80f646690c931a	0.008282232361645426
186	0xbf96e30ca5a6f982	-0.02235049973546089
187	0x3fa133f758d5d9cf	0.03359959563651992
188	0x3f9db8908425babb	0.02902437025607683
189	0x3fa7868abb02630d	0.04594834835842763
190	0x3fc1d7489e96284c	0.1393824362133408
191	0xbf92d050e9de8762	-0.0183727877371277
192	0x3f337f9e7e73222b	0.0002975236843210406
193	0x3fba5465e832ba7e	0.10285031241321893
194	0xbfb6a9b2df4ab7e1	-0.08852689696752193
195	0x3fa5887194166303	0.04205660755832776
196	0xbfaad062637f6116	-0.05237109627313623
197	0xbfbbda7b7ddb7d07	-0.10880252669038636
198	0x3f87e7ecb060a367	0.011672829754461224
199	0x3f99ea6388f7e4db	0.025308184847720887
200	0xbf7ffe83de3af3c7	-0.0078110838982725144
201	0xbfa56b1c1c0a2bd3	-0.04183280794412494
202	0x3fb2faaf62b34519	0.07413765105890881
203	0xbfbd9b05de88317e	-0.11564671214018138
204	0x3fb8033e40a9966c	0.09379948691056378
205	0xbfa2a27b8ab8540f	-0.03639589374885343
206	0xbf8bf7ce931d3ef1	-0.0136562479634956
207	0x3f996ab5519ccea8	0.02482112227080671
208	0x3f8dc8821b506a4a	0.014542595346985671
209	0xbfbf04f6f87a2a2d	-0.12116950575197256
210	0x3fabddb87ff86d90	0.05442596971644342
211	0x3f9a5ffe21b17a35	0.025756808096384105
212	0x3f836f5971dc5565	0.009489725863697182
213	0xbfa63668d2a7e552	-0.043383861269783566
214	0xbf960efeea68f14d	-0.02154157930111582
215	0xbfc1fa3d36ef979c	-0.14044919187943783
216	0x3f92364a77f90939	0.01778522832160798
217	0xbf7d2c5903507ff2	-0.007122371393990067
218	0x3fb0464b7bd3564f	0.06357261441311234
219	0xbfa3b1baa24ad67f	-0.03846533995730982
220	0xbfb55310abd6783d	-0.08329872317560301
221	0xbf9f40153307bcf4	-0.030517894019735217
222	0x3faee87508d8f1e3	0.06036725743294704
223	0x3fa61776e9ab2863	0.04314776995086402
224	0x3fb333668de13e46	0.07500306094993289
225	0x3fb41ab14aec37b2	0.0785322959820565
226	0xbf657bf140aa7a64	-0.002622576900946515
227	0x3f88e1408c1e9c64	0.012148384357557336
228	0xbfb23a446a47c8f7	-0.07120158762680605
229	0xbfa97955752461ad	-0.04975382857282127
230	0xbf90fbaf1853f259	-0.016585098132951923
231	0xbfc250dd15fe9ec8	-0.14309276174502927
232	0x3fc080837ce2dfbe	0.12892192457161217
233	0xbfa92614f5eb9365	-0.049118666667516554
234	0x3fa289d915604e8e	0.036207946643256425
235	0x3f8aa1ec1b641744	0.013004154764086125
236	0x3faf69c0ce6c6ec2	0.06135370750254544
237	0x3f9295edc4d417ff	0.018150057924707138
238	0x3fbb98996b559961	0.10779723043888147
239	0xbfbb266bcf240411	-0.10605500991006546
240	0xbf943ba2583a8a2f	-0.019758736262369844
241	0x3f88122f4d654144	0.01175343470518498
242	0x3fb6bb76a6b22827	0.08879796571469055
243	0x3fb4d5ef492d277b	0.08138938461811833
244	0xbfb34c316fdad26b	-0.07538136463956284
245	0x3fb8f59b8a26d050	0.09749767420618238
246	0xbf7406564f34f0ed	-0.004888856073474762
247	0x3fb8b1654a8a987b	0.09645684308870443
248	0x3f893e7541df073d	0.012326160500268574
249	0xbfaf4588e1e00d7e	-0.06107738263383576
250	0xbfa21383cb2877e5	-0.03530513625103974
251	0xbf9c42a1e57379b3	-0.027597932462293872
252	0xbfc07f7d863d62b8	-0.12889069609334114
253	0x3fb70bce279fe3e4	0.09002388446232562
254	0x3f9909e9438a88f9	0.024451870677361296
255	0xbfa38fb7b34be03d	-0.038205853115812684

linear2.bias f8 [128]
0	0x3fbb3804fee402e7	0.10632353995243769
1	0x3fa1a2f46d22c9cf	0.03444637138581507
2	0x3f740c95da87cba0	0.004894814840087941
3	0x3fb5749dbf62e373	0.08381067202107122
4	0x3fa94b84d2c6aa4e	0.04940428803395901
5	0x3f8bfd40e9b20836	0.013666636592692166
6	0xbf956d51d0bc49a2	-0.020924833646014947
7	0xbfa2ab83425d7634	-0.03646478829498925
8	0xbfad4da0031e6fb2	-0.05723285711357508
9	0xbfac92d1bb8860ed	-0.055807642118624524
10	0x3fb3cffbaf77e669	0.07739232095618721
11	0x3fb1ccae4f8507a3	0.06952943269155169
12	0x3fa3259911be1115	0.03739622441847438
13	0x3f9c879d9ac4ecb0	0.02786108262192205
14	0xbfb19410227610a6	-0.06866551247918781
15	0xbf9a66556c09557c	-0.025780997008344894
16	0x3fb2b15dd01c0dca	0.07301889735031533
17	0x3f567018b07ce5d8	0.0013694993121603407
18	0x3fb5bbf339dd1932	0.08489914095580245
19	0xbfad4e947eccc94f	-0.057240143278607485
20	0x3fb1a49a4393b689	0.06891788625554275
21	0xbf9db767a6baff70	-0.02901994662420243
22	0xbfb20a18cfc1fedb	-0.07046656677448075
23	0xbfb065440b955c10	-0.06404519350813609
24	0xbf98e7fb85d8404e	-0.02432244305060776
25	0x3fa31cbcc5531a4a	0.037328623855093016
26	0x3fa54d965915e993	0.04160756909819265
27	0xbfb8a1d66bbdf466	-0.09621944551868608
28	0xbfb787af34f85095	-0.09191412966930763
29	0x3fb16f11335d9f1b	0.06810100082440977
30	0xbfb529937474f898	-0.08266564934908371
31	0x3f84e47c3b9a2ad7	0.010201426094928063
32	0xbf91c1ad5adc8c54	-0.017340382261988488
33	0xbfa0ee6fe67a989d	-0.03306913078749683
34	0x3f9ce373b7be63f3	0.028211410608125886
35	0x3faba8d5875fdf28	0.05402247693558443
36	0xbfb6e87bfd1745c2	-0.08948492936112643
37	0xbfaf9b28483f022d	-0.06173063165579538
38	0xbf6c68fee28a666a	-0.0034680345746210166
39	0xbfb6af7a0b5fac22	-0.08861506250075071
40	0xbfa85f31df65f674	-0.047601278801249786
41	0x3f54a7b239d74736	0.0012606850135523213
42	0xbf6f6e4b942558b5	-0.0038367725511917147
43	0x3f855ff8bf09d42c	0.010436957674054247
44	0xbfaae226031a9599	-0.05250662601364837
45	0xbfaa5efa70f2f34e	-0.05150587681553152
46	0xbfa85362111afe3e	-0.04751116236502327
47	0xbfa43cbb930628fc	-0.039525853822015095
48	0x3f8c8c52af268751	0.01393951985375322
49	0xbfa7eded37bee6c6	-0.04673711114396677
50	0x3f8f1ee1ff65b0b4	0.015195623022656292
51	0xbf9d16d11bbf5d51	-0.028407351797651362
52	0xbfb6df5c206db3f7	-0.08934570113861172
53	0x3fa2f120b99d2c17	0.03699590936465585
54	0x3fae6b047d850b31	0.05941022903654981
55	0xbfb7ab2b433c26c8	-0.09245558158377343
56	0x3f8ceca688ee4ec2	0.014123250058936224
57	0xbfb37d35781c6dea	-0.07612928564451918
58	0xbfa9ad77383977e5	-0.05015156327566198
59	0xbfb3e094015979cd	-0.07764554055163515
60	0x3f98d4ac311130c1	0.02424878167612188
61	0x3fa70cc0765679ab	0.04501916355660581
62	0xbfb27feb7d72ca75	-0.07226440251069184
63	0x3fb0827ee75446b7	0.06449120662389417
64	0xbfb2894e371b8f1f	-0.0724076160946052
65	0xbfb4d9b04bd41eef	-0.08144666529926402
66	0x3fb4ab4a84db1d1a	0.08073869460632857
67	0xbf9eb6eedf407645	-0.02999470937367323
68	0xbf89285041821d61	-0.01228392314830157
69	0xbfbc2b629f89887d	-0.11003700633003351
70	0x3f7db88b9fea6b78	0.00725607434164998
71	0x3f9ebe0cbc276352	0.030021857246399115
72	0xbfa135b48222d349	-0.0336128624780146
73	0x3fa43cf20dae08ae	0.03952747742643346
74	0xbf79d0c40cba69a4	-0.006302610224930314
75	0x3fa0bd44049d64c8	0.03269398266156426
76	0xbfaa5032c7820a15	-0.05139311490440349
77	0xbfac4339ce5f1f59	-0.05520039219078283
78	0xbf7398a68a907ba9	-0.004784250785660507
79	0x3faeea7cf161a6e1	0.060382751908788064
80	0x3fa0743f4aa4b38f	0.032136896001566766
81	0x3fa64c328f7323ac	0.04355009080024472
82	0xbf97d4bf8fa37c8d	-0.023272507802968568
83	0xbfa2ac4306f91f26	-0.03647050342675433
84	0x3fa84e79deecba73	0.04747372480629943
85	0x3fb46f4c643a1000	0.07982327887481233
86	0x3fb2ac970b221d3a	0.07294601461227482
87	0x3f9b4174837c8d88	0.026616879010487732
88	0x3fb3383e9c255e4d	0.07507697403104281
89	0x3fb4f836878306d7	0.08191242988962287
90	0x3fa25347621d9ed6	0.03579161713315464
91	0x3fb91625a8de19e0	0.09799418804877957
92	0x3f62eea093091851	0.002311051961700485
93	0x3f5b0bc9a45b2732	0.0016507596168815028
94	0x3fa5259fdb93a883	0.04130267672901857
95	0xbfab4c310f64f8a0	-0.053315671090318206
96	0x3fb0e52054726077	0.06599618970574449
97	0xbf57e59e80664edf	-0.0014585540644462198
98	0xbfa89daa51ef5065	-0.04807789087468065
99	0xbfacde4c58faecca	-0.056383500921094745
100	0x3f93451b032020de	0.01881830412460849
101	0x3f816d23a12108b9	0.008508947710769698
102	0x3f77321fd4aa1ea2	0.005663036669495776
103	0x3f88afb67de11555	0.012053895679978647
104	0xbfb63da806d6e300	-0.08687830130555696
105	0xbfa10565aeecaaa1	-0.03324430237110688
106	0x3fb0522082009cc4	0.06375315832029843
107	0x3fabfba9df910323	0.054654415646387976
108	0xbfb69c0132c66934	-0.08831794252038067
109	0xbf62a94c4450d45c	-0.002277993162830101
110	0xbf704a9b01d05661	-0.00397739934580485
111	0x3f9e030e1d0893d6	0.02930852939802605
112	0x3fa5c95db157f1de	0.04255192556226793
113	0xbf95c7fc1468dd83	-0.021270693536477047
114	0xbf9da319cb1b90c7	-0.028942492505749564
115	0xbf66dc42db29699e	-0.00279057557899627
116	0x3f77179f5ab3b732	0.005637762525322819
117	0x3fac9de7fdfad109	0.05589222884501239
118	0x3f4139b519c2b9ec	0.0005256780891807456
119	0x3fa3a343e8476443	0.03835499010501355
120	0xbfb173a2bbb9a63c	-0.06817071040281858
121	0xbfa5ce9369d87af6	-0.04259167353688113
122	0xbfb9d3df7ce8b3a4	-0.10088917541061321
123	0xbfb61edef2a9d8e8	-0.08640855240250611
124	0x3fa08b35188988a0	0.032312068219441104
125	0x3fb743ba8a985bd5	0.090877207600314
126	0xbfae9ac87936508a	-0.0597746513332434
127	0x3fa69c66254f5a58	0.044161979727210976

linear3.weight f8 [256, 128]
0	0xbf8955d7b975031e	-0.01237076315612878
1	0xbf9e4d5e1d938d4a	-0.029592009120176933
2	0xbfa88b1cee959312	-0.047936348079735805
3	0xbfb204154f881f19	-0.07037480537121289
4	0xbf6bb8b766d6c16a	-0.00338397808692308
5	0xbfa8ce1d4c2cd994	-0.04844752840874658
6	0xbfb272b650439dda	-0.07206286868642256
7	0xbfb00dee1aaac97d	-0.06271255637219571
8	0x3fa64da2c5d2964c	0.04356106438471538
9	0xbf7364c3191c10be	-0.004734766103642039
10	0xbf7d3d333777ba1f	-0.007138443055267034
11	0x3fb285228372cff4	0.07234397610847038
12	0x3f8fc65de93a6a48	0.01551507347112592
13	0x3fa240ba95168f92	0.03565009183810654
14	0xbfa3c9f1d3515040	-0.03865009026108668
15	0x3f9a15b83fbc2db2	0.025473479166107267
16	0x3fa5894b4904ad01	0.04206309572540513
17	0xbfa8ac8ef68feebc	-0.04819151649277617
18	0x3fa1105a9324dc3e	0.033327894651329334
19	0xbf9d126891f24f89	-0.028390535266751313
20	0xbfb0ed158e01e852	-0.06611761776903904
21	0xbfaaa5361253fe41	-0.052041711556736654
22	0x3f83920ce4078cbb	0.009555912693889437
23	0xbf94f6eff3a26ae6	-0.020473241086260162
24	0x3f99b9480b304153	0.025120855029002808
25	0xbfac38cda6ce8252	-0.05512087498869235
26	0x3fb3fb056a2f56eb	0.07804902880101465
27	0x3f96f1f970d51cc5	0.02240743399786706
28	0xbfa69ec514a82178	-0.04418006779821132
29	0x3fa7da6d492fc1a5	0.04658833998098836
30	0x3fa50d86a94b0bb4	0.04111882034842243
31	0xbfa3271ff5567368	-0.03740787381977989
32	0xbf9c4b6c8d1619a7	-0.027631469832636004
33	0x3fa4bc24ee61271d	0.040497926806507524
34	0x3faf782381de8376	0.06146346054379752
35	0xbfbb61eb12a5cd79	-0.10696286397233291
36	0x3fab6db1c01e02b6	0.0535712763803579
37	0xbfae1708d66c26b5	-0.058769489454858194
38	0x3fb055da3f2f44b6	0.06381000559419445
39	0xbfa69a50e08c1206	-0.04414608708433225
40	0xbfb7347af69aef20	-0.09064453621516266
41	0xbfa83cc2052702d8	-0.04733854592223502
42	0x3fab2e1ae209bd01	0.05308612832311078
43	0xbfaa2534071e6a7e	-0.05106508814715925
44	0xbf9597306429c18c	-0.021084552873106996
45	0xbfade669e336a7f4	-0.058398541437170964
46	0xbf992ed11c22161d	-0.024592654554473115
47	0xbfaeb4c1ba503293	-0.05997281455356531
48	0x3f97c262e9de66b4	0.023202462696281415
49	0xbfaa1097029c9066	-0.050907820767208276
50	0x3f812e911e4f5aa0	0.008389600503432348
51	0x3faaa64e713af3f8	0.05205006725507383
52	0xbf8fba9e55030224	-0.015492665261605039
53	0xbfad461cd787b468	-0.057175542173219907
54	0xbfa475ecba9720d8	-0.0399621942302148
55	0xbfaea08302ca7759	-0.0598183575541344
56	0xbf8bb945792bd6d6	-0.013536970863678926
57	0x3fa1cd9c51fe55f2	0.034771809586498295
58	0xbf9859e1cbb3a146	-0.023780372674907534
59	0xbf8fc8c949f7286d	-0.015519688195940707
60	0xbfb19220f9570b0f	-0.06863599860575341
61	0x3fac27445bbcca95	0.05498708362428776
62	0xbf92b67de8235b70	-0.018274276059709604
63	0xbf87f3a5ad5b254f	-0.01169518885889667
64	0xbf9160beb98b18d8	-0.016970615458171107
65	0x3f9de3a4706e2238	0.029188699114032185
66	0xbfa028ae6e208ff1	-0.031560374205838466
67	0xbfb663d84654a954	-0.08746101109560317
68	0xbf83c9382478b4f5	-0.009661139119169418
69	0x3fa253c8d42cce85	0.03579547491099525
70	0x3fb1de73d5c67e4f	0.06980060547947996
71	0x3faaaeb100de8d05	0.052114039760704535
72	0x3fb1d2a1285a8d16	0.06962020144651535
73	0xbfa14ddf0e89aef2	-0.033797235989224364
74	0x3faffb80c1ae6d2b	0.06246569027208645
75	0xbfaa41989156e6a9	-0.05128170751727385
76	0xbfa1b44f7b8d2cd9	-0.034578784782377255
77	0x3fb47d758ebd3d15	0.08003935561031413
78	0xbf966d9bc129686f	-0.021902497925431804
79	0xbf951169ae404df7	-0.02057423711819514
80	0xbfb08723ea8b7bf0	-0.06456207729523533
81	0x3faa3812ca661816	0.051209056097875
82	0xbf959af05a8b06d8	-0.021098857427893275
83	0x3f941be4017d7927	0.019637644377661048
84	0xbf91d616f099aa01	-0.0174182495451678
85	0xbfa2c349b8602869	-0.036646178967274796
86	0x3fa6dfd6dae859cc	0.04467650816166077
87	0xbf972f223718fea9	-0.022640738118069468
88	0x3f90da94521d2c66	0.016458814155424405
89	0xbf91dd29b66baddd	-0.017445232161589764
90	0xbfb243884671e4a9	-0.07134296150060727
91	0x3f9d5b30ea7a8341	0.028668178855358
92	0x3fa932f56f24c4d7	0.04921690923436877
93	0x3fa3818e65a7c039	0.03809781065854207
94	0xbfaf9a2e7c41f2f9	-0.061723187130132424
95	0xbf91c0ccd6be7c76	-0.017337036711634522
96	0x3fadf9ec10bb946b	0.05854737953431129
97	0x3fa80259f11df966	0.04689293926547826
98	0xbf91bb65af2d10a5	-0.017316426102539712
99	0xbf91be6277e97ee5	-0.017327822274068167
100	0xbfb074e8e57d54c5	-0.06428390124104329
101	0x3fb3470999af1d8e	0.07530269624759553
102	0xbfac24513c70252d	-0.054964579227155454
103	0xbfb4f83bef38a41a	-0.08191275205958029
104	0x3fb935adec9c0eae	0.09847533251382387
105	0xbfa2acd9214ebbd4	-0.03647497684084269
106	0x3fb3c6d342fb35b3	0.07725258240971904
107	0x3fa2cc97fb09b722	0.036717175859719356
108	0x3fb0d1cfeb7e7f61	0.06570147990578114
109	0x3fab2961c1b73369	0.05305009355252006
110	0x3f641a8587a9500e	0.0024540527349845636
111	0x3fb932f3fbfdcb34	0.09843373205312106
112	0xbf87efe552ef64b3	-0.011688033669928854
113	0xbfb6cdf14a2620aa	-0.08907993374134784
114	0xbf9ec5e8511c608a	-0.03005183215199784
115	0x3f593331308e44bc	0.0015380840652350755
116	0x3f923e95f2a2b602	0.017816870626736765
117	0xbf8ab32d7f13502a	-0.013037066879782417
118	0x3fa54b4fb1bba7b5	0.04159020466416
119	0x3fb6b05a4591ca4b	0.08862842749093962
120	0xbfa741ba1b847b9f	-0.045423332079955296
121	0xbfa045c93a07df8d	-0.03178242524512518
122	0xbfa94cc39ccda3cc	-0.049413788691544974
123	0xbfa886cebe76bfa0	-0.047903500318511094
124	0x3fb28f7b485807c8	0.0725018550511144
125	0xbf92ecb095d5b18f	-0.01848102488058739
126	0x3faf0debe5d07638	0.060653087428573504
127	0x3f8789ee463df816	0.011493550795190582
128	0xbfb86d0cfd40f885	-0.09541398222879323
129	0x3fb33026712fa245	0.07495346320468695
130	0x3fb4cef876b04abf	0.08128312013313187
131	0xbfab5a7d25b78d2e	-0.05342475018894742
132	0x3f89af47b9077e63	0.012541351637025138
133	0xbf75cf5dfbe73b7b	-0.00532471382616861
134	0x3f97fee1bc8422be	0.0234332343398218
135	0xbfa9e2741fe01a6e	-0.050555828944244804
136	0xbfa1fdcd7a9211e3	-0.03513948556158988
137	0xbfb7850a943740df	-0.09187379950094819
138	0xbfa8759e5fddc7a3	-0.04777235908740287
139	0xbfa3b12d2152a2c6	-0.03846112281582274
140	0x3fb821e414b701cf	0.09426713472112812
141	0xbfacc0cf7d2d643b	-0.05615852740329116
142	0x3fba5dc60673107c	0.10299337060411234
143	0xbfb3b40a08198ad1	-0.07696592996357345
144	0x3fa621615ae6710d	0.04322342142697453
145	0xbfab6a804d496e3c	-0.05354691451495028
146	0x3fa8dd01ffe546bf	0.04856115578389852
147	0xbfb2e77e543a6e70	-0.07384481006959631
148	0x3fb443ccc2663c5b	0.07915954347684943
149	0xbf9b645fdc2bd903	-0.02675008565253113
150	0xbfb3abca336a6886	-0.07684005503907274
151	0x3fb0f4667b793b4e	0.06622925295344581
152	0xbfb3417d1db086dd	-0.07521802878229829
153	0xbf95ce2882e22a20	-0.021294243801586288
154	0xbfb018f6805907f4	-0.06288090356341042
155	0xbf9531e48d0d8a1d	-0.020698138341126538
156	0x3fa216d1f301f674	0.03533035365488227
157	0x3f868bab8d958e21	0.011008587129885563
158	0x3fb1baf620d8de2b	0.0692590551560605
159	0x3fb3f795068d79e0	0.07799655351616464
160	0x3fa4a3392d36000e	0.040307795304215785
161	0x3fb5fe4a77ac91af	0.08591142102938563
162	0xbfb13d09d4179963	-0.06733762195617525
163	0xbf9663fff4923e10	-0.021865844061322248
164	0x3fa032ae5a53eea4	0.031636665846204864
165	0xbf97776d54324882	-0.022916515602056105
166	0x3fba974ce3622e74	0.10387116004329205
167	0x3fb14d1e5d469145	0.06758298661458635
168	0xbfb54b16b4e9708f	-0.08317701260370057
169	0x3fa1b383b4346b01	0.034572711703921406
170	0xbfa605d725935748	-0.043013308846339415
171	0xbfb25e5ecf41bd86	-0.0717524772642176
172	0x3fa37b089b687567	0.03804804703780001
173	0xbfb1c3622339eb76	-0.06938756332412574
174	0x3fb0e73722b1f5e4	0.06602806660699617
175	0xbfa2686901f95f37	-0.035952836504917256
176	0xbf81cf4c0dd462e2	-0.008696169063612872
177	0xbf8e73c9efc6f1d3	-0.014869287137906284
178	0x3f9c2c50dbf9ff8c	0.027512801576903764
179	0xbfb62e8f318fca50	-0.08664793930055592
180	0xbf8217dc963b9b3d	-0.008834575018637042
181	0xbfb56579f549d484	-0.08357965696798614
182	0xbf9502a1dd83bb52	-0.020517853875328847
183	0x3fbb0bcc86f5427f	0.10564878744959037
184	0x3f950ac4188eb797	0.02054888152968423
185	0xbfb514c90ac9c9cb	-0.08234840882668164
186	0xbf9d35c38f41e9e4	-0.02852540552019346
187	0x3fb9ad1a362fadea	0.10029758284479554
188	0xbf935f1aeb7ca101	-0.018917484877563066
189	0x3fa842fbfe2a3ee5	0.04738605001068467
190	0x3f957cbd86351eeb	0.020983659092307965
191	0x3fa226c78e7e11a6	0.03545211424264787
192	0x3fb241e81dafa951	0.07131815647850216
193	0xbfa1f1609e94a184	-0.035044688566190835
194	0xbfb95b3a27994aa4	-0.09904826609389744
195	0xbfb885a67d6a35b7	-0.09578934251677294
196	0xbf6e5b1d142290cd	-0.0037055557196073786
197	0x3fb57ef86bac1f5a	0.08396866444320264
198	0x3fa5cd226c7d0a48	0.04258067678758387
199	0x3fb36476364e1f06	0.07575167489823906
200	0x3fae11100d0a1395	0.058723928062170895
201	0x3fb056871088ad91	0.06382030633601789
202	0x3fb4dedc31ba9486	0.0815255757721208
203	0xbfa808b400c48f30	-0.04694139966366462
204	0x3fafbc1cb58d4604	0.061982056772318855
205	0x3fae86e195b3ac6a	0.05962281181731373
206	0xbfab05df3d8be72a	-0.05277917505550385
207	0xbfafd6f37cddb717	-0.062186821930352014
208	0xbfb8b8f36cce0526	-0.09657212644926413
209	0xbfa9aa98adcf45bb	-0.050129672257422674
210	0xbfb7f3c785c736ec	-0.09356352821415798
211	0x3fa3eb8186beb169	0.03890614290080203
212	0xbfb34341e44593c4	-0.07524501631776476
213	0x3f91c2256d4f7b5a	0.01734217147520254
214	0x3fa6242870560a6b	0.04324461337366333
215	0x3fa8cd8f67557f8e	0.048443299640665946
216	0xbfa7e8294ab976c3	-0.046693125125540934
217	0xbfa7e2f5647cf3ae	-0.0466534314314012
218	0xbfb370df7438b1f7	-0.07594105327070354
219	0xbfadb07775ee06f7	-0.05798695864269903
220	0xbfb365a2832e9f90	-0.07576957419098407
221	0x3fb728462468b9fd	0.09045828236478566
222	0xbf95a4c90c562275	-0.021136418703039134
223	0x3facae1383775995	0.05601559619724409
224	0xbfab5dc646ffb876	-0.053449817816599784
225	0x3f9a726f0f3086d6	0.025827155401322376
226	0xbfb59f29beb1f0ac	-0.08445988565103119
227	0x3f61171302266ddb	0.002086197973040644
228	0xbfb91b3645faa721	-0.09807147224878722
229	0xbfa52e9d4e7a66e3	-0.04137126524910941
230	0x3f8988394e1a16c3	0.012466857620221266
231	0x3fa13a89ffae35bc	0.03364974256610817
232	0xbf8a16202fd2e23f	-0.012737513980355717
233	0x3fa2d66216d5f0c0	0.03679186371570742
234	0xbf92738f89dc753e	-0.01801895407617348
235	0x3fa2594100c4b10c	0.03583720335368143
236	0xbfae8a79beb9c868	-0.05965023472971681
237	0x3f9658b3f33a17b8	0.02182274982489904
238	0x3fb3094b37e44918	0.07436056246323053
239	0x3f8e47394874d9ab	0.014784286044783842
240	0x3faf192f3d55a08f	0.06073901771270684
241	0x3f4aae5cef9c807b	0.0008142427243207484
242	0xbf660e3e41cb4cb2	-0.002692338557929463
243	0x3fa7fa1c01260490	0.04683005823154318
244	0xbfa26ce45edcc107	-0.03598703058230695
245	0x3fad39862698fb2d	0.057079498492831206
246	0xbfa8d940846b5305	-0.04853250137754198
247	0x3f95814d15066be8	0.021001057060498513
248	0x3f73b307552b5efc	0.00480940689404696
249	0x3f64bbf51fb5bde6	0.0025310313773656444
250	0x3fb634a6e0f04857	0.08674090377488262
251	0xbf8e986bac87d12d	-0.014939156725610825
252	0x3fa8bf2548d7c286	0.04833332552141649
253	0xbfa5dc27b116151c	-0.04269527470300202
254	0xbfa4424409aedd50	-0.03956806772424193
255	0x3fb36a78e96c6386	0.07584338854611702

linear3.bias f8 [256]
0	0xbf9a2abac8d2f0d6	-0.025553625590632865
1	0x3fac865d2a046103	0.05571261537460439
2	0x3fa6bdbea42847f0	0.04441638711809037
3	0x3f90a1da1a0d5809	0.016242416229339116
4	0xbf3896f31ed5043e	-0.0003752082401043444
5	0xbfa6a91069637e95	-0.04425860678179309
6	0x3faa1ee1cce43c48	0.05101686121098986
7	0xbfac1ac6dd8b3b68	-0.054891790908746796
8	0xbfb1660f0d9c187f	-0.0679635437228132
9	0xbfad0964a15a4f7b	-0.05671228856695528
10	0xbfa0725e971d0a6b	-0.03212256998678672
11	0x3f5eb2130e958bc9	0.001873510942765876
12	0x3fb2c1e906519004	0.07327133564245975
13	0xbf7662686d68280f	-0.005464942855278223
14	0x3fa5ba2f58b31d4d	0.04243610341796487
15	0xbfb2c967ae98f68e	-0.0733856965316255
16	0xbfb1cdcc5d315ed5	-0.06954648280349869
17	0x3fa78dd6927572dc	0.046004014375943675
18	0xbfa67e002a490a4a	-0.04393005863359585
19	0x3fa997331b511c95	0.04998168667275952
20	0x3f988c1246565af1	0.02397182993226016
21	0xbfb00390c1b7b22a	-0.06255440453941988
22	0xbfb38a8e2e1c8578	-0.07633293748633274
23	0x3f602376b88155c0	0.0019700354351168403
24	0x3fb6bc0fe6a0f8b7	0.08880710011087244
25	0x3fac8fa40fe24d6d	0.0557833928479806
26	0x3fa4d0527840090b	0.040651871851894304
27	0x3fa541096799faf4	0.041511815926233014
28	0xbf91c9c460b3c586	-0.01737124290679539
29	0x3fa5cbf22ec37884	0.04257160969585619
30	0x3f9a5f2fdbb3fe3f	0.02575373438321393
31	0xbf79d375520f4357	-0.006305177958851291
32	0xbfbc4f917538f2b6	-0.11058911430240922
33	0x3f78176dfd57de46	0.005881719252549161
34	0xbf8db08d55997bff	-0.014496902632513907
35	0x3faf35f16e291f71	0.06095842809423758
36	0x3fab0f37218feb8c	0.05285045895285298
37	0xbfafcdec7b5072ba	-0.062117948582657914
38	0x3fad6d639fbd06b4	0.05747519802981796
39	0x3f8c8108b395ea7e	0.013917987804906714
40	0x3fa9861a9b41a947	0.04985125680180374
41	0xbfb62e7c11647524	-0.08664679932231373
42	0xbf9f8cd155d72327	-0.030810614456444754
43	0x3f91a8c1ab2f1d57	0.01724531752895805
44	0x3fb884c8e72f6d00	0.09577613491221726
45	0x3fb31098f0282fc7	0.07447200644690986
46	0xbfb04e5871c2c570	-0.06369545724262138
47	0x3fb04347aadfae9a	0.0635266105816136
48	0x3f6df267a8d0e549	0.0036556267355335775
49	0x3fb1c1ebeeb4e39d	0.0693652589587956
50	0xbf8de95c90feff08	-0.014605258154801529
51	0x3faaabcffa76e8e8	0.05209207470348237
52	0x3f96188f2b7284c0	0.021578061129393644
53	0xbfac1dd857c051ec	-0.054915199958632005
54	0x3fa1f403c8ebba96	0.0350648100628536
55	0xbf72cbd5af0909e5	-0.004588923170162994
56	0xbfaa24005fabc019	-0.051055919340683605
57	0x3fa12fd2f7f2032a	0.03356799389530914
58	0x3f9f3d83967bcdf8	0.030508094844618555
59	0x3f92afdbb4c65260	0.018248970898257943
60	0x3fa3ae2be4bca266	0.03843819777677453
61	0x3fa6792fc9ca6126	0.043893330938944694
62	0x3fa0cfb817cd3293	0.03283477106615353
63	0xbfaa0a5c23b104c6	-0.05086028991400719
64	0xbfb40e94deab6b6f	-0.07834749637860992
65	0xbfa0520eaa04e6fa	-0.031876047376909925
66	0x3f8d81f4d9a34321	0.014408028499390437
67	0xbfaa418b5498f3fe	-0.05128131301578519
68	0xbf8b8f5a9c1a918b	-0.013457019699963954
69	0x3fb51bb5baf083d5	0.08245406927063866
70	0x3f97ff22e0c94b4c	0.023434205026499996
71	0x3fa9775fa6d60722	0.04973887359211761
72	0xbfa3edfee61bed21	-0.03892513808201615
73	0x3fb199bbf2843ca2	0.06875204726041997
74	0x3fb6ab24b5787a12	0.08854894094881896
75	0xbfa3f58edf69ee61	-0.03898283459872399
76	0x3faf04ed38d6906d	0.06058446234536139
77	0xbfb94585033e2604	-0.09871703461808329
78	0xbfa2d73618d55125	-0.03679818204060074
79	0xbfb7010084366176	-0.08985903957216643
80	0xbfa0f038b5304772	-0.03308274471068175
81	0x3f8db4e82dbcd67c	0.014505208869745483
82	0x3fbc8c4b81c436a4	0.11151573103071627
83	0xbfa4fc20651f882b	-0.04098607286847796
84	0xbfa59aa61ef3ad51	-0.04219550254659999
85	0x3fbb79744831402b	0.107321994423956
86	0xbf93d05c4b770a54	-0.019349519830721043
87	0x3f95f5de98a4525e	0.021445730272790058
88	0xbf9808fa9f3d6565	-0.023471752137401398
89	0x3f87e8535a978079	0.011673594667570552
90	0x3fa3bf4002ac0961	0.03856849701516541
91	0xbfa0a2593cfd2574	-0.032488621420791924
92	0xbf753b81cf714140	-0.005183703490800717
93	0x3fb1e4f0c87d0cc1	0.06989960570085697
94	0x3f90d6afb7d82cc9	0.01644396361920711
95	0x3fbb545cc8ffd2c4	0.106756018707368
96	0x3fa0b2b6b9a5e324	0.032613477861508394
97	0x3fae1232dcb3cd63	0.0587325949108173
98	0x3fbb12606ed6b5dc	0.1057491560556722
99	0xbfa5b049f96a2617	-0.04236060304272032
100	0x3fb37abcb61de422	0.07609157034120576
101	0x3fb68403e4c29c67	0.0879518922325687
102	0xbfa8dc53715c58f3	-0.04855595358655931
103	0xbf8595f1498175f3	-0.010539898925510527
104	0x3fb5c65e2e515e1f	0.08505810385519695
105	0x3f9645467a7b46df	0.021748639321976234
106	0x3f9a6f878018ea22	0.02581607550949106
107	0xbfb4ed3c3a4cb8f7	-0.08174492286045508
108	0xbfabb38be10e54d1	-0.05410420534387018
109	0x3facca26c63d3abe	0.05622979326164089
110	0x3fabe44e44e86779	0.054476209556198314
111	0xbf91a6ed49b83173	-0.017238338112336615
112	0xbf8b56705ba30e1c	-0.013348462864434522
113	0xbf84571d702e50fd	-0.00993178366278657
114	0xbf8c6a93b677479c	-0.01387515450088355
115	0xbf9b86e494491933	-0.026881763029700422
116	0xbf9b09470cd5b321	-0.02640257850491701
117	0xbfa99d1ce2b7260a	-0.050026800799582175
118	0x3f8190248819b1d6	0.008575711635068577
119	0xbf74916463de19ff	-0.005021469258173371
120	0x3fb5a8aefb30ecc5	0.0846051562556794
121	0x3fa00d1d897a7e29	0.031350062400857866
122	0xbfaa4ef7c309a751	-0.05138372665244496
123	0xbf9035bc5958436f	-0.015829985573933166
124	0xbfb4803416137966	-0.08008122958151417
125	0xbfabe9bbe4f4d89d	-0.05451762361410426
126	0xbf9f14b074a85858	-0.030352360840048526
127	0xbfa552e2c80d30fa	-0.0416479939654852
128	0xbf993872b2aa996a	-0.024629394679004525
129	0x3fb14e133bea4148	0.0675975819851874
130	0xbfb47a61230d452f	-0.07999236207730996
131	0xbf798ca125761c49	-0.006237630346169595
132	0x3f9b01fddbcc2075	0.026374784984938466
133	0x3fa36fd56c2cbb6b	0.03796259828083389
134	0x3f78a706ee35b94d	0.006018664428991305
135	0x3fa80523232f1c5a	0.04691419414989957
136	0xbfa1df52643d3735	-0.03490693544027438
137	0xbfb551c9bf4e4ba2	-0.08327923698952458
138	0xbfa8b077d38d960c	-0.048221344541882954
139	0xbfb3a9bde6920a44	-0.07680880431329579
140	0x3f8bf0fc7ef6646d	0.013643238663279622
141	0x3f9e66fbbeddae0c	0.029689725422413146
142	0xbf9f244317db3831	-0.03041176636798343
143	0x3fa72e71bd09fe3a	0.04527621681790746
144	0xbf86fe0fcf5e12f2	-0.01122677184663121
145	0xbf8b8fa732077e63	-0.013457590307495331
146	0xbfb6dfb4a82a6c59	-0.08935097795112891
147	0xbf27c08767e757fa	-0.00018121388343556017
148	0xbfb71b9f42c933df	-0.09026522999302199
149	0x3fab5488dbbd4c5c	0.0533793228375081
150	0x3fab8bf8aeadcf13	0.053802272151101026
151	0xbfa1aa2a3ea40842	-0.03450138106019597
152	0x3fafa3b0f3e2bce1	0.061795739909365606
153	0x3fa09813f263e29b	0.03241026243080577
154	0xbfafca42fda420e3	-0.062090009176303494
155	0x3f6838cfd7a7c99b	0.002956777517504961
156	0xbfb31334134e785c	-0.07451177092886624
157	0xbfab379b46d24d58	-0.053158619303895704
158	0xbf8e65fe8145c6fc	-0.014842975921712569
159	0xbfaf1369099d5c93	-0.06069496385924213
160	0x3f9b84832de55f7a	0.026872682262677007
161	0x3fb0bf9ac8c20a1e	0.06542365456883956
162	0x3fb0e9c47bc33075	0.06606700917763127
163	0x3faef5a7fe659f38	0.06046795826369905
164	0xbf93d8d6259b77c5	-0.019381853146903234
165	0x3f93692046032c24	0.018955711625306418
166	0xbfb18eb1df10fb3f	-0.0685836000056783
167	0xbfafd04cd5f168dc	-0.06213607894524539
168	0xbfaca94961e211c8	-0.055979054640406256
169	0xbfa94c7da8fca0a5	-0.04941170394732922
170	0x3fa74db334306f5a	0.045514679070236055
171	0x3fa902613fdad40a	0.04884628204801096
172	0xbfacbc4a5837fdbc	-0.05612404181374184
173	0x3fb0745b569ed3c5	0.06427546372181243
174	0x3f9c683acb1ccd07	0.027741354605677972
175	0x3fb77e16c9b3f11f	0.09176771568667562
176	0x3f8fa3bcb6eafb53	0.015449022609912133
177	0x3fadbc57518d526a	0.05807755346782957
178	0xbfa1a3a341eb2e26	-0.03445158176108647
179	0xbf8ed0d378f7b8cf	-0.015046741608753326
180	0xbfb41563ca0b0dd6	-0.07845138247198888
181	0xbfb3957c73b66961	-0.07649972748769109
182	0xbf91800c9fbb9c87	-0.017090031861610313
183	0x3fa1af914b2a9879	0.03454259913023434
184	0xbfa1252013950f99	-0.03348636855164883
185	0x3fa85333ca05c1cb	0.047509783183048514
186	0xbfa8ab92fd1cdfed	-0.048184007070119474
187	0xbfa8a90dfaa8038f	-0.04816478428620662
188	0x3fb7d0e2e163de26	0.09303110125244327
189	0xbf9a1643c34de4b1	-0.025475558085848508
190	0x3fb47411e8a620e7	0.07989608697801352
191	0xbfb4714c1c641100	-0.07985377972733332
192	0x3f7584ada535e611	0.005253485014117058
193	0xbfa11aaf5fff26ba	-0.03340671583971529
194	0x3f836eb61ea8f661	0.009488508997601732
195	0xbfa29d91143a24f3	-0.036358388632899884
196	0x3f90c90b3f8b5a1d	0.016391921761931372
197	0xbfb2a6f559bca278	-0.07286008301583446
198	0x3f9238fa09ec6682	0.017795473914793643
199	0xbfa5226b0116e039	-0.041278213389376046
200	0xbf895446c837a5ec	-0.012367775902890586
201	0x3fb018c11b261cca	0.06287772095503211
202	0xbfa89b173ac9f096	-0.04805824844967892
203	0x3fafab9a4262985f	0.0618560987507386
204	0x3f7354f9a0820cd2	0.00471971045056137
205	0x3fa7f68eefe09473	0.046802965909855575
206	0x3fa383f4e48d57aa	0.03811612405722482
207	0x3f9dcc1915b01461	0.029098884533614092
208	0x3fa6172642b36e9b	0.043145366327476974
209	0xbfb4e021f8d572c2	-0.08154499363940729
210	0xbfaafd7100c431f3	-0.05271485456805527
211	0x3fb29d79df7f112f	0.07271539408163073
212	0x3fad4e2b629a87d2	0.05723701075227407
213	0x3f77e48e6b210c69	0.0058332026692965245
214	0xbfae424c65f533cf	-0.0590995668850166
215	0xbf9d906b7db8b33e	-0.02887123064845131
216	0xbf7a2915cd855244	-0.006386838118789987
217	0x3faf6d5fb549c621	0.061381331329254836
218	0xbfb58e86eba59a9c	-0.08420603993509207
219	0xbfa0fdb15b3b4f31	-0.033185522448233924
220	0x3facc84ed45b4248	0.056215728208944216
221	0x3fab4edab5ce6164	0.05333598584474222
222	0x3f973fa2d06c060a	0.02270368954760297
223	0xbfb08d80f145625c	-0.06465917482763345
224	0xbf9e40073063fca3	-0.02954112274983046
225	0xbfa8a2ce22828352	-0.048117105209945735
226	0x3fa10723104ebfcc	0.03325757574145846
227	0x3fa89553397e6e18	0.048014260071081505
228	0x3f9198cff7167a9b	0.01718449540714549
229	0xbf760721e3e14df0	-0.005377895720886525
230	0xbfb214f124361b3e	-0.07063204893175354
231	0x3fb94550a2aa790c	0.09871391269050295
232	0x3fa3f1967a3bb561	0.038952543660210955
233	0xbf989f5e92f16ccc	-0.024045446127598777
234	0x3faa53682581968d	0.05141759355391882
235	0x3f94e7303c2ee89c	0.020413163827222122
236	0x3fb6f974f004acc0	0.08974390849896263
237	0x3fb31e4bf842371b	0.0746810418224552
238	0xbfa43fa6c4abfddb	-0.03954812193660092
239	0xbfb1742d40851e12	-0.06817896676249571
240	0xbfb16eb0f639e154	-0.06809526454333553
241	0xbfb01a043bfe71b3	-0.06289698090262767
242	0x3f908c7d0d565a47	0.01616092103867064
243	0xbf87ee0ac54f581c	-0.011684497972890333
244	0x3f8a349dceedffca	0.012795670392506415
245	0xbfb5c31f9afc7e0e	-0.08500859769673516
246	0x3f983c1fa5be1754	0.023666853419420278
247	0xbf9c61f14184150d	-0.027717370628143324
248	0x3faf857076862537	0.0615649361307739
249	0x3f8a565e5a9d380b	0.012860047474216449
250	0x3f906bd995fe92f7	0.01603641489022586
251	0xbf9ecefb66952607	-0.03008644879927227
252	0x3fa0ed2478e73c9e	0.03305925346250514
253	0x3fb1b0d49ebaecb6	0.06910447001694106
254	0x3fa26023e0707aec	0.035889741084465715
255	0xbfa10340b0e6b192	-0.03322794112623052
