ptlpinns/models/train/overdamped_nonlinear/model_overdamped_nonlinear.pth (torch, 417973 bytes, 26 tensors)

linear1.weight f8 [128, 1]
0	0xbfe61844676bb7ba	-0.6904623050629575
1	0xbfd7b68e437b95d8	-0.3705173167239457
2	0x3fcbc2148d7ce236	0.21686036022744454
3	0xbfd84dcc0341e9fc	-0.3797483474551482
4	0x3fc7e524443517b7	0.1866803486865913
5	0xbfe4f85a68f7278a	-0.6553165483576191
6	0xbfd1d653ac41568b	-0.27870647260474674
7	0x3fd8f74159a68618	0.3900912642949108
8	0xbfd7d3a0c96ea08b	-0.37229175253970287
9	0x3feaded9955641d0	0.8397033612000602
10	0xbfe0ede548c99c27	-0.5290399953490849
11	0xbfce8c266cbf9849	-0.23865204153043099
12	0x3feb2296e575f82f	0.8479723436028105
13	0xbfdc2a4db8859e4f	-0.44008200664254543
14	0xbfe53b5cff8fc94d	-0.663496493476751
15	0xbfce011ca38ca3d6	-0.2344089315968449
16	0x3feb9f45c07aa9b9	0.8631924399717753
17	0xbfbe9137bc8c8681	-0.11940334656949327
18	0xbfce12626ed22dee	-0.2349360505216817
19	0xbfdba241445dda54	-0.43177825619151133
20	0xbfa83b8ae1b505d6	-0.0473292732736003
21	0xbfe48d7b90bebdee	-0.6422708346416905
22	0x3fe6aca1155451df	0.7085729042615262
23	0xbfcf2cd12fc3e42d	-0.24355521042142084
24	0x3fe07a4433bf5df2	0.5149250994390384
25	0x3fc78ebb9cacb61e	0.18404336118821701
26	0x3ff086b0da005a00	1.0328835025480885
27	0xbfc940149e52818e	-0.19726808291035208
28	0xbf930898114a7675	-0.018587471061087563
29	0xbff69977bb836890	-1.4124677014101827
30	0x3fd942faea9befcd	0.39471314345405234
31	0xbfdc46b61763f35d	-0.441815874902934
32	0x3fe8b1682c14a1e6	0.7716561184834603
33	0x3fc43fe7685162c8	0.15820019334457514
34	0xbfdf84677fd404f5	-0.4924563167879364
35	0xbfe218eba5e91ee0	-0.565542053264803
36	0xbfdddcfae559404b	-0.46661255261733875
37	0x3fca08fdd6ed825d	0.2033994006587986
38	0xbfc898cf6bb2b575	-0.1921633983487642
39	0xbfa8e20c6986a663	-0.04859961307677165
40	0xbfb06669d95e5619	-0.06406270558212447
41	0xbfe17dfe78cba449	-0.5466301306997902
42	0xbfd3ca48fe7255ff	-0.3092215046720809
43	0x3fc8c95d4cd19b2e	0.19364515543858246
44	0xbfe0fa5984fee9f2	-0.5305602643559821
45	0xbfe55c4451f1f5a6	-0.6675130463115024
46	0xbfcd4cdb507edffd	-0.2289079802555988
47	0x3fe41408f87e6c8a	0.6274456838031182
48	0x3ff345c5697306b3	1.2045339697946644
49	0xbfc0a635711f1c57	-0.1300722887374117
50	0xbfbc0bee58f525aa	-0.1095570532972007
51	0x3fe0ba7a60834b83	0.5227634320275317
52	0x3fddebc9a9955964	0.4675163417899937
53	0xbfe7f6c59635046e	-0.74887351357769
54	0x3fb6394ba46a6d9b	0.08681175960594205
55	0xbfec5ad00fb78f68	-0.8860855395291596
56	0xbfcaf02efeed81b2	-0.21045482108730834
57	0x3fd171dc614daff0	0.27257451536456667
58	0xbfeb2cfc0653379b	-0.849241268495223
59	0x3fecb2c163f876fb	0.8968207314062221
60	0x3fe0a63a16f86493	0.520291371215665
61	0x3fdaddffaa613490	0.4197997249473895
62	0x3fd021671f7844d0	0.2520387465784326
63	0xbfe32a88f0fa0b34	-0.5989422518326593
64	0x3fd41236367981d3	0.31361155814923086
65	0xbfd19698cd1c5299	-0.2748167040856884
66	0x3fd79aedd34bb00e	0.3688311160501606
67	0xbfd67ceee64b885e	-0.35137531747580464
68	0xc006fcb7c2b6ebfc	-2.873397370536166
69	0x3faeb18755cb0ed4	0.059948186133195996
70	0x3fe285cd8b58b64c	0.5788333627330728
71	0x3feb7af13f879415	0.8587576142132344
72	0xbfa2c5971a59b41d	-0.03666374394092762
73	0x3fdccda65eebc62b	0.45005187291744403
74	0xbfe8558d1933540b	-0.7604432575413979
75	0xbfedc505c3406f26	-0.9303005994329154
76	0x3fd429ad13915f1c	0.315043706044422
77	0xbfe3c3eee7ab9abf	-0.6176676297007687
78	0xbfcb7f655d4d4e1f	-0.21482531600723662
79	0xbfdcf07f97c7802b	-0.4521788580150338
80	0x3fc4a4def2140683	0.16128146000123786
81	0xbfc0ff71958ce09c	-0.1327955227113805
82	0x3fb106c5e32ce18a	0.0665095977427709
83	0xbfcfbecd9bf668bd	-0.24801035037382305
84	0x3ff1a7561e2467a7	1.1033536126546808
85	0x3fee75931bfe0a49	0.9518523737645604
86	0x3fd167621e31be20	0.271935014235142
87	0xbfe73f81c31e2a32	-0.7265023051161903
88	0xbfe395565715f80f	-0.6119796467680788
89	0x3ff056ddee1d46e9	1.0212077428190531
90	0xc0017e9403251804	-2.18680574852897
91	0xbfd7f90a928db0c3	-0.37457527458060386
92	0x3ff6eaacf707a9e5	1.4322938584906464
93	0xbfb39e0d39551f17	-0.07663042688102127
94	0xbfd40759458b399f	-0.3129485301150456
95	0xbfe9d4ae9ece5c1a	-0.8072121717149259
96	0x3fb6dff71d21b0ac	0.08935493909092668
97	0x3febcd02681f4f37	0.868775561679718
98	0xbfea5010f3bddb3d	-0.8222737083986896
99	0xbfd64fc92174a68b	-0.34861973063616664
100	0x3ff10745926ab43a	1.0642753333479633
101	0x3faf0e5b16d4d70a	0.060656401192700285
102	0x3fde6221b06c88da	0.47473947743323
103	0xbfd9ec2e4eb7d500	-0.4050403374415765
104	0xbfdbbdef846fae2f	-0.43346774991252607
105	0xbfead1abc3f9828f	-0.838094599497781
106	0xbfda909677b45714	-0.41507493677032525
107	0x3ff0557eb847f57b	1.020872802589422
108	0xbfcb8b3191bd0c25	-0.21518535247932494
109	0xc00b51b0bd8fefce	-3.414887886958218
110	0x3fc4833d566d81cb	0.16025511474710039
111	0xbfea69c674478135	-0.8254120131569268
112	0xbfd0b53f09b8c68d	-0.26106239270584625
113	0xbfe09b80de8ef7f8	-0.5189823481412068
114	0x3ff3bfd29e7a9416	1.2343317213610638
115	0xbf9f7a8dac7648fe	-0.030740941668747183
116	0x3fd37b2e6115cefc	0.3043933818910174
117	0xbfe745fbe9f50282	-0.7272929734682096
118	0x3fe8f894b702b1ea	0.7803443502830849
119	0xbfe77a94f4cf99d8	-0.7337136060203262
120	0x3f7db41d28e15513	0.007251848130257049
121	0xbfc4b32f63238c23	-0.1617182954861117
122	0x40099f0eb4a568be	3.2026647675494067
123	0x3fe1555dd8348a88	0.5416707251318522
124	0x3fcb7da3a457ef93	0.21477170490822725
125	0xbfe40109c8bd35c7	-0.6251267357526381
126	0xbfeb1b48d6af3157	-0.8470806305936475
127	0x3fa8467420fed05d	0.047412518527750726

linear1.bias f8 [128]
0	0x3fbabcbafcb393c9	0.10444229764432501
1	0xbfedc5656bc1b904	-0.9303462128280278
2	0xbfe04be1a1e94284	-0.5092628633811533
3	0x3fe54b1d2b9a0c26	0.6654191829296721
4	0xbfe3562ad57c5777	-0.604268471683766
5	0x3fc7debd05ab7c3a	0.1864849355397114
6	0xbfcb02ef3e536444	-0.211027055199141
7	0x3fd96e35ec1c8ea0	0.3973517232682102
8	0xbfde420ea9597e8f	-0.47278181589170115
9	0xbfb15692c27832d4	-0.06772725341597702
10	0xbfb18fde54897097	-0.06860150874985248
11	0xbfe17ca83aa43ccd	-0.5464669366209819
12	0xbfe06c2da9000fee	-0.5132053662096021
13	0xbff1f53d3047341e	-1.1223728071083836
14	0xbfdc0e360fff46ca	-0.4383673816893007
15	0xbfd4900cd3134cc1	-0.3212921201022248
16	0xbfd1cf6ab7689a57	-0.278284720525709
17	0x3fb9cee2dfd5fd4d	0.10081308331245005
18	0x3fefbc1721290376	0.9917102477703412
19	0x3fce921da8ff1ad3	0.23883410217077614
20	0x3fc7334901369e88	0.18125259932752535
21	0x3febeaaef4ef3246	0.8723978790163265
22	0xbfb4bb9bd56b649e	-0.08098768196522818
23	0x3fecca3bf3e53019	0.8996867908076666
24	0xbfea70565a4e5912	-0.8262130512037251
25	0x3fec017bdeeae5b6	0.875181136499285
26	0x3fe5169b85f73fb9	0.659009706165299
27	0xbfe7bfc708046bda	-0.7421603352153128
28	0xbfec83eb2f0bc579	-0.8911033552996478
29	0xbfea1805fbee43e0	-0.8154325409433305
30	0x3fdb78fe65b4857a	0.42925987178940483
31	0x3fe44ed907ee0d06	0.6346249728088942
32	0xbfb931d2947b4a35	-0.09841648221053208
33	0x3fc2fdc3e973ec9d	0.14836930178703236
34	0x3fdeb27d1d635f36	0.4796440875047553
35	0xbfd5d029e65d99ee	-0.3408303022064548
36	0xbff035c8b64844dd	-1.013130867042768
37	0x3fedb4524d4d62d3	0.9282619008837066
38	0x3fef86db509fc8fa	0.9852119993868478
39	0x3fd0e54894336aa8	0.26399435494173895
40	0x3fe6128935f107ab	0.6897626927895905
41	0xbfc50f81ab914362	-0.16453572156253943
42	0xbfcfc09bd2eae9c4	-0.24806545065605523
43	0x3fd370282619bb6b	0.30372050972703474
44	0xbff0a98b04f8f41e	-1.041392344878893
45	0x3fbb5636a9c4fb54	0.10678426403772551
46	0x3fe6744d80ed16f4	0.7016971128548151
47	0xbfdd7be081d92f3d	-0.4606858509111936
48	0xbfe159316dd2c7dc	-0.5421378273952047
49	0xbfd93dd85348ff39	-0.39439972050967104
50	0x3fd1f74ff4e690c0	0.2807197467429994
51	0x3fc6e18898d51108	0.17875773870958533
52	0x3fe9df98a2977918	0.8085444617861723
53	0xbfb1bcb80ba6239c	-0.06928587231062838
54	0x3febbfbc2ff6aece	0.867155164412418
55	0x3fea79ff672c7207	0.8273922934636752
56	0xbfe06dfbe80ed533	-0.5134257824308065
57	0x3fd5d2348455f566	0.34095490382590865
58	0x3fe213e272929744	0.56492731454339
59	0x3fc3aec437966cb9	0.1537709494994937
60	0xbfe49921fdca1f9b	-0.6436929661585852
61	0x3fce6c4a6238e35b	0.23767976566321178
62	0xbfd82bc11e77139b	-0.37767055487739193
63	0x3fee047139de6876	0.938042271637882
64	0x3fd551070ab33075	0.3330705265514163
65	0xbfd8cc75b89eea1d	-0.3874792387902362
66	0x3fe299b2f0324475	0.5812620822272395
67	0x3fd17d717a3a3b05	0.27328144966388407
68	0xbfe5ec0f2c3489a4	-0.6850658286460214
69	0xbfd29f6adb85c550	-0.29098006665943377
70	0xbfee6930ade1c538	-0.9503405948764003
71	0xbfeaed310f152a9b	-0.8414540571769352
72	0xbfe7bbaeef87ae73	-0.7416605642624304
73	0x3fbc51e0d6e08fab	0.11062436338448715
74	0x3fe46d307d1522c1	0.6383287852305203
75	0xbfea517b81ed5daf	-0.8224465882912478
76	0xbfe7fbd262451b2f	-0.749489967282761
77	0xbfa0065f4e9324df	-0.03129861673512279
78	0x3fc01ee7887d7559	0.12594312824777879
79	0xbfbdb1ef75e00058	-0.11599632861907716
80	0xbfd425a1d13c0a5a	-0.3147968810373293
81	0x3fedd54a1023e76f	0.9322862925757657
82	0xbfe9c561a5daf02a	-0.80534441369628
83	0x3feb1c085a1cf953	0.8471719512961421
84	0xbfbdf2883ade4312	-0.11698199689113789
85	0xbfd756500a32dc8f	-0.36464310642208714
86	0x3fdfd15cc2f16fff	0.49715346372045127
87	0x3fc99ea106319601	0.20015347292353172
88	0xbfe638068f22fa9c	-0.6943390651357109
89	0xbfc87b1af55df47d	-0.19125687580882192
90	0x3fd1180514e0e15e	0.2670910552874569
91	0xbfe037b841d64e17	-0.5068017278558185
92	0x3fe1d5e909f87094	0.5573620981918048
93	0xbfd092dda6199f34	-0.2589639780112407
94	0x3fd0653fc559e320	0.25617975494928835
95	0x3fde32720d9e7a78	0.4718289502142521
96	0x3fea0c218676dbed	0.8139808298354844
97	0x3f913d80ce979358	0.016836178407078378
98	0x3fde2dab11f9c7c2	0.4715373683494556
99	0x3fe3cd8f8f4fe500	0.6188428687156886
100	0x3fd7fc4e46dab784	0.37477452201243744
101	0x3fd59ff000a1322b	0.3378868108891619
102	0xbfc91a3302e03002	-0.1961120380441344
103	0x3fcbc2c3f8e97d34	0.2168812718764258
104	0xbfdab5d55fbe5850	-0.4173482356067142
105	0x3fe38abed7a3af04	0.610686703844721
106	0x3fe1448d9ce13715	0.5396183075006059
107	0xbfdaac357fe8a4ed	-0.4167608021840142
108	0xbfd7686d44cd8ae3	-0.3657487079528165
109	0xbfe47dc9b0c13e13	-0.6403549625628692
110	0x3feb6f4dd3250720	0.8573369144362211
111	0x3fe1856ba67457f1	0.547536683184033
112	0x3fc71913ec3b7f73	0.18045281443391623
113	0x3fd6893883910540	0.3521252903775185
114	0x3fe46e3889d6fd66	0.6384546940025018
115	0xbfd514f038db907e	-0.32940297653681927
116	0xbfcc637274b148a0	-0.22178488443257027
117	0xbfd7f9d6df47747c	-0.3746239834270637
118	0x3ff034f6f4b4a78a	1.012930827981537
119	0xbfdcb6ee999a7e1e	-0.44866528511372106
120	0xbfe238cb78f2b1ce	-0.5694329607263684
121	0x3fb563ed06ec1c9b	0.0835559980297255
122	0x3fe5da9f7774ff27	0.68293736773919
123	0x3fe28fd67731aeeb	0.5800583198556216
124	0x3fc9eb3dfa6fb88f	0.20249151924457862
125	0x3fe3030e41ab73ab	0.5941230089771258
126	0xbfd35838f54e1fa7	-0.3022596736486726
127	0xbfad05702bb77a1a	-0.05668211492205817

linear2.weight f8 [128, 128]
0	0x3f76043b3adcbcda	0.005375129095951803
1	0xbfae7520e76ced2b	-0.05948736977594601
2	0x3fb426b7c25eb7fe	0.07871578688965994
3	0x3f903f3541de1534	0.015866119523271396
4	0xbf841918297052dd	-0.009813488735781412
5	0xbfb05af8f0743236	-0.06388812895256354
6	0x3fa372486a8354c9	0.03798128414352104
7	0xbfa4a0364259268f	-0.040284820174361184
8	0x3fa9bd78653cde0c	0.050273668630719553
9	0xbfab77779d1a2f70	-0.05364583771469611
10	0xbfb1d0dda29cde60	-0.06959328861273084
11	0xbfb028af80ae2aa9	-0.06312081233606172
12	0xbfa418217b96adfe	-0.039246603332994554
13	0x3fb1c07b325a30eb	0.06934328059486787
14	0x3fb406cf11056fb7	0.07822889485890881
15	0xbfad7bfcc878d70c	-0.0575865740506015
16	0x3f97d5a7ae411d9a	0.023275966654436077
17	0x3fb35c22a7cb6379	0.07562462421937068
18	0xbf7a9d43e3654ac4	-0.006497636021168322
19	0xbfb0b2a44b3c4383	-0.06522585713197597
20	0xbfaa51daa7b6fc2e	-0.05140574738788249
21	0x3fadfcf895f9d9fe	0.05857064085732942
22	0xbfa2b34cf6936f3e	-0.03652420530280985
23	0x3fb694f5b6f94321	0.08821044652109979
24	0x3f9323c9beb5f8c3	0.018691208138527992
25	0xbfb48457705fe4d0	-0.08014437192459245
26	0xbfb7750806f2591e	-0.09162950677486889
27	0xbfa0b70f4979837b	-0.032646634787631044
28	0xbfab2d263d1d7ef7	-0.05307883735690482
29	0xbf97d5179fa79057	-0.023273820037403272
30	0xbfb401335872f951	-0.07814331921961083
31	0x3fb50f89f32ee100	0.08226835429275425
32	0x3fb580d831bd684e	0.08399726118423809
33	0x3fa09e23aef774d3	0.032456507786017184
34	0x3fad9fb700e4e496	0.057859152659554144
35	0xbf09b9e78f1e1c56	-4.906881248616854e-05
36	0x3fa7411fdc59de16	0.04541873516876309
37	0xbfb0818177ced79c	-0.06447610068320703
38	0xbf632b8142826783	-0.002340080700446502
39	0xbf9437e0ef860ae5	-0.019744410151825504
40	0x3f9b576f5fc132d0	0.02670072576465793
41	0x3fa9ab5d0748af9b	0.050135523928786806
42	0xbfa5477c0c4ea9b3	-0.041561008932450426
43	0xbfb4e6d2699edaa7	-0.08164706305147239
44	0xbfb318a4cc44bfc1	-0.07459478365922136
45	0x3f722b12918e8cbb	0.004435608418961563
46	0x3fb7f184ea7da0ab	0.09352904057380111
47	0x3fb588fe22ec731f	0.08412159302356458
48	0xbfb12a84b395baf4	-0.06705502876659947
49	0x3faf0d36224cc33f	0.06064767044734375
50	0xbf9df856f8f91052	-0.029267653413868118
51	0xbfa346d06783fd9d	-0.0376496435510447
52	0x3fa2949f8bbadc74	0.03629015522658899
53	0x3faf9ddffb9a827e	0.06175136514980738
54	0x3faa567148739240	0.05144075402657622
55	0x3fa1646300bc4539	0.03396901496865685
56	0x3fb285c95266325f	0.07235391866397255
57	0x3faed129128a377a	0.06018951751057862
58	0xbfa2e305c0ea4dd3	-0.0368882940284966
59	0x3fb038496c477f1b	0.06335886853730381
60	0x3fb0430c280b0b51	0.0635230634461952
61	0x3f910b2c177ef85b	0.016644181188660272
62	0xbfa94eec06a17da1	-0.04943025189345041
63	0xbfb00ab999ccb829	-0.06266365055918811
64	0x3f9aa5c3966dee58	0.026022964531405485
65	0x3f80ee7fbdd64d03	0.008267400723332324
66	0xbfb0008d4226ea5d	-0.06250841965712924
67	0xbfaca38f37651bb2	-0.05593535948951657
68	0x3fa57e87a9a0cada	0.04198097177176914
69	0x3fb015ee07bf298c	0.06283462227944464
70	0xbf9a9580d8af026f	-0.02596093485385825
71	0xbfb4b6f1db8fe70f	-0.08091651544955546
72	0x3fa68be69332ecd7	0.04403610751020331
73	0x3fb023dea0669fee	0.06304732719456727
74	0xbfb08a0339a90324	-0.06460590512962178
75	0x3f3e54ab6dd079b9	0.0004628103759517738
76	0x3f7f50197929972e	0.007644748215715853
77	0xbfad63cc1d965bad	-0.057402018176780124
78	0xbfac2855a38e1aa0	-0.05499522801897183
79	0xbfb02f5de1d26933	-0.06322275889616406
80	0x3fa69fec224947f1	0.04418886106999754
81	0xbfae479d9f1d2574	-0.05914013449962399
82	0x3fabd482e082ef22	0.05435570707910943
83	0xbf97a7d5a43b25c5	-0.023101175450198647
84	0x3fa9ef8b0b2b9892	0.050655694116174335
85	0xbf8a8fc71564fc36	-0.012969546642692103
86	0xbf757b7152bc6a16	-0.005244677227688862
87	0x3fb639fd4b5e6c4b	0.08682234849986618
88	0x3fa36c9d5b3ade80	0.03793803919455474
89	0x3fb04f4eb74e0289	0.06371013617718736
90	0xbf6507e0cf6b4662	-0.0025672331642930127
91	0xbf726ce71273f497	-0.004498388886756597
92	0xbf9a0d4556cbe99e	-0.02544124929679869
93	0xbfb3778c1b7bd35a	-0.07604289694775215
94	0x3fb646439bc727b1	0.08700964501545518
95	0xbfa2aafd9e842967	-0.03646080551159763
96	0xbfb15308d36f4874	-0.06767325555782283
97	0xbfaaae032fabb4ee	-0.05210885960500798
98	0xbfb0f914cca5cfdd	-0.06630067821771442
99	0xbf926e3d37b5cc9a	-0.017998653912809283
100	0xbfb636196585fcb9	-0.08676298836325004
101	0xbfa4f2f1ab05f035	-0.0409160157459784
102	0x3f6033049d6ed891	0.0019774522911247335
103	0x3fa3e34af4bf37f0	0.038843481422745074
104	0xbfb06d5f411b0e16	-0.0641688856076644
105	0xbf9af6b214696a29	-0.026331694122157998
106	0xbfa47aeedcd08eab	-0.04000040479175245
107	0xbfb701faf0e8b44e	-0.08987396604125417
108	0xbfaf77f2a5911577	-0.06146200438574117
109	0xbfb1afc127f3ecba	-0.06908805108462249
110	0xbfb59bbfcabf1524	-0.08440779399741821
111	0xbf95c9685437b9e9	-0.021276121273268975
112	0x3fa89a32fa126616	0.048051445986129135
113	0x3f60f84585398587	0.0020715101070868966
114	0x3faede4e561b10b4	0.06028981019110927
115	0xbfadb51fc71903ce	-0.058022492460174754
116	0x3fa78c6ff213fe8a	0.04599332647376027
117	0x3fb04002d033d8fd	0.06347673018521856
118	0xbf809287f9ccda32	-0.008091985998914007
119	0xbfa5a8ce3b2eb066	-0.04230350944939758
120	0x3f985bdaaa6d1700	0.023787895824418648
121	0xbf62611b02690354	-0.0022435691383012966
122	0x3fac06501496971a	0.054735662949765465
123	0xbfa0b003d1d98c06	-0.03259288727419833
124	0x3fa5867fcdd81fcc	0.04204177272555362
125	0xbfa4a93f5e6526df	-0.04035375621113046
126	0xbfb3d94cbc02ca3f	-0.07753448095426395
127	0xbf9f3f604adf6a05	-0.030515198297374386
128	0x3fb25db9aea90cad	0.07174263490837758
129	0xbfb2ac0145bc4958	-0.07293708755995476
130	0x3fb0a724950ab9f7	0.06505039824217095
131	0x3fa11173678baad9	0.03333626402839735
132	0x3f9b5be7c713f2e8	0.02671777870726802
133	0x3fa4d5b51f0cffb8	0.040692958870294615
134	0x3fb4255d0f056857	0.07869512192465443
135	0xbfadf37bf37c5f06	-0.05849826190222811
136	0x3fac37d6584e36dd	0.05511350467632579
137	0x3fb57a98f7840d12	0.08390193980089958
138	0xbfb05fe307a82d8e	-0.06396311699807297
139	0xbf77852317c76179	-0.005742203790270011
140	0x3fb585e9e8601b6c	0.08407461093166341
141	0x3fb56bfe166d1724	0.08367908523095174
142	0x3fb5f90bf02accc4	0.08583140004593576
143	0x3fb134e18c0ab73d	0.06721315068236051
144	0xbf9222cd3ad8d488	-0.0177108828704218
145	0xbfa0aa1de9102977	-0.03254788846978134
146	0x3fb5678d044757a6	0.08361131052455892
147	0xbfa2b5531a02e1b0	-0.03653964703102319
148	0x3f9d4f6c954d7ba4	0.028623291599952375
149	0x3fa0c1ea29aff379	0.032729451741011446
150	0x3f851d50292f3c76	0.010309816605426497
151	0x3faffcc9780e5cf5	0.062475486665045134
152	0x3f8cbf85412e1ebe	0.014037171413078805
153	0xbfa0284bce22ee50	-0.03155743495287011
154	0xbfb27ce446fb4658	-0.07221819622943693
155	0x3fa4f23bf234511b	0.04091060000988219
156	0xbfb5d792e8b01db3	-0.08532064610346062
157	0x3faa56613df4382f	0.051440275967351894
158	0x3f508cc49ec22d49	0.0010101242178589146
159	0xbfb7195deac1b783	-0.09023081761708167
160	0xbf995047924007f1	-0.024720304776572225
161	0x3fa3d5ff91138c5c	0.038742052516476305
162	0xbfb421289dffe412	-0.07863096101199599
163	0xbfb6476ea43d6a75	-0.08702746877444574
164	0x3fa6133de10bb514	0.04311555263653069
165	0x3fb6c4e873beacd8	0.08894207788277997
166	0xbfa9d9ce8b33885e	-0.0504898590968572
167	0xbfb0cd2ed51aa964	-0.06563084318864792
168	0xbf89eb56f7121d77	-0.012655906119347844
169	0x3f8f6058a3c30f1d	0.015320484635942539
170	0xbfb42032459a16af	-0.07861627768769595
171	0xbfaab247a36a6f03	-0.0521414172155499
172	0x3fa2422f0585ab57	0.03566119139107709
173	0x3f66b8e96a1f5909	0.002773719680571611
174	0x3faf7d56d7a37981	0.06150313741976544
175	0xbfb5aeab5186ffa3	-0.08469649067319422
176	0xbfb5052f62dc4e6c	-0.08211036838138747
177	0x3f94cd25c1735763	0.02031382554272144
178	0x3f98c7c9c1729c01	0.024199631149397053
179	0x3fa9d683ee53b4ec	0.050464747278832295
180	0x3f971f93ee5bb566	0.022581397460205287
181	0x3faa20fb8638e725	0.05103288663344888
182	0x3f9f1a2f20d96d3c	0.030373321895564617
183	0x3fb3f52074ea5bda	0.07795908789044806
184	0xbfb534883eb823ca	-0.08283282786591353
185	0x3fb304f4ac6f3e0b	0.07429436883762024
186	0xbfa6d79a287015a1	-0.04461366408944945
187	0x3faf02aa3132e42b	0.06056720591136185
188	0x3f95b361e5c21017	0.02119210209686181
189	0xbfb26010e773432b	-0.07177835131302561
190	0xbfb47fb2eddc33b8	-0.08007353121884264
191	0x3f979b9d52dc1381	0.023054559881547036
192	0x3f9b272ff3077d33	0.026516675194099903
193	0x3fb26b3d99256c80	0.07194886197014405
194	0xbfafd45a57a17206	-0.06216699905118976
195	0x3faeb648b033fea6	0.05998446608464052
196	0xbfa51dffbb7f5fda	-0.041244498861203474
197	0x3f9ca1557e22b080	0.027959190200519846
198	0xbf9fcfed89bf20e5	-0.03106661942709445
199	0x3fb3b673734bb08c	0.07700273098788751
200	0x3fac7eb769dc72d3	0.055654269859791626
201	0xbfa53411af14f445	-0.04141288053731577
202	0xbf9f81fc0b2db1b7	-0.030769289190560403
203	0x3f7bbf28d0e211ff	0.006774100720694508
204	0x3fb44b71789bdc6d	0.07927617258597915
205	0xbfb43be7708e0fea	-0.07903906343386749
206	0x3f552134e5057ec1	0.001289655356309469
207	0xbfb10f0a00e3f42a	-0.066635728089708
208	0x3f67bce773568c73	0.0028976936834666455
209	0xbf9e4f39afb8a56e	-0.02959909567849677
210	0xbf8b5958ec2f27dd	-0.013354010303277814
211	0xbfa28647d4b5cfd6	-0.036180729594803715
212	0x3f955c9c2983d3d3	0.020861091646071927
213	0xbfa6c547bc820b00	-0.044473878632762975
214	0x3fa9a0be4b533962	0.05005449933524876
215	0xbfa208573be489b9	-0.03521988493072876
216	0xbf6087ab0352f917	-0.002017816552864048
217	0xbfa9ce9dd4d1e235	-0.050404484013544616
218	0x3f8a51a1e3355cab	0.012851013895369986
219	0x3fafc4221c99b000	0.062043252936604176
220	0xbfa070c0343c6bc4	-0.032110220314471444
221	0x3f8d76e2f917fb89	0.014386914469467065
222	0x3fb5eae6bed981ba	0.08561556014456687
223	0xbfa157f7fa17cdb6	-0.03387427261250357
224	0xbfaaed67c5e67fa7	-0.05259250918174923
225	0x3fb599b0d973b8b8	0.08437638577354079
226	0xbfb57e7c07d7b6d8	-0.0839612502238326
227	0xbf6cb15ded0105ba	-0.0035025438774318437
228	0x3fa0519cc7d662c7	0.03187265338346417
229	0x3fad7c6ca9e43414	0.057589908350657165
230	0x3fb6c2234c416a43	0.08889980899531573
231	0xbf9d8bd9da859f1e	-0.028853801691553042
232	0xbfad2c99c110a8c6	-0.05698090059043319
233	0x3f8bd0b77d852c12	0.013581689374992965
234	0xbf9ac4da03fa476e	-0.026141554348732603
235	0xbfaecb1c39f1f8d3	-0.06014335830058006
236	0x3f95325da4b90998	0.02069994275940132
237	0xbfb7680762790342	-0.09143110422247694
238	0x3faa2b894633273f	0.05111340505534522
239	0x3fb488cb33aac938	0.0802123070850812
240	0xbf9103461ba5bfe7	-0.01661405128237439
241	0xbfb6f9eeca0dc017	-0.08975117142631493
242	0x3fa97904dbc91687	0.049751426533970515
243	0x3f9ab7e549f5ec0d	0.02609213127059822
244	0xbfa298fef23ef9d9	-0.03632351595978251
245	0xbfb07a77a3953f44	-0.06436870330548766
246	0xbfa2d634110dd84c	-0.03679049213580807
247	0xbfa5be61ca577d73	-0.04246812434188998
248	0xbfb4116555e09112	-0.07839043947803173
249	0x3fa379204adb6bad	0.03803349412711241
250	0xbfb1bfeceb69e88c	-0.06933480021862887
251	0xbfafbb96173083fb	-0.061978044825316624
252	0xbfb03cc926a8e414	-0.06342751687851972
253	0x3fab3a03046218d7	0.053176969800050315
254	0x3fb4eecc2388e53c	0.08176875941798739
255	0xbf8bc5c80c5e1c68	-0.01356083190672859

linear2.bias f8 [128]
0	0x3fa432194cca83c1	0.03944472372427966
1	0x3fa7a03cd8d91348	0.0461443915087672
2	0x3fb30180251a9b8c	0.07424164682252704
3	0x3fb325740eee48c7	0.07479024281045375
4	0xbf932f6b3f542c31	-0.018735576381953393
5	0xbf8d40632f0b51fc	-0.01428296553914609
6	0x3fa0362597f0558f	0.03166310767862079
7	0x3fb13f75f999336a	0.06737458556854184
8	0xbf92ff99b3b9af89	-0.018553163141788374
9	0x3f847713a01103db	0.00999274570688329
10	0xbfb5c7f604d5315c	-0.08508241289127255
11	0x3f9fde5337ac3a4a	0.031121540329929233
12	0xbfa1bd02f0f78c68	-0.03464516822330027
13	0x3f994c5a44d4ba46	0.02470532460318455
14	0xbfa46a435b6b55a0	-0.03987322321851683
15	0x3f92344123130535	0.017777459874882957
16	0xbf77fa3b199d3567	-0.005853873118963327
17	0xbfae453b3a31637d	-0.05912194333422514
18	0xbf886622ff9cdcf0	-0.0119135603195972
19	0x3f737249d856ae8a	0.004747665841403079
20	0xbf9b3b4337c68a2c	-0.026593256263035922
21	0x3fa6ac82b40944e2	0.044284901120258416
22	0x3fb00d6e89aaa42a	0.0627049528217333
23	0x3fb066c21a32c3d3	0.0640679658852286
24	0x3fa9aa58c768f618	0.050127767889062536
25	0xbfad70a36fe74ac6	-0.05749998799332938
26	0xbfa72c3c70ca5911	-0.045259369629251485
27	0x3f71212950c3dd49	0.004182015789630463
28	0x3f808ac2c326a62c	0.008077165203604762
29	0xbf9ffff35e7a908f	-0.031249811784292588
30	0x3fb592f32a50dc34	0.08427352698423435
31	0xbfb77d86e2a3b1d7	-0.09175913842381732
32	0xbf9f910a25b29579	-0.03082671980941629
33	0xbfb54f65795a7a4f	-0.08324274265985675
34	0x3f99c161e374a868	0.025151757724565377
35	0x3f91cff00f9c03a9	0.017394782021259356
36	0x3f73e781e583b470	0.004859454544413486
37	0xbfb2984905d3575d	-0.07263618843293558
38	0xbfaa43783b958c93	-0.051296002648791326
39	0x3f74147e56dd3f57	0.004902356636946901
40	0xbfafff7664ef579c	-0.06249589902988292
41	0x3fb1b44716114315	0.06915706909900295
42	0x3fa2c3ed01ec71b6	0.03665104530793732
43	0x3faf9463ad20875e	0.061678995975184434
44	0xbf963f85eb5ab3c7	-0.021726696481596777
45	0xbfb372e48c6805e9	-0.07597187450303235
46	0xbf8f2df9a4fbf3c8	-0.015224409434717048
47	0x3f98fd77a5e1d88f	0.024404401302000663
48	0x3fad552991060f2e	0.05729036231335126
49	0x3fb2c7cc102015d5	0.07336116212544337
50	0x3f9b044081dd2d10	0.02638340752245677
51	0xbf9b5cd9e9721653	-0.026721386788741985
52	0x3fb7c359c78f5ecf	0.09282456514426517
53	0x3fafd598e91da894	0.06217649312641629
54	0x3fb355bf8dc640bd	0.0755271645668953
55	0xbfa2e85a8641e39c	-0.03692896736988091
56	0x3fb657a31c30e726	0.08727473676927086
57	0xbfa772d03dab6f1d	-0.045797832038912946
58	0x3fb4c50894fde5fc	0.08113149297232519
59	0xbfa088b614641d21	-0.032293024052757476
60	0xbf9c1b0986e48487	-0.027446888788408088
61	0x3faa75af8d97c8a6	0.05167912105015775
62	0x3fb672f77db6a4dc	0.08769175357032871
63	0x3fa4761031246f9c	0.039963251112765635
64	0x3f764e2e6f785463	0.005445653332135955
65	0x3fab078c7eb2bb55	0.052791967836461375
66	0x3f90a891bbfcb725	0.01626804075129153
67	0xbf958b3fa45e1f01	-0.02103900376053414
68	0xbfa3139d2c9050a5	-0.03725901764860965
69	0xbfb2e4aa7a3b4817	-0.07380166515511664
70	0x3fab0eaac7876f9a	0.05284627614648159
71	0x3f8052eed909f6b6	0.007970682142736645
72	0xbf967399224fd2a4	-0.02192534706041961
73	0xbf9e7a993acaa67c	-0.029764551366190592
74	0x3fa9f2a2bf133965	0.05067928869685793
75	0x3fa74b4d73b46c8a	0.04549638783847694
76	0x3f78fa2cbe476c93	0.006097960260798579
77	0xbfaf99a9676db29d	-0.06171922099642766
78	0xbfabe0261d1ff5c4	-0.0544444952538288
79	0x3fa38d51930c854a	0.0381875507357657
80	0xbfb3ef59eb2e87e4	-0.0778709601568433
81	0xbfb13165c96d7822	-0.06715999763170591
82	0xbf7f71184cd536ec	-0.00767621509778647
83	0x3fa2385077c47e66	0.03558589422231932
84	0xbf9ec978c6167814	-0.03006542881995962
85	0x3faeaeed003eb1aa	0.059928327827353314
86	0xbfa3237c90c3c29f	-0.03738011614939762
87	0x3fa7e5384ee83745	0.04667068446370463
88	0x3fabcaf17eb8dd20	0.054282709807404794
89	0xbfa2e53708789279	-0.03690502146154002
90	0x3fb722b525532aea	0.09037334595920368
91	0xbfa14d222c39206b	-0.03379160680611978
92	0x3fb2998a292e4f45	0.07265532975571627
93	0x3f7b1e59f32c42f5	0.006620742193960129
94	0xbf981389b3e8c627	-0.023512031179228423
95	0x3fab4edd66651a31	0.053336066007024015
96	0x3fa700cd9d3f8880	0.04492800278218656
97	0x3f80afdc78357a6d	0.008147928637012936
98	0x3f91bea71430b0e2	0.01732884464961238
99	0xbfa325825b4cba0d	-0.03739554752825223
100	0x3fad944999af3196	0.05777196885137241
101	0xbf961ae706d5636b	-0.021586999694906888
102	0x3fb335d7b8065f1f	0.07504032366557255
103	0x3fadd0eb51a35edf	0.05823455211219452
104	0x3f907f7cadf42819	0.01611132442216254
105	0xbfa468cc33c1f074	-0.03986204273039187
106	0xbf9bf8ce6c2b22dc	-0.02731630835731634
107	0x3fb03716e3119f82	0.06334059756920676
108	0x3f8c04cd5f1ce6c8	0.013681034531703232
109	0x3f79378465924bd7	0.006156460928781158
110	0x3fb69ce20200eb19	0.08833134220996576
111	0x3f7e22e87e313878	0.0073575097804462405
112	0x3fabd9e5ac85074f	0.05439679842903777
113	0x3fb0669c23f3bcb6	0.06406570317971014
114	0xbfa0bfe27ee5d490	-0.03271396445317365
115	0x3faae7dad528fa46	0.052550161858097286
116	0x3fad626c3200306e	0.05739153013573249
117	0x3fa7a8113e26892c	0.04620412715600461
118	0xbf9ad19661c5af12	-0.02619013759378592
119	0x3fb044ef0b5095db	0.06355184580078037
120	0x3fa2779f29c2bfde	0.0360688913800684
121	0xbfb153490a2d5b84	-0.06767708300081493
122	0xbfa3d2ade790e148	-0.03871673061115871
123	0x3fa697746e3943f6	0.044124258475342445
124	0x3fa4d566ff2d0f9b	0.04069063057843821
125	0xbfa29f9b768bebb6	-0.03637395689107541
126	0xbfb0a1e0cbddb519	-0.06497006394575457
127	0x3f8e19ef39ca9c68	0.014697903586535513

linear3.weight f8 [256, 128]
0	0xbfa8f9e54438bfc0	-0.048781551912156385
1	0x3f9308d38241b28b	0.018588356805070688
2	0xbfb1564123ea1e95	-0.06772238852328834
3	0x3f5ecb72c353c681	0.0018795605404275109
4	0x3fb1e3a026bebe07	0.06987954088139513
5	0x3fb0da6a2410d7c2	0.0658327425051928
6	0x3fb8ed20fd59b5ae	0.09736829934418864
7	0xbfa7f267530fe6a0	-0.04677126778547103
8	0x3fb3a2929c7b64fc	0.07669941254006923
9	0xbf7cbe3c7d57a73b	-0.007017360961507009
10	0x3fb0e855b6c337e5	0.0660451480100331
11	0x3f94a3272c43243e	0.02015362937598674
12	0x3fb0a7daf8670b5c	0.06506126942171647
13	0x3f7483828cd40fc9	0.005008230172510461
14	0x3fa542b6b420d89c	0.04152461003143168
15	0x3f5b10d8f5b05ea2	0.0016519659755029133
16	0x3fb366fd26cacbc4	0.07579023549150948
17	0xbf7b18371eac6808	-0.00661489039591779
18	0x3f9b3098c967a0ce	0.02655256966855362
19	0xbfa29b60d0de37b8	-0.0363416914907328
20	0x3fbd0cfe4ae4c2eb	0.11347951248604786
21	0x3faba98d59e4907d	0.054027955268140616
22	0xbf9cfbbfcafad09b	-0.028304096950436102
23	0xbfaf074471cbe35e	-0.06060232056729008
24	0x3fa9a215c4d7880e	0.05006473567824808
25	0x3fa7b5f9501a8acf	0.04631022551372654
26	0x3fa10c21c5ae260c	0.03329568422402582
27	0xbf95d67183030f3c	-0.021325849171957886
28	0xbfa5b8c26dbd6216	-0.04242522801968478
29	0x3fb12cfac919c7dd	0.06709258470235065
30	0xbfac3d3bb6eb2d2d	-0.05515467269796157
31	0xbf9a77078456d659	-0.025844685985893488
32	0xbfadfc5d9176182d	-0.05856602097178185
33	0xbf7059b81c331bd8	-0.0039918128779338966
34	0x3fb9d21ead23a951	0.10086242415460346
35	0xbfb59952878cd1c8	-0.08437076386764553
36	0x3fb48c1bad664bcd	0.08026288016689805
37	0xbfa3144101d83240	-0.03726390025631021
38	0xbfa199d1a6f5674c	-0.034376670485200295
39	0x3f9b96a833b9d58b	0.026941898495768817
40	0x3fb333186a24d239	0.074998403467199
41	0xbf9a206864c4035e	-0.025514250898598483
42	0x3f75b161db841e99	0.005296118026542417
43	0x3fb58f78859963fd	0.08422044049929407
44	0xbfb3b11b572300b1	-0.0769211852775722
45	0x3fb82bfe05a074ce	0.0944212688195478
46	0x3fb1490c5f851d0e	0.06752087909727697
47	0x3f5f2c34a0736e01	0.0019026292737213126
48	0x3f5a33a600013505	0.0015992280095987199
49	0xbfa8568ba00d426e	-0.0475352890849806
50	0x3fb33f4be215bf95	0.07518457669880114
51	0xbfad428498746836	-0.0571481166936824
52	0xbfb5c7dc893716b7	-0.08508089399318917
53	0x3f9c9f62e6bb42a2	0.02795176060937144
54	0xbfb8155694d8fbfb	-0.09407559522604451
55	0x3f9abfed9bea81c1	0.026122772828445443
56	0xbfa3c40db200eee7	-0.0386051444806677
57	0x3f923dec33cf9454	0.017814341223033672
58	0x3fb1759bbc1e71db	0.06820081084010303
59	0x3f8109a44849ca41	0.008319171386777959
60	0x3fb127badae3cb7d	0.06701248020162427
61	0xbfa9911024cc13b8	-0.049934868327944526
62	0x3fa41c87794eb164	0.03928016048243668
63	0xbfb75c512203fab5	-0.09125239448983787
64	0x3faa77e2f86fee3f	0.05169591219597835
65	0xbfb4a764e21619e4	-0.08067923087774137
66	0x3fa3d2e3123c1f2d	0.03871831510156052
67	0x3f74cb7f888d8f31	0.005076883485205561
68	0x3fb5000e44ce5a60	0.08203210048518761
69	0x3f9762bcea73d659	0.0228375928972667
70	0x3f9ca60e128ac0c7	0.027977199441637148
71	0x3fb12896b91a6030	0.06702558535687397
72	0x3fa66a4cb7d68df1	0.04377975219838593
73	0x3fa13251cda71dd1	0.03358703265581265
74	0x3f8fac8ff1395213	0.015465855168408848
75	0xbf733ba5fc6c79b5	-0.004695557005815966
76	0xbfb0278c3e8e44eb	-0.06310345198859905
77	0xbfb4fc7ec0518bf1	-0.08197776980664152
78	0x3f93da63c1a1ea0f	0.019387777989758045
79	0x3fb4ff4cdc7c3a2c	0.08202057249966604
80	0x3fa3c12e37e5647e	0.03858322555851944
81	0x3fa3efd4f0c649b4	0.03893914641516308
82	0xbfae31fc3daf231f	-0.058975107698250755
83	0x3f8af7da3c6c25f4	0.013168053597399677
84	0xbf952d97cd8684ee	-0.02068173591545002
85	0x3faa20d9c3efe9b4	0.05103188053904564
86	0x3fac8a7a054633e7	0.05574399294264492
87	0x3f8168299f34bfd9	0.00849945561512293
88	0x3f93dbc3a861dc2c	0.019393021728742507
89	0x3f8ad0bb6ca258e9	0.013093437435867066
90	0x3f96e7001051bb64	0.022365571018265654
91	0x3fa33282e4d002a9	0.03749474566575845
92	0xbfa2efa0dadf6bbf	-0.036984469144690994
93	0x3fafcb83d2941afc	0.062099570708644664
94	0xbfa13e87f2fb09ac	-0.03368019906112649
95	0xbf6b701cd63b1cda	-0.003349357912017942
96	0xbfa77b8c96ca0553	-0.045864480406644724
97	0x3f9fd2b2e98daa66	0.03107718992706978
98	0xbfa4c92d2c0d1074	-0.0405973545335038
99	0x3f8f0102627082ad	0.015138643864760349
100	0x3fa4af4678821760	0.040399744234533186
101	0x3fa71b9136c1566d	0.045132196363437106
102	0xbf97ed9e1a68fbfb	-0.023367376672691603
103	0xbfa39dbb814015bf	-0.038312778022411724
104	0xbfa1112a5204272c	-0.033334085952516496
105	0x3fb4c89cb4bb42e7	0.08118609821691401
106	0xbfb87b7c0ed13475	-0.09563422548053942
107	0xbfaed97b04f86449	-0.06025299487755171
108	0x3f9d013f09fcef87	0.028325066551800695
109	0x3fb1cd9ad375e3f4	0.06954353010759445
110	0xbfa1cd114f54a8b6	-0.03476766675369573
111	0xbfb3b2af6d37b0a8	-0.07694527069515067
112	0x3faec48e7a042bb8	0.060093357462469965
113	0x3f7106257716dc95	0.004156252239616927
114	0x3fa60c600911a660	0.04306316481308836
115	0xbf853bed4f90ab4c	-0.01036820792258699
116	0x3fb4d2f1abebcfe7	0.0813437504510258
117	0x3f956f484c84e2ef	0.020932321234087444
118	0xbfb8b55b33becb1d	-0.09651727689087548
119	0x3fb4e3bebc94b177	0.08160011390709153
120	0xbf783c6c32f347cc	-0.005916998531761263
121	0x3fa242b025d85744	0.035665039653550085
122	0xbfb06724342e7d19	-0.06407381319012408
123	0x3fb72c57d2d82d15	0.09052037141389165
124	0x3fa2db58f348895c	0.03682973832862288
125	0xbfafa890cd00f2af	-0.061832928681245895
126	0x3fb25cf8a8394a12	0.07173112971330678
127	0xbfa6f73083b92216	-0.04485465629528933
128	0x3fa5ed772a797fbd	0.04282734292496524
129	0x3f7da5472b09a237	0.0072376995090981866
130	0xbfb5789b83406692	-0.08387157396682657
131	0x3f8f91f85e76f45f	0.015415134795029482
132	0xbf7ae79a8794a730	-0.006568530684754312
133	0xbf934daf87c989ab	-0.018851034796520654
134	0xbf97fd5b1870eb60	-0.023427413336530534
135	0xbf8b7c21ff5ef6e4	-0.01342035828190142
136	0x3f9976ca7f573736	0.02486721422410839
137	0x3f9f0e9c88eb5ca7	0.03032917581262198
138	0xbfb108feb311babc	-0.06654350158508299
139	0x3fb878a7efc88249	0.09559106449206313
140	0xbfb0242df74d92ef	-0.06305205619498698
141	0xbfb9481e5dcc9e26	-0.0987566927911919
142	0xbface94d4f7790ac	-0.05646745295578745
143	0x3f94bc7c7cc4fa96	0.020250268092463296
144	0x3fb4c7e9e87757c8	0.08117544103092122
145	0xbfae4292ae42a934	-0.05910166146471099
146	0x3fa5616b8f9f6e4c	0.04175888183791851
147	0xbf8a56cab911dd4d	-0.012860854885942042
148	0xbf89bc9a3f961d5c	-0.012566762032988059
149	0x3fb785719cc532c9	0.09187994077110341
150	0x3fb2b96684ad1c47	0.0731414865414176
151	0x3faa22a904cdd4d4	0.05104568656580857
152	0xbf9e461df7f6299b	-0.029564350375531494
153	0x3fb9a0233f894259	0.10009975720573418
154	0x3f68b0463af4ad00	0.0030137416539638417
155	0xbf9f4836d372a7fe	-0.030548912673715727
156	0xbf8fa22e612a6fe9	-0.015446054783119183
157	0xbfb55cef1154a248	-0.08344930813894635
158	0xbfb3323b78c064e2	-0.07498523424182538
159	0x3faf593f1cfeb0ff	0.06122777203504092
160	0xbf929c2ee112207d	-0.018173916327697704
161	0xbf8bedecd6b4c87e	-0.013637399961769821
162	0x3fa3e887cd127ff3	0.03888344171832605
163	0xbfae4d0e1c0ccb42	-0.059181633876866716
164	0xbf9b941c01bb7ec3	-0.026932180028665053
165	0x3fb92c00f3296aa9	0.09832769333426462
166	0x3fac088acb891273	0.05475267157138299
167	0x3fb5941a40e2606d	0.08429111560906373
168	0x3faea14159bcaea8	0.05982403011725285
169	0xbfae30ee4d06fe36	-0.058967062857388106
170	0xbfa64fdb6cfd9bf2	-0.04357801156475451
171	0xbfa261e092a6a498	-0.03590299406216352
172	0x3faefda5f31fdcb0	0.06052893250301261
173	0xbfb7a6bb7bc311cf	-0.0923878838685319
174	0x3fbf22e3bbab2250	0.12162612277746487
175	0x3f817b9cf30ac8f4	0.008536554495865968
176	0x3fb14a7711b59576	0.06754249746662375
177	0x3fa2838ed39d0ff7	0.0361599572484294
178	0xbfa23e70d9af2263	-0.03563263566281163
179	0x3fb3ea09605a82c4	0.07778986551648887
180	0xbfa4f99a54db11cf	-0.04096681867443729
181	0x3fa8a263fed1ec83	0.04811394200893295
182	0x3fbbfcf2cf253f63	0.10932843739760538
183	0x3fa67643b04f25a6	0.043871035835376035
184	0x3f776b81f34e5dd7	0.005717761629873994
185	0xbf884dcb01ee5d10	-0.011867128368790364
186	0xbfa479bdb8f7063b	-0.039991310909965404
187	0x3fb24a37a0454e25	0.07144496596202339
188	0xbf912269c2951119	-0.016732838155136685
189	0xbfb1be237b5ebe45	-0.06930753480877978
190	0xbf79196928b02f10	-0.006127749230482996
191	0xbf9795a4913223bd	-0.023031779634525174
192	0x3f8d4170503d13cf	0.014284970711409798
193	0xbfb3b3f464362425	-0.07696464010781819
194	0xbf9f183e16a749ae	-0.030365915424974403
195	0xbf7b27a791ebeafd	-0.006629614420257776
196	0xbfacd9671f3ae6a3	-0.0563461518881472
197	0x3faf88559931eae1	0.06158702368789704
198	0xbf9511fd81b60b9f	-0.020576439897478257
199	0xbfb46e1378cfe4bf	-0.07980462741388104
200	0xbfb26953cdc3e9e2	-0.07191966794554319
201	0xbfa33fc9ae6190f6	-0.03759603742290267
202	0x3fab6b03385b93ed	0.05355081618271371
203	0x3fa833e7e9fcb7ae	0.047271010697257906
204	0x3fac5aed35d08e92	0.055381214923071145
205	0xbfac4cb2e46d3024	-0.05527266539010636
206	0x3fb55f180d7770f7	0.08348226860784168
207	0x3fb67c30fa76f70a	0.08783250918255817
208	0x3fad98d7c7a3599b	0.05780672370899539
209	0xbf83f39b646b82bd	-0.009741987230371557
210	0xbfb42738b35b76c0	-0.07872347239341604
211	0xbf915a315ed015a7	-0.01694562092963783
212	0x3fab4c1cdde7cb4f	0.053315069282595766
213	0x3fae6f0a630b8c76	0.05944092234656122
214	0x3fb8b113f4cd956e	0.09645199514996758
215	0xbfae4ac230a7ca48	-0.05916411251009329
216	0xbfa670b20d7d8227	-0.04382854857135881
217	0x3fb9540960f713b5	0.09893854729950997
218	0xbfb202969c510bbb	-0.07035199467013246
219	0x3fb82a40540ead8f	0.09439470340901422
220	0xbfa44a1b0ee8222d	-0.03962788159339357
221	0x3f8dd70ac5714c7e	0.014570316458195839
222	0x3f653f1370cd5bbc	0.00259355351446852
223	0xbfaeaf9d9a946e10	-0.0599335910030413
224	0x3f976d4bb0149d8e	0.022877867338278395
225	0xbf8169981d4ca797	-0.008502186197421753
226	0xbf9d3613f4806646	-0.028526603506270364
227	0x3fab74a23c56ea50	0.05362421976629561
228	0x3fad494d6879e00c	0.05719987774222099
229	0x3fa6fc3e83459798	0.04489322044791705
230	0xbfa8ff69af6ffa8f	-0.048823645272922815
231	0xbfbbede5cf0979ed	-0.10909878067602792
232	0x3fb02665867c84a6	0.06308588536605217
233	0x3f6237c2fcc35e22	0.0022238548609541256
234	0x3fa2abb003878111	0.03646612208445011
235	0x3fa1bfe3bb13c48e	0.03466712626130529
236	0xbfb31f15b9418063	-0.07469306729172014
237	0xbfaa0eede8636bb6	-0.05089515172740937
238	0xbfaeaea4f2f4b23d	-0.05992618051309193
239	0x3fa8924e8e819098	0.0479912327726037
240	0x3fb1fd5a078e9b40	0.0702720898103566
241	0xbf9a904cd8f7bb04	-0.02594108652368289
242	0xbfa2be42e7ebcb0c	-0.03660782891338074
243	0xbf88e9e8b3a323e4	-0.012164895994276344
244	0x3fa4f017a1ad152f	0.04089425896249065
245	0x3fb44b9da4e62525	0.07927880550245854
246	0x3f98b3abc4c73c8a	0.024122890363113693
247	0xbf9cef86c35c109e	-0.028257470773511366
248	0x3fad23e3156b6d83	0.056914421429350014
249	0x3fa939590e5a0aac	0.04926565456573448
250	0xbf9931bb349614b0	-0.024603772244081668
251	0x3fa99b0fcc5966c7	0.0500111519765603
252	0xbfa16915b4121491	-0.034004858237531306
253	0x3f688be1acd1ae29	0.002996388217572994
254	0x3fb2fb04ddf5b0a6	0.07414274615229263
255	0xbf86380bfc041a2c	-0.010849088314455711

linear3.bias f8 [256]
0	0x3fa693d6309d5e93	0.044096654352583496
1	0x3f96ff9dbefa6fd5	0.02245947340144013
2	0xbfb139b8d52be906	-0.06728701786406441
3	0xbfb70fb44616659a	-0.09008337699051197
4	0x3fb24c4fa13e5672	0.07147691427811667
5	0x3fb04436906a5bf6	0.0635408499314137
6	0x3fb577b8dfb4e209	0.08385806523882179
7	0xbf9985dab9d610bf	-0.024924676506558493
8	0x3f931076170d9dfa	0.018617482335143244
9	0x3fa64131ee0a7a83	0.04346614866993994
10	0xbfbaecc108802442	-0.10517507989438094
11	0x3fb071ee637a9475	0.06423845223123854
12	0x3fc8f4709d4a14f4	0.1949597137465059
13	0xbfa7d9ecc0e33b9f	-0.046584509416440094
14	0xbf915f41a81e8035	-0.01696493710153409
15	0x3fb744593b36cebb	0.09088666625649015
16	0x3f6a587c8fd74db7	0.003216021809501614
17	0xbf733d7bff3ebb88	-0.004697307933311808
18	0xbfb627f760fa6e8a	-0.0865473377002052
19	0x3fbffa36214d9b80	0.12491167367043765
20	0xbfc21146e314d58b	-0.14115224922140288
21	0x3fb4f8bf84326710	0.08192059495413795
22	0x3fab6d5b4299c0d6	0.05356869876857366
23	0x3fa0a37c17d5dbd9	0.03249728957137394
24	0x3f93568ad51d083b	0.018884820229921422
25	0x3f6e6ebda42ee8ce	0.0037149146969258423
26	0xbf75d9167df46706	-0.005333984240928796
27	0x3f9863d310eedb46	0.02381830015994104
28	0xbf7ab81252aaf942	-0.006523200582419899
29	0x3fc096f7ac034a21	0.12960716151299415
30	0xbfa91f8425e0ce8b	-0.049068574546621134
31	0xbf4457338cd8cdba	-0.0006207467756155695
32	0xbfac85e8994c5b6c	-0.05570914145771763
33	0xbfb8f95e48cf877a	-0.09755505826572444
34	0x3fb0faba50619048	0.06632580244473829
35	0xbfb03f2738c558ec	-0.06346364151008616
36	0x3fa4fb663708aac7	0.040980524271011336
37	0x3fbc21b739ed53f3	0.10988946117625158
38	0xbf90d4ac5b1f0663	-0.01643628412398924
39	0x3f82368bd672f06a	0.00889310119816163
40	0x3f86b0c7628756bf	0.011079366392475419
41	0x3f4c081360b553af	0.0008554548852922529
42	0xbfa2a006f1c3d644	-0.03637716008408323
43	0xbfc66046675cf912	-0.17481308028249792
44	0x3faedbe9d0b836cb	0.06027155564161787
45	0x3f89ec37f05bf7dd	0.012657582304651466
46	0xbf7abf749825a21b	-0.006530242392138531
47	0x3f84fa2e6bd259aa	0.010242808022934497
48	0xbfb67815a63a9593	-0.08776984508820922
49	0x3f8af661bc335c82	0.013165248447349013
50	0xbfb1562cd34c4252	-0.06772117766036814
51	0xbfaf0c57d916c641	-0.06064104580890418
52	0x3f478ba38c63a189	0.0007185505462788271
53	0x3f8b2213ce3d8670	0.01324859116693064
54	0xbf9acb9ea4fceef6	-0.0261673725319573
55	0x3fa35ed36a5d2de8	0.03783283875835847
56	0xbfa336ee41f9993b	-0.03752846293791597
57	0xbf8f2169eaebacfc	-0.015200450402935044
58	0x3fb2914265c43fc1	0.07252898201500015
59	0xbfb75c5193571290	-0.09125242087527341
60	0x3f810d69bfa6f5de	0.008326364671002059
61	0xbfa8c4e67bd8e036	-0.04837723027998246
62	0x3fc0fc8b8af2f3fb	0.13270706448193423
63	0xbfb244fb13a771a3	-0.07136506299816019
64	0x3fb31ccf82566f50	0.07465836460181419
65	0xbf30a53b4954e02d	-0.0002539891950905673
66	0xbfb0bcf5adb7417e	-0.06538329592809153
67	0x3fc76d8425435f85	0.18302966899386433
68	0x3f7822c39480f91b	0.0058925285193807365
69	0xbfb09011800427aa	-0.06469830871006246
70	0x3f9536dbd8b4f479	0.020717082120644357
71	0xbfa699b8eab9a770	-0.04414155831621158
72	0xbfa26a7076f0a1d0	-0.0359683175268547
73	0xbf90770aadf9b8c7	-0.016079108112926812
74	0xbfa78dd0daa4c378	-0.04600384396542884
75	0x3fa412da412ba12e	0.039206333594679385
76	0xbfa9abc9462fee1b	-0.05013874990251229
77	0xbfa7c984a4d8dd99	-0.04645933639806827
78	0xbf815e79b5f646bc	-0.00848097883752829
79	0x3fbe4e21c80bd3ba	0.11837969907703796
80	0xbf9684c6b6e7229d	-0.02199087611532723
81	0x3fb91b6dbcf933d1	0.0980747782097773
82	0xbf9bc706d79e71cb	-0.027126414213499744
83	0xbf9d900fc661f1a4	-0.028869863971054635
84	0xbf60f6d990233eee	-0.0020708321836549947
85	0xbf858f0a625e4bee	-0.010526734473193824
86	0xbf9f8b17665c29f2	-0.03080402910476638
87	0xbfc0ec2f772f12c0	-0.1322078067734278
88	0x3fb0ce9466c45daf	0.0656521559616212
89	0x3fa6a8fd22211e5a	0.04425803224199561
90	0xbfb47c359b53669e	-0.08002028505452549
91	0x3fba73247ad90c45	0.10331943511214188
92	0xbfa37bbe4422a509	-0.03805346090059387
93	0x3fb879996ed7d03d	0.09560545879486511
94	0xbfa86f68dd8a0ccb	-0.04772498802506105
95	0x3f49b5f555a5f490	0.0007846305773423646
96	0xbf9033af4148b295	-0.015822161063783275
97	0x3fb49ed8b828ac9d	0.08054880615297795
98	0x3fa3acc8f6dd3a46	0.03842762006262439
99	0xbfc04ccfa56699cc	-0.12734408928117913
100	0x3fb567bb3b3208a0	0.08361406512452385
101	0xbf96dbd80127fa84	-0.022323012419287483
102	0x3fb51aace80caef2	0.08243828454277116
103	0xbfa3b38a06c9f162	-0.03847915013190818
104	0xbfa4cb64d1f196e0	-0.0406142717627469
105	0xbfa529d3644a346a	-0.041334730141081646
106	0xbfb46cbffa778abc	-0.07978439202228577
107	0xbfadcfed22c919fa	-0.05822697686794594
108	0x3fb745fb0e978bfc	0.09091157060861116
109	0xbfac9c17d3c16719	-0.0558783956518722
110	0xbfb8ce291f7ca3c1	-0.09689576166841986
111	0x3fc6f345c8de134d	0.17929909046156425
112	0xbfa06228c26f3ba6	-0.031998895392113355
113	0x3fa2ece4387c15fc	0.03696358861456514
114	0x3faefe0f549c2401	0.06053207309566489
115	0xbfabed04145a42b2	-0.054542663082547974
116	0x3fc4f67ffad4968e	0.16377258060054029
117	0xbfaade0031be3360	-0.052474981376781527
118	0x3f9148ff989717fe	0.016880029381148624
119	0x3fa3db0f7c0d1e29	0.03878067387864476
120	0xbf7b66cd272e7424	-0.006689835909949902
121	0xbfc05cdddda00da7	-0.12783406564277053
122	0xbfba387cb6e3da31	-0.10242442574585976
123	0xbf7da562a9e37353	-0.007237801937859017
124	0xbfa97a8cb9ce6e2a	-0.04976310508865496
125	0x3f770d9f68588219	0.005628225980701029
126	0xbfb24cd889e44136	-0.07148507467741613
127	0x3f33f4416d6a3c71	0.00030447575901688175
128	0x3f56fe1d1a034aa3	0.0014033588595806854
129	0xbfb0a6c8740631df	-0.06504490692731889
130	0x3fa15dadb6150c1a	0.033917835690339085
131	0xbf820e00e69eaf56	-0.008815772092780765
132	0xbfb200b22ad75c72	-0.07032311960152685
133	0x3fa5cf4e8bfa816a	0.04259725054476145
134	0x3f57d2061ffaf025	0.0014538821996401632
135	0x3f91c124e700f2c5	0.017338348960253897
136	0x3f5a08b2d92d178b	0.0015889879766332906
137	0xbf7e13fb9b122b51	-0.007343275866456293
138	0x3fa106fec5c3951b	0.03325649417983297
139	0x3f8fb64df4377614	0.015484437003517683
140	0xbfa4ef51b148baf9	-0.040888359919668056
141	0x3fb5e2dacbf250f3	0.085492777625692
142	0xbfb65f11bc5e7bbf	-0.08738814209799182
143	0x3faa1f9d8a199c52	0.051022456272044395
144	0xbfa753f68cdbf5f1	-0.04556246251557273
145	0xbfa4ebbc0b43aa9d	-0.04086101186279232
146	0x3faa0be7aea89ff7	0.050872078009263015
147	0xbfab82c0fff135eb	-0.05373194813055789
148	0xbfb441efe03336d3	-0.079131118999807
149	0xbf76d7e02470d798	-0.005576968723337482
150	0xbfa93d49210661b1	-0.04929569748054819
151	0x3fb452f8c1952238	0.0793910477269798
152	0x3fa115c6e57b1358	0.033369269860066
153	0x3fa1e1707c52b261	0.034923091102744726
154	0xbf864c3475f57f9b	-0.010887536859342897
155	0xbf9ebd8fcb18d765	-0.030019995471057288
156	0xbf8958cbf554ba8d	-0.012376397537619677
157	0x3fb15e2dfe31b1f9	0.0678433175650709
158	0x3fb720974b771073	0.09034104912194767
159	0x3f9c3abc32292943	0.027567806779452707
160	0x3faefd21c949957f	0.060524993725986846
161	0x3fad96910f12d0db	0.05778935727122
162	0x3f9c22eb0dade0f4	0.02747695227614684
163	0xbfb256ea3aef31a6	-0.0716387170679754
164	0x3fa66dd65ad1730b	0.043806742273522735
165	0x3f8a45beaf8602d5	0.012828340274383102
166	0xbfaf4e88e042bfbf	-0.06114604699666825
167	0xbf964d51cf8a28d1	-0.021779325763909455
168	0x3f7fee10dee26da6	0.007795396710345603
169	0x3fa84d42379cb19d	0.04746443680628263
170	0x3fb0a18ea76f3c6a	0.06496516788250664
171	0x3fa43d98f7125e8c	0.03953245178234707
172	0xbfb3ba0adcf67b0f	-0.07705753225898725
173	0xbfae7500cecca8fd	-0.05948641323478119
174	0x3faa896866854f03	0.05182958842729415
175	0x3f2edcf681cce230	0.00023546704405831695
176	0xbf884735c3d8f114	-0.01185457233361168
177	0x3fa86754539ca2cd	0.04766334076550081
178	0x3f7d5a0bdbecb2ca	0.007165952991994027
179	0xbfb35954015611e6	-0.07558178932783441
180	0x3f96eba6a62000f7	0.02238331211992858
181	0x3faa5fd788316c8c	0.05151246583474131
182	0xbfa0a4e84f8b34bb	-0.03250814410203292
183	0x3f77d8a1854be657	0.00582182973880093
184	0x3fb00639c7ef7f60	0.06259499675024705
185	0xbfb35dfc70e122e7	-0.0756528640350883
186	0xbfb20e6c46a340e9	-0.07053257679513404
187	0x3fa4d8bfdd59f432	0.040716167231018466
188	0xbfb2781a79d78e89	-0.07214513277681979
189	0x3fab2c177706b8e5	0.05307076766927014
190	0x3fb2b6b4e6642520	0.07310038208756398
191	0x3f92d0aa86c6127f	0.018374123073515932
192	0xbfb6086d372e490c	-0.08606608006656219
193	0x3fb4d62e1dab4c1c	0.08139312958091732
194	0xbfb287c48a870835	-0.07238415128725324
195	0x3fb5ad32cd3d478e	0.08467404852606661
196	0xbf97fcbd7e18f4d3	-0.023425064870242828
197	0x3faf53139cb15d26	0.06118069923166507
198	0xbfacccdb7955c1e0	-0.05625043731822976
199	0x3f6999eba36478cb	0.00312515280815182
200	0x3fa87f16eb9c0ecc	0.04784461618512878
201	0x3fb0b79267a3f9f2	0.06530108480726662
202	0x3f385641fd946b30	0.0003713523015719698
203	0xbf99b56bfba56a3d	-0.02510613177705977
204	0xbf6cfdddd6409b22	-0.0035390217544945127
205	0x3f842041829a8abe	0.009827148245056146
206	0x3fadbd390cde6cfc	0.05808428079691372
207	0xbfadb9bef5e50f42	-0.058057754055453006
208	0xbf8daaac172aa7df	-0.014485687691678293
209	0xbf760314c6df837e	-0.005374032172739683
210	0x3fb2c1f56124864e	0.07327207204482386
211	0x3f651cfa97d9ae6f	0.002577294769073472
212	0x3f682f0d0e7c9352	0.0029521231662265413
213	0x3fa44722a686c8b5	0.03960521967691603
214	0xbfa75d3c44fc806d	-0.04563320486181586
215	0xbfb00acc8466d917	-0.06266477806534386
216	0x3fb0eb58cbcce77c	0.06609110808940771
217	0x3fb60937064730d3	0.08607810881875659
218	0xbf8f5170e2e3c991	-0.015292055057646777
219	0xbf7eb077f2396c8d	-0.00749251226406068
220	0x3f852168ff562e18	0.010317631046539197
221	0xbf770e46513afe46	-0.005628847767809092
222	0xbfa2651164a7d8aa	-0.035927337204996704
223	0xbfae2ae2b01f4f55	-0.05892094039850685
224	0xbfb3c7bd3fe4c012	-0.07726652917767776
225	0xbfa14173d5a73db7	-0.03370248778412182
226	0xbfa5d4a1493fc62e	-0.04263786334184903
227	0xbfb35dd02a981fb6	-0.07565022506616867
228	0x3f6a268e998bd44b	0.0031922135498186114
229	0x3fb0af6623a44613	0.0651763760581832
230	0x3fb68d76bede2e39	0.08809606704579033
231	0x3f85a69133e92fc8	0.010571607968039035
232	0x3fb4d115ce8ae348	0.08131538670103311
233	0x3fb5df1d05293f3f	0.08543568969730318
234	0xbfa121428568ab3b	-0.03345687750364453
235	0x3fb4291c3289da4d	0.07875229104852473
236	0xbf7770d11c6d33cc	-0.005722824897770939
237	0x3f8f7181428413f3	0.015353212206273148
238	0xbfa469ce32211067	-0.039869731539995006
239	0x3fafcb96da88bd4b	0.062100137878923954
240	0x3fb0e4d02bb9ec71	0.06599141185317749
241	0xbfa4e5dfc3a498b3	-0.040816300041386276
242	0x3fa2a5588fb8cd07	0.0364177394334551
243	0x3fb5cb956539f851	0.08513768884037744
244	0xbfa24ed3d571c45e	-0.03575765591166012
245	0xbfb57e8706f78828	-0.08396190567103246
246	0x3f7fc239e7d4f57e	0.007753587907527558
247	0x3f95f51697732251	0.02144274997115964
248	0x3fb5537f7a2233fb	0.08330532771851999
249	0x3fa69353ab85bee4	0.04409276455669245
250	0x3fac979a4f94cd2d	0.05584413739634395
251	0x3fa874f01e944d4c	0.047767165882897616
252	0xbf9cbdc2c6375a21	-0.028067630146177195
253	0xbf723ac0dcc60c75	-0.00445056282876798
254	0x3fb0d78c05dca39a	0.06578898566352934
255	0x3f8e08ca68809847	0.014665204347760986
