ptlpinns/models/train/underdamped_k12/model_underdamped_k12.pth (torch, 452963 bytes, 31 tensors)

fourier.B f8 [16, 1]
000000 4b c2 e3 5c f2 2a d7 3f 12 6e 1f 95 0f a7 e4 3f
       0.3619962603689017 0.6453931725076834
000010 f5 70 22 ac b0 43 e2 bf 52 4e c1 c3 a5 45 ef bf
       -0.5707629549029024 -0.9772518943158934
000020 66 62 93 51 fc db cc 3f 36 f2 70 d0 0b c4 e1 bf
       0.22546342833699667 -0.5551814147107226
000030 f3 33 1c 07 3c 76 a0 bf 67 fe 08 0e 22 1d 02 c0
       -0.03215205752176322 -2.264225110673397
000040 40 22 93 c7 d4 ca fb bf c3 11 92 9d 2d 05 c3 3f
       -1.737019328678926 0.14859552568317555
000050 64 aa bf f0 9b bb c3 3f d8 8b 15 a4 90 30 d4 3f
       0.154162876656602 0.3154641725906777
000060 b9 6f b7 27 48 53 f4 3f 33 6f 41 1e f4 2a e7 bf
       1.270332484381454 -0.7239933577470538
000070 ca 72 6c f9 95 ce e9 bf e4 31 f6 b8 1e fd ee 3f
       -0.8064679976992803 0.9683984386952571

linear1.linear.weight f8 [128, 32]
000000 e3 ec a3 ae 79 40 a1 bf 00 9e ae 5a 3f 5f c2 3f
       -0.03369503266181952 0.14353172233425937
000010 c2 c7 73 4a 2c 0d 89 3f 41 85 ee 14 95 f4 bc 3f
       0.012232156774618978 0.11310703049686756
000020 40 5a 8a 65 bd a4 cc bf 0d 82 7a 77 ea ae ab bf
       -0.22377746065167692 -0.05406887730100971
000030 01 a5 e8 cb 8c e3 a5 bf cb 03 dd 9d 2e 75 ad bf
       -0.04275169362183285 -0.05753465344469751
000040 c6 c0 11 c7 45 ac bc bf ec a0 12 f3 9e ab af 3f
       -0.11200367078868387 0.06185623852917552
000050 ae 89 d7 a2 90 b5 d2 bf 3d 64 d7 d1 35 5c c4 bf
       -0.2923318472150197 -0.1590640329948502
000060 02 59 74 b3 c0 3d b7 bf bc 68 86 50 c7 17 c8 bf
       -0.0907860220071122 -0.18822566444288735
000070 e7 78 a5 36 b4 99 bf bf 3c c2 f5 87 26 54 bc 3f
       -0.12343908628597298 0.11065903491340462
000080 03 b5 d2 81 bb d9 b1 3f 6c 09 a5 69 1f 1b b5 3f
       0.0697285835219255 0.08244510964599322
000090 86 b2 cb 0f 04 16 c3 3f b5 86 4b 8f b2 5f b6 3f
       0.14910937091135085 0.08739772795118024
0000a0 fe 0c 37 20 0f 9f b5 bf ff 05 a6 e1 13 f5 92 3f
       -0.0844582990312581 0.01851302208661387
0000b0 18 c5 78 1a cf 78 c6 bf f5 97 ff b4 fe 3b b7 bf
       -0.17556179802480965 -0.09075920027643732
0000c0 dc 8c 9f 3f ec 1c 92 3f 4d b4 80 b0 41 1b cc bf
       0.017688456900839408 -0.21958180540369412
0000d0 07 51 68 d7 34 a4 bd 3f 69 77 46 65 7b 37 c1 3f
       0.11578684100124202 0.13450567669945748
0000e0 70 c0 d6 56 50 75 b4 bf 1a 25 78 af 2d 11 c2 bf
       -0.07991506691064543 -0.14114924495542241
0000f0 63 fe a9 70 96 9f c1 bf 84 26 bc 21 11 5b b3 bf
       -0.13768272877858853 -0.07560832093818176
000100 65 1c 09 ae 75 fc d7 bf 7f dc 39 a7 d5 03 c9 3f
       -0.3747839164320282 0.1954295221837334
000110 5b 90 b7 75 f7 17 be 3f 1c 50 50 44 d5 e1 bb 3f
       0.11755320190383271 0.10891468923392761
000120 60 7e d8 5a e6 08 c9 3f f4 c5 92 05 d2 84 c8 3f
       0.1955841010649122 0.1915533568585911
000130 ba 2e 1e f6 f1 4b d9 bf 06 e8 68 a5 fd 58 a1 bf
       -0.3952603248114702 -0.03388207096254807
000140 82 37 b4 0a d9 51 a1 3f b8 80 45 06 ec dd db bf
       0.03382757430709572 -0.43542004215670316
000150 99 b5 f8 f8 be ee d9 bf 32 ed fe 82 6d df cb bf
       -0.4051968985903272 -0.21775597473411207
000160 14 7a e0 77 bb d1 99 bf 7b 15 95 14 f9 86 d2 3f
       -0.025214127723410654 0.2894880963325119
000170 14 04 20 5a dc 5a b5 bf 66 bc e0 be 88 74 74 3f
       -0.08341767502135183 0.004993948137822368
000180 a2 5f fa 08 e8 30 9a bf be 9f 39 56 1e ad 6f bf
       -0.025577188060736618 -0.0038667290225937448
000190 97 32 d1 9e 0b 14 b3 bf 35 8b ee d3 78 40 be 3f
       -0.07452461840984835 0.11817126440159316
0001a0 ff c5 0d 96 d0 f7 c5 3f 4f e2 cb 53 ba 71 c4 3f
       0.17162520720334837 0.15972069827673116
0001b0 81 7f bc 45 f5 41 d1 3f b8 ea 25 94 5e 10 a0 3f
       0.2696507626551395 0.03137488897751467
0001c0 6f 61 67 f0 4e d9 a8 bf cf 87 0f a8 3c e2 aa 3f
       -0.04853293118111678 0.05250730086824228
0001d0 f0 82 d0 16 0e f6 6c bf 15 ab de f2 d4 7c d1 bf
       -0.003535296933947378 -0.2732441303038951
0001e0 1d 7b f0 7b 1c 8d a7 3f b5 57 16 66 10 96 b7 bf
       0.04599846852237575 -0.09213354580273754
0001f0 e0 4e 53 b0 4d f5 88 bf 3a 48 43 80 79 11 b8 3f
       -0.012186629241490221 0.09401664143959546
000200 90 ff ad 5c be ff b2 bf 6d d8 7e cc b8 ce 75 bf
       -0.07421483767211456 -0.005324098463395638
000210 66 05 8b c7 6e 46 b5 bf 99 75 c5 84 af a6 c6 3f
       -0.08310596820503732 0.1769618414208878
000220 c2 ed cd ed 2b e7 d7 3f fc ec 95 e9 c4 15 8b 3f
       0.37348459456526595 0.013225115183323137
000230 ca 50 e8 f7 9f 08 9b bf e4 b7 05 ee 73 a4 b3 3f
       -0.026400088792869515 0.07672810135929314
000240 96 09 b9 b3 b5 e6 b6 bf c0 fd 83 f5 13 98 b5 3f
       -0.08945785177005514 0.08435177558930373
000250 73 b9 6f 12 3d 25 ce 3f fa 1c d0 36 70 ab d4 3f
       0.2355114307424163 0.3229637656481398
000260 a4 7e 76 3c 5b 5e bc bf 29 59 60 1d 98 5b c6 3f
       -0.11081476427215847 0.17467023310082055
000270 db d6 9f 71 1a 50 b9 3f 9b a3 23 a0 52 6b c2 bf
       0.09887852930099987 -0.14390023059175125
000280 23 4c 1f fd 8e 53 be bf 43 a5 8c bb 41 1d a2 bf
       -0.11846250228636328 -0.035379461425984825
000290 39 22 3c 2a da 64 ac bf 0f f2 1c 51 ef 9b c5 bf
       -0.05545694127619467 -0.16882125340079354
0002a0 37 8f 89 b5 9e 24 c2 3f c5 b7 ab 91 bc 28 a1 bf
       0.14174255241516118 -0.03351392057616879
0002b0 cf b9 94 6b 43 e4 c5 bf 51 68 f6 46 7c fe b6 bf
       -0.17102854493118833 -0.08982063992007851
0002c0 72 9f 20 cd b5 1e b8 bf e3 88 28 ae be 61 bc 3f
       -0.09421859987253159 0.11086646797096793
0002d0 c6 2a d8 df 61 92 b8 bf 0c fe 76 31 cc e7 c6 3f
       -0.09598361697150457 0.1789489022757923
0002e0 07 aa cd f0 b6 10 bc 3f 4d 1b fa 70 56 36 c7 bf
       0.10963004473675407 -0.18134575382665688
0002f0 17 c0 7a 4c e8 97 b9 bf ff 98 88 14 9c ab b1 3f
       -0.0999741732327951 0.06902480603512016
000300 4a a0 14 2e 9f 05 c3 3f dc 50 23 80 71 dd 66 3f
       0.1486090636256015 0.0027911392981910654
000310 f9 e6 b5 90 f9 d3 c1 bf 04 ac e8 bc cb 84 66 bf
       -0.13928145948357676 -0.002748868871341072
000320 5a 47 57 90 48 f8 d2 3f 72 e1 e8 cc e0 f6 b8 3f
       0.2964040193156642 0.0975170612590597
000330 41 85 1b 81 e8 b2 cd 3f 52 9f ff e6 69 46 a6 3f
       0.23202234558179138 0.04350596375280581
000340 4e d0 45 88 48 0a c2 bf d6 7d d3 d9 57 db d4 3f
       -0.1409388223070231 0.3258876445015323
000350 43 cb bf 55 b3 12 d3 bf 70 9c 03 42 4e bd a5 3f
       -0.2980163895983205 0.04245991283260586
000360 76 a8 5b d7 7b 63 90 bf 2d 48 8f 00 b5 51 b6 3f
       -0.016004500407611442 0.08718425048508101
000370 ce 9c c9 36 80 35 c4 3f c5 e0 ed da 35 4b b3 bf
       0.15788271594212805 -0.0753663691992897
000380 3b eb 99 d3 54 9a cd bf 70 63 01 cf 57 30 be 3f
       -0.23127231914608068 0.11792515567630146
000390 36 a3 c4 49 4c ae ad bf 41 85 f4 46 51 f7 c1 bf
       -0.05797041321267786 -0.14036003079039897
0003a0 38 ff 98 5c b9 98 b3 3f 17 60 18 0b 6a 8c c3 bf
       0.07654913435635258 -0.15272260228880505
0003b0 38 e1 c3 17 53 0c 83 bf 27 78 10 1f c5 06 b0 bf
       -0.009300851023440346 -0.06260330208212449
0003c0 da b5 73 08 fe 37 b7 bf 9c 65 bd b1 bd fe b1 bf
       -0.09069812494609356 -0.07029328908301696
0003d0 b2 e0 52 73 f2 a4 c7 bf 70 e8 69 14 36 de c1 bf
       -0.18472128516237302 -0.13959384915125694
0003e0 5e 31 25 ec bc 55 b7 bf 7a f7 e3 b8 60 16 ba 3f
       -0.09115200772538887 0.10190395845344638
0003f0 89 4d 27 96 2f ac b2 bf 72 73 7a bb 12 d9 80 bf
       -0.07293984809739675 -0.008226534220108415
000400 10 bf 36 56 62 3f c1 bf 3e 52 fc e5 64 8a a1 bf
       -0.1347468300787047 -0.03425898845140239
000410 58 08 b0 a7 a6 81 c2 bf a8 e9 20 1f e9 41 b9 bf
       -0.14458163440582683 -0.09866196641897906
000420 15 4d 3d 69 c9 f4 a1 bf 10 ce 35 53 a7 98 b4 3f
       -0.03507069978391023 0.08045430928705621
000430 78 df 4a 38 fd fd c9 bf 3b 2e 73 f4 a4 dd 94 3f
       -0.2030636334291065 0.020376756114997212
000440 b4 08 0e 96 b7 6d a7 bf 4e 52 67 d5 da df c2 3f
       -0.045758950297583395 0.14745650692079199
000450 2f 63 5c 4b e1 98 e0 bf 5f d0 63 42 6a 02 c4 3f
       -0.518662116231189 0.15632370225614786
000460 7c da 0c b7 e7 0a 8a 3f d2 cb 51 a9 0a 48 79 3f
       0.012716112397908257 0.006172219892607482
000470 81 85 fe d4 2a a7 a1 bf 12 e0 cd 7f 3e 6b c0 bf
       -0.03447851038005024 -0.12827283134879558
000480 3a 06 92 62 d2 34 a5 bf e7 57 77 52 ba a0 b9 bf
       -0.04141862347843213 -0.10010876191458316
000490 ca 8d 37 49 45 79 c0 bf 68 b1 a8 a3 74 39 b8 3f
       -0.12870088648842987 0.09462670322017674
0004a0 b6 25 dd 2b 1d 80 9f 3f 64 d4 f4 61 e6 11 c1 bf
       0.030762153436887117 -0.1333587625792091
0004b0 89 67 3e ed 7d df b1 3f ec e0 4c ff 0c f8 ba bf
       0.06981646577915347 -0.10534745438497212
0004c0 12 00 46 5d 57 cf b3 3f 96 50 7f c3 de 55 c5 bf
       0.0773825266569477 -0.16668304963844055
0004d0 1a 3b 47 8b c2 76 c8 3f a7 f6 e7 9e 1d 6d 5a bf
       0.19112426567740998 -0.001612929274073785
0004e0 ef 5a 29 47 e0 a4 c0 3f 76 6d 53 a9 b3 e1 96 bf
       0.13003161883053546 -0.022345359048683254
0004f0 14 31 c0 5c e5 8c 86 3f e9 89 b5 e6 6d 35 b8 bf
       0.011010925190952515 -0.09456526644274955
000500 07 06 32 98 dd d5 b8 3f 66 82 7b e6 f5 da 89 bf
       0.09701333013256185 -0.012624665352121766
000510 5c 7c b1 36 b5 2e 9c 3f 6e 49 be 80 e0 5b aa bf
       0.02752192636796412 -0.05148221561025222
000520 16 38 4a 8a 80 fb c8 3f c5 7b 6f 18 2a 3e b3 bf
       0.19517523529469888 -0.07516730400628464
000530 d3 dd 57 be d6 37 da 3f 54 e3 72 a8 9b cb 46 3f
       0.4096581324406234 0.0006956586884348894
000540 eb c6 47 bc af 88 8d 3f 3a 9b ae 6d 6e 74 a6 bf
       0.01442086499534719 -0.0438570507897595
000550 55 87 e3 83 95 ab 70 3f 0a 86 2f c8 4b f2 b3 3f
       0.00406988529559434 0.07791589391083434
000560 85 f7 a8 e6 9f 40 83 3f 56 38 bf c0 b6 5e b0 bf
       0.009400605417905225 -0.06394521909462134
000570 6b c1 70 f7 2c ba 59 bf 65 47 0f b6 2d 78 be bf
       -0.0015702666403392916 -0.1190212792855881
000580 63 f8 d8 3a d6 25 c4 bf 82 70 fe 14 f1 c7 c6 bf
       -0.15740468858161014 -0.1779767372617052
000590 52 31 8b e3 98 99 c2 bf 53 5c aa d8 57 6f 98 bf
       -0.1453124152234389 -0.023862240409098522
0005a0 c5 fc 1f 60 bc f4 a0 bf 37 a3 70 07 57 9d c2 bf
       -0.03311718629265096 -0.14542663443833145
0005b0 2d c0 49 ad 5e f4 cb bf 6b cc b6 0c 11 3f 3c 3f
       -0.2183950754292722 0.0004310051560551589
0005c0 97 ab 5b 2f c1 e1 b2 bf e5 56 20 1b 17 2e b1 3f
       -0.07375724226191803 0.06710953151954475
0005d0 35 88 94 fd 5f 78 d0 3f 47 b7 50 7c 6d d7 bb 3f
       0.2573471046799825 0.10875591549912854
0005e0 51 80 e6 50 71 37 96 3f b2 6d fb ed f3 23 ac 3f
       0.021695871889847066 0.054961798477701676
0005f0 92 53 f6 33 18 63 bf 3f 4c a8 86 ff 3d 71 c0 3f
       0.12260581272705753 0.12845587708335626
000600 79 e2 8e 23 fb 78 c9 3f 72 8d e5 ec ce bb c5 3f
       0.19900454746472798 0.16979395453663987
000610 7c 1d 71 e8 a6 08 c5 bf ab 67 6c 46 b4 3f 85 3f
       -0.1643265376062394 0.010375412367966982
000620 35 14 ce c8 52 9a bc 3f 6e 26 00 4c 23 99 9f bf
       0.11172978785005301 -0.03085761214609877
000630 15 ad d2 9e b2 59 c3 3f 4b d7 96 6d 45 43 a5 bf
       0.15117485766436603 -0.04152886355170312
000640 b6 45 5d dc ba 7e a1 3f 92 53 f7 54 9e d6 ab 3f
       0.03416999759668775 0.054371784087982836
000650 fc 97 eb a6 d6 b6 cf 3f ac 3f a3 54 a7 46 ce 3f
       0.24776728773502998 0.2365311778326008
000660 58 7a 11 e7 95 31 bb 3f 3c 04 8b 08 a4 2b c8 bf
       0.10622536555590878 -0.18883181016102124
000670 65 a7 b9 6a 6a 7c b1 bf 50 50 82 36 b3 dd b1 3f
       -0.06830468278499564 0.06978912430560169
000680 a3 49 52 a9 e6 59 ba bf ac 82 91 61 ad 58 c3 bf
       -0.1029342807180798 -0.1511437155159191
000690 3c 4b 4e 82 2b 3a b2 3f 66 c2 d9 75 df ac a7 3f
       0.07120010310454189 0.046240790496885606
0006a0 13 94 1b cd 79 3e aa bf c8 f7 ec 3f db 6d 90 bf
       -0.0512579024196286 -0.016044069077217477
0006b0 fd 27 70 f0 df d6 b8 3f 1e ca 7e 00 ba 42 b9 3f
       0.09702872867651986 0.09867441665736762
0006c0 df 93 0d db 83 a2 84 bf 44 dd 18 98 60 c5 c3 3f
       -0.010075597879856289 0.15446097780816548
0006d0 94 90 c1 c5 2a e0 c3 3f fc ef 60 7d 51 12 a8 3f
       0.15527853637752698 0.047014757685673175
0006e0 84 94 ab 94 48 99 a6 3f 1d 09 ce 10 32 ee 90 bf
       0.04413821043798641 -0.01653364398544809
0006f0 d7 10 2c 5c 41 95 c1 bf 8b fc 55 d0 2f 79 b1 bf
       -0.13736741066543942 -0.06825541340184509
000700 a7 b3 92 27 8e 87 b8 3f fa fe d3 1e a6 a7 b3 3f
       0.09581840959681519 0.07677686932219877
000710 ba e6 37 8f 5e 15 cb bf 29 44 da 77 c9 d9 bc 3f
       -0.2115896415050907 0.11269816566552095
000720 db 8b 99 7d 1f 53 cf bf 7c 08 61 0f 9b 45 ae bf
       -0.2447242129593111 -0.059124799372981734
000730 7a e5 0f f3 86 f9 ba 3f 42 11 a8 83 1a f1 a3 bf
       0.1053699820912665 -0.0389488492692487
000740 c0 3f 77 66 63 94 8b 3f 47 47 c9 af dd 49 a8 bf
       0.013466621937283096 -0.04743855257824108
000750 ad 80 cd 11 3b 8a d4 3f 87 a8 95 cf e2 43 bc 3f
       0.320936934838765 0.11041085784896341
000760 c4 32 d1 1d c2 6a bd 3f d9 98 7b 67 b1 64 b3 bf
       0.11491025188406484 -0.07575520302234241
000770 1e 74 93 f9 12 fe a0 bf 33 8e a0 f3 40 38 ba 3f
       -0.03318843170720974 0.10242086360863638
000780 e2 21 cf 64 ed 1f c3 bf 32 7c 4c 4b 0f 9d c3 bf
       -0.14941184446639882 -0.15323058296869047
000790 54 32 c8 fc 0e 9d c5 3f b5 52 93 d2 a4 20 b8 3f
       0.1688555464064786 0.09424810544016789
0007a0 f8 e6 06 c7 62 58 aa 3f b7 e6 05 be ee 44 c1 3f
       0.051455580516131805 0.13491615560979195
0007b0 4f eb 3e 96 ff 1b b5 bf cc 03 4f 26 93 95 b4 3f
       -0.08245847147092643 0.08040733037252251
0007c0 0e cc b7 d3 3f 53 97 bf d4 66 3f 7e f1 11 ac bf
       -0.02277850846980916 -0.05482439676388898
0007d0 9b 2a 75 2d 62 49 be bf 5b 3e a7 3a d3 78 b8 bf
       -0.1183072434406917 -0.09559364492383209
0007e0 0f 63 24 d7 d4 ae 98 3f 8b ba 83 3d 5d 44 c3 3f
       0.024104428893312376 0.15052381042137983
0007f0 e2 17 93 f0 9a d0 b0 bf 3b 6d ed 2e 3a 59 c3 bf
       -0.06568306325343046 -0.15116050044421478

linear1.linear.bias f8 [128]
000000 3b c9 68 90 7c 50 c7 bf 5a 94 15 70 6c e5 d2 3f
       -0.1821437554477344 0.2952529043744271
000010 e7 84 48 8d 9b b1 a7 bf 83 71 f0 3b fb 24 a8 3f
       -0.04627691363953961 0.0471571455638893
000020 a7 64 89 2e 27 0f 71 bf 84 2c 29 23 aa 40 c3 bf
       -0.004164841703265732 -0.15041090695226356
000030 e6 34 6d 13 4e f8 c4 bf 2d 3c 41 50 c4 82 d1 bf
       -0.16382766674579513 -0.27360637509713365
000040 3f bb 3f 65 4c 0c b0 3f c3 24 7e f4 bc 86 a0 3f
       0.06268765899561134 0.03227797016649838
000050 e5 e2 0f b8 d3 65 bc 3f 4f 21 5e 5b c4 f7 a5 3f
       0.11092875713064705 0.04290593734100644
000060 14 4b 08 13 89 38 ca 3f d8 3d 1c 5e 1c 60 b3 bf
       0.2048503249103183 -0.07568528459181978
000070 4f 7d 14 68 30 c6 cb bf b9 4a f0 47 2b 31 cf 3f
       -0.21698575098069248 0.24368802082661548
000080 5b 4f 2e 7e 07 e9 b0 bf d1 1f 0e 25 24 75 bf 3f
       -0.06605574446285571 0.12288118271510419
000090 a5 cd f8 de 85 de d0 3f b4 dc a9 1b 20 4b cd bf
       0.2635817220172732 -0.22885514593847278
0000a0 f7 67 e0 7a c8 fd a2 bf 65 12 cd 1e 6d 67 a8 3f
       -0.03709246158560114 0.047664079675574546
0000b0 0f d9 2e e0 bd ac ce 3f d2 08 18 df 19 ff eb be
       0.23964665838656926 -1.3349766024188187e-05
0000c0 f2 13 cf 7e 28 c3 b2 bf 90 89 f2 5a f5 43 a4 3f
       -0.07329037757797588 0.03958098159025092
0000d0 ef 7a ab 68 92 96 97 3f 79 78 7f 90 16 8c bd bf
       0.023035323751964872 -0.11541882541448158
0000e0 e5 2a 27 35 5b 6c cd 3f cf a9 de 87 13 65 ab bf
       0.22986927123414272 -0.053505525909105615
0000f0 89 b7 84 fe 29 5b b7 3f 24 41 40 30 e3 44 cf 3f
       0.09123480285481213 0.244289778289848
000100 40 e1 2b d7 9f c6 c9 bf e5 6a fb 8e aa 5a 9c 3f
       -0.2013740349427824 0.027689614273962788
000110 6f e8 02 b0 c9 2a d3 3f cf ea 8d 84 2c 06 c5 3f
       0.2994865626202516 0.16425091240292608
000120 84 16 15 76 e2 9b d2 3f b6 ef e3 be 4e 4b c3 3f
       0.2907644417904083 0.1507357055742184
000130 24 45 67 a2 d5 fd c8 bf b6 39 90 00 94 fa ca bf
       -0.19524641446927504 -0.21077203776844805
000140 2d 4a 62 39 7a b0 ad 3f 75 93 0b c8 c6 9f c6 3f
       0.057987041001201646 0.17675099151452014
000150 72 9c 30 70 41 e1 a3 bf f2 cc 2c 8b d0 e2 c1 bf
       -0.03882793898110827 -0.13973433299688726
000160 36 5e e4 92 a8 83 ac bf 24 0d b1 7c 6c 4a c0 bf
       -0.05569197457424162 -0.1272712334485756
000170 2c 4d 0e d7 ab 0b cb 3f d5 71 9d 7c 24 25 d4 3f
       0.21129367829107915 0.31476699990687723
000180 31 a1 a2 9f 53 86 cb 3f 98 0e b0 91 57 c0 9b 3f
       0.21503682417574901 0.027100914256165426
000190 65 cf bf 19 08 16 d3 bf 2a cb 5a c8 a6 11 cf 3f
       -0.2982197047669984 0.2427261808676005
0001a0 8d a7 38 67 20 84 d1 3f 7e c3 78 c7 8b db ba bf
       0.2736893661518643 -0.10491250629344326
0001b0 b2 18 28 a4 63 32 9d 3f a2 8a 94 b0 bf c7 cd 3f
       0.02851253213341271 0.23265834924776124
0001c0 d2 d5 0e 8a cb 90 c6 3f c1 d0 42 51 b1 4a 97 3f
       0.1762937950240216 0.02274586733320017
0001d0 6b 87 85 d1 d5 67 92 bf 4a ea 7e 30 36 a0 b0 3f
       -0.01797422496145577 0.06494463619211746
0001e0 b4 d6 a0 47 1a b7 d0 3f 8f 69 ab 44 c0 e6 80 bf
       0.26117569918583716 -0.008252622695569282
0001f0 a8 6f 3e 4d 27 48 c3 bf eb 78 03 ca ea 56 c9 3f
       -0.1506394507567823 0.19796500076240106
000200 e7 42 4c 00 6e 1f 98 bf b8 d6 6a 63 2d 5a cd 3f
       -0.02355739476030552 0.22931449274408577
000210 76 4a 65 c8 33 33 c3 bf d7 bc cd 05 45 d6 c9 3f
       -0.15000006947464656 0.20185148986227006
000220 65 c0 dc 7e 44 2b b2 bf 10 5c 1a f8 9d 4d c1 3f
       -0.07097271058296568 0.1351811849060316
000230 8c a8 04 0e 64 8a b6 bf 10 81 1a ac 20 7e a8 bf
       -0.08804917661896833 -0.04783727742074195
000240 1d 20 15 97 3a 3b ba bf 09 6a b0 f4 2d 9c b7 3f
       -0.10246626080072514 0.09222686027388972
000250 a5 65 8c b5 ba f6 c2 3f 93 42 a1 83 19 b1 cd bf
       0.1481545816866802 -0.23196715285532274
000260 8f 7a bf 23 f1 24 9e 3f ad 55 4e b0 4f b9 93 3f
       0.029437797362215575 0.019261593948234502
000270 f1 c1 38 08 ab 38 bd bf 01 b6 79 b3 57 14 b2 3f
       -0.11414593649602246 0.07062290317272614
000280 75 90 55 2e 51 ea c3 bf 61 49 05 01 d4 25 b5 3f
       -0.15558829080976336 0.0826084616176437
000290 ec 0c 94 25 91 44 d1 3f 45 de c4 7e 42 02 ce bf
       0.2698099963165095 -0.2344439620007838
0002a0 54 b4 9c 61 07 41 c5 3f 3a f5 be 4e 0c d7 c8 3f
       0.16604702249734038 0.19406274647728045
0002b0 54 f6 81 71 09 49 8e 3f 1e a1 d6 30 25 bb c0 bf
       0.01478774430892852 -0.1307112205952387
0002c0 ae ab aa 31 7e 72 b2 3f 5b 9b e1 05 5d 50 b9 bf
       0.07205952370229227 -0.09888249772630557
0002d0 ba 74 4f 81 fd 36 a8 3f 42 75 84 16 0f 94 d8 3f
       0.04729454234596049 0.3840368003746627
0002e0 89 b9 06 b3 27 15 c6 bf ed a6 9d 71 da fb d1 bf
       -0.17252060166852015 -0.2809969052819799
0002f0 e8 b6 eb bc fe c9 bc 3f 1f c8 27 fb 1b 35 a9 3f
       0.11245720016787752 0.04923331681119713
000300 a6 6c 08 9b de cb c7 bf 72 9d 56 91 0a 8b 98 bf
       -0.18590910501447871 -0.02396790039133862
000310 a1 80 b6 2d 17 b1 cc bf 05 45 41 a7 15 10 b1 bf
       -0.22415437442851263 -0.06665168126462014
000320 3c 83 69 3a 0b fa cf 3f 42 82 77 59 76 10 9d bf
       0.2498182330337161 -0.028383111200925855
000330 62 70 73 18 c2 8d c8 bf 0d 66 69 ab 2e 23 88 3f
       -0.19182611650365106 0.011785854917593342
000340 4c c2 00 b5 c9 2e a2 bf 97 46 fe c8 78 35 c1 bf
       -0.03551321348675582 -0.13444433035015343
000350 8d b5 6c 63 f7 e9 ba bf 98 46 62 24 99 d4 c4 3f
       -0.10513254334792617 0.16273798252637017
000360 59 b0 a6 1f 36 9f c0 3f 3a bc ea 98 cb a5 b4 3f
       0.12985874696221592 0.08065483554195021
000370 e4 80 42 78 96 f8 c8 3f 67 54 4c 34 41 d9 ac bf
       0.19508629676875622 -0.05634502185254391
000380 08 90 26 ad 7c 71 cd 3f e1 bf d8 d8 06 13 a9 3f
       0.230025848909577 0.048973287554303864
000390 cb af 7d ea 58 4b be bf 35 e7 46 c4 6d e8 d3 3f
       -0.11833720898510973 0.31106132667229086
0003a0 cd 66 40 08 fe ce c1 3f ca 43 00 48 7e 3b d0 3f
       0.13912940409573196 0.2536311820159055
0003b0 b7 90 9a 44 86 c4 b6 3f c6 f3 1c 4c 8e c9 c6 3f
       0.08893622565170999 0.17802599636516286
0003c0 ee 7d 8e 60 fe 0d b2 3f 2f cb 3b c5 ce 52 ab bf
       0.07052602631892288 -0.053366147590983785
0003d0 21 a0 09 03 78 c7 90 3f 47 dd 39 f4 6f 3c d0 bf
       0.016385913072014206 -0.2536888012904978
0003e0 e8 bf 58 63 cf 3e 9d bf 0b 52 52 00 a9 0e d0 3f
       -0.028559914053573637 0.2508947852268483
0003f0 99 18 d3 66 28 62 c0 3f 4e 28 df 24 4c 35 77 3f
       0.12799553890926488 0.005666062772386194

linear2.linear.weight f8 [128, 128]
000000 0f 1d 5a c1 07 ff a6 bf cb 59 f9 93 e2 73 b4 3f
       -0.044914476730861456 0.07989326584479454
000010 1f 2b de 32 d7 7a 8c bf b8 20 d6 8c 19 d8 b5 3f
       -0.013906174888480614 0.0853286713446576
000020 9c 93 a6 6d 9d a4 b7 3f c6 01 4e 6c 4f 47 bc bf
       0.09235557486552043 -0.11046310800703116
000030 bf 3f 61 8c d1 17 a7 bf db e9 21 cd 4a bd a9 bf
       -0.04510359610196656 -0.05027230981882599
000040 cc 4d 83 6d 93 ad 8f bf e6 f4 fb ca ba 3b 9e 3f
       -0.015467788486069355 0.02952472556988974
000050 d5 6a 64 7f 8f b5 96 3f 11 a0 df e4 35 af a7 bf
       0.022176973486334035 -0.04625862521044167
000060 d5 ad 41 79 b0 5d a7 bf 25 18 b2 26 6f b0 94 bf
       -0.04563666801626779 -0.02020429300002759
000070 65 7e d9 97 c0 4b ac bf f9 9b 34 c1 d2 ba 93 3f
       -0.05526544431336048 0.019267361681297477
000080 63 45 52 5f 31 4d b5 3f 5e 0e 2c 65 10 7f b7 3f
       0.08320911957914272 0.09178259344121772
000090 15 7e 42 84 e7 6f a6 bf 02 5a 15 d3 c7 6b ab bf
       -0.04382251252650008 -0.05355667545034139
0000a0 1a a8 0a f0 6f c4 b8 3f 34 0d 6e 1f ba 1c c0 3f
       0.09674739466086671 0.125876679751039
0000b0 d0 21 fd d5 4b a0 b0 3f 40 7e ca d2 52 68 77 bf
       0.06494592642150754 -0.005714725045123326
0000c0 c9 de 36 d9 af 7c ac bf 02 1e 3d b0 6e 7d ac bf
       -0.055638785615369786 -0.05564447308875843
0000d0 8e 19 f7 bc 1f 29 aa bf 4d 86 3c 80 fc 40 8c bf
       -0.05109500104622376 -0.013795826590981575
0000e0 4a 1e 42 9e e0 b1 be 3f 21 9d 21 ce e5 55 a4 3f
       0.11990169395186814 0.03971784726382511
0000f0 16 4f fe 91 1e 76 88 bf bb 5a 24 9c 3f c4 c8 3f
       -0.011944044905056777 0.19348902820703082
000100 41 c4 d9 b4 20 84 b8 bf 0a ef 32 98 cd e1 ac 3f
       -0.09576610961245625 0.05641024096391163
000110 c5 c6 1d 47 9b bd c6 3f 18 30 dd fe b9 c3 af 3f
       0.1776613328216198 0.062040150033311814
000120 35 d3 a2 ef 25 75 83 3f 54 45 04 92 a4 3a 96 bf
       0.00950078618584769 -0.021708079731131605
000130 3e b0 20 bd 5e 86 7c bf e7 55 17 12 98 a1 b8 bf
       -0.006964082787856594 -0.09621572915724351
000140 03 2a 01 0e 64 ef a1 3f e8 a6 1a cc f1 63 a7 3f
       0.0350295321555514 0.04568439117913475
000150 80 99 f2 b5 0c e2 b5 bf 20 d3 87 3f be 7a 95 bf
       -0.08548049394685187 -0.02097604048499868
000160 50 9f 46 1b 44 4b a3 3f a3 f6 50 69 cc 78 c6 bf
       0.03768360932309511 -0.17556147711177514
000170 c3 ac f3 cb 43 91 b5 3f a8 0a e1 6b e6 07 a4 bf
       0.0842478154115041 -0.03912277285464444
000180 d4 22 86 74 49 af b4 3f 58 d5 19 c2 26 2a a5 bf
       0.08079966635535679 -0.041337214654883325
000190 e2 c4 f0 6e f4 9c bb bf 7b 64 ef 91 9e c9 a0 bf
       -0.1078636904574242 -0.03278823405680328
0001a0 b8 90 32 0e 92 bf c2 3f c2 d2 83 55 be 61 a2 bf
       0.1464712685893852 -0.03590197366603355
0001b0 8c 6b 0a c0 be da a0 3f 89 7b c9 c7 a2 3f bd 3f
       0.03291889280554647 0.11425225617993652
0001c0 79 d7 7e 2f 22 54 be 3f 1b 09 87 98 8a 26 8f bf
       0.11847127589757446 -0.015210230617303247
0001d0 92 25 a4 ee ef 1a b3 bf 36 7d 8c 4a 2a 76 72 3f
       -0.07462977958871012 0.004507222366356081
0001e0 6f 92 0a b6 a7 ff 8f bf b5 b3 1e f5 8e 7f b4 bf
       -0.015624342196425915 -0.08007138714192659
0001f0 ec a7 1b ae 24 37 83 3f 49 87 68 9e 25 97 5e bf
       0.009382521212916793 -0.001867090928165687
000200 a9 dc fe 09 4e d1 b5 3f 7b 3e 9d 06 2f 43 a2 bf
       0.08522498840362637 -0.035668820912744224
000210 49 f9 fc 8b 08 9b a0 bf 38 e1 99 b9 52 fc ad bf
       -0.03243281086769174 -0.05856569781912174
000220 cf 46 d4 73 3b 26 6d bf 4e 36 c7 9c e4 50 9f bf
       -0.0035582696133439127 -0.030582019871692893
000230 81 72 61 4f f4 f1 a3 bf ff aa 22 c7 7c b7 7c 3f
       -0.038955340089818165 0.0070109247337011285
000240 0e 4c ed 7e 83 7c a5 3f f3 c6 d6 e1 5c 86 b8 3f
       0.04196558880234856 0.09580021394392783
000250 a4 7d ff 23 e6 70 ae 3f f3 7d ef 4c 2f 99 81 3f
       0.05945510091236919 0.00859295800722657
000260 05 b8 01 e2 f2 7b b3 3f c7 63 7a 7e 6b c2 c5 bf
       0.07611005800001187 -0.1699957244461798
000270 fb 3c d4 70 a7 91 b7 3f c9 9a 3b 46 ff 5c 7e 3f
       0.0920662546598016 0.00741290775815768
000280 c6 92 2e 40 33 fb 81 bf 16 d0 f8 8a a9 bc 6b bf
       -0.008779907604386305 -0.0033858596214262444
000290 dc 0c 9e bb aa 68 c4 3f ed 7f 91 b8 9c 62 95 3f
       0.15944418107037606 0.020883988156469902
0002a0 de c5 7a 51 1c 97 be 3f d7 fc d4 d8 4e 9b 8c bf
       0.11949326504943467 -0.01396810149401377
0002b0 a1 dc ae 08 07 62 b3 bf d3 a1 30 c0 bf 9c b0 bf
       -0.07571453058231949 -0.06489180032861634
0002c0 8b aa c1 30 b4 53 90 3f 16 8b c1 5d 05 9c 9e 3f
       0.015944304920064083 0.029892047736562587
0002d0 3f ec 05 b6 26 a1 82 3f 29 37 43 08 39 f6 aa 3f
       0.009096434049515987 0.05265978074895223
0002e0 9a e3 d8 33 5d 02 9d bf 6d e7 b3 24 e7 18 b6 bf
       -0.02832933072042785 -0.08631748815596803
0002f0 44 fa 57 68 86 d0 8d 3f 32 2f 3c 3d bd 41 be 3f
       0.01455788618022525 0.11819060082433167
000300 21 b8 0a da d7 cb 94 bf 10 e0 92 7f ad 30 bc 3f
       -0.020308849986285907 0.11011776318162014
000310 cc a0 8e 99 28 27 bb bf 8c 1f b3 6a 24 10 9e bf
       -0.10606626271203651 -0.029358452808792943
000320 21 70 d6 8a d4 13 90 bf 50 5c 1a e3 68 6f a9 3f
       -0.015700646375634734 0.049678113672762536
000330 e4 de e0 80 ef f9 ac 3f c0 88 3a 0b 71 b6 96 bf
       0.05659435699675244 -0.022180334387152056
000340 ee 31 22 fe a9 e2 b7 bf 8b ca 60 d9 c3 1c 73 3f
       -0.09330236868317573 0.004666104350735121
000350 7b 67 5f d0 d5 af b0 3f 95 62 2d f0 bf dc 83 3f
       0.06518303239081817 0.009698390500191759
000360 73 b0 5e a9 8a 0b b2 3f 68 8d df 33 73 8f a5 bf
       0.07048861155516466 -0.042110061723884595
000370 b5 49 b4 8d 32 de aa 3f b0 00 88 9d 17 13 8f bf
       0.052476482198602716 -0.015173134322140264
000380 9b b3 31 34 52 af b4 3f 5b a6 03 37 4b 03 91 3f
       0.08080018781920588 0.016614127381137638
000390 37 8b 39 85 2f 7f b4 bf 95 bf 2e 99 df 65 a9 bf
       -0.08006569864805334 -0.04960535759835164
0003a0 14 b0 46 6d 49 09 82 3f a0 fe b5 34 c0 b9 b3 3f
       0.00880677571043268 0.077053082341076
0003b0 d7 5c a6 66 96 01 6c 3f 50 98 9f 1b 3e 0f b6 3f
       0.0034187257308065755 0.08617008375549173
0003c0 9d 0c cf 50 e3 63 7b bf 39 8b b5 72 11 1a 72 bf
       -0.006687057449144576 -0.004419391781399545
0003d0 c5 23 37 96 c5 91 9c 3f c9 8f 86 67 eb b6 8d bf
       0.027899825375957272 -0.014509047600604579
0003e0 67 e0 61 3f d5 bb a8 3f e1 28 be d5 ff 6c 95 3f
       0.048308052050686716 0.020923612042261012
0003f0 2a 8d a0 4a ed 71 bb 3f 59 ad 15 7a 6b 62 7d bf
       0.10720713684036257 -0.0071739385906356085
000400 98 8e 96 2d 62 99 8b 3f 3f be 84 86 59 15 a8 3f
       0.013476149574507532 0.047037885351866475
000410 07 8f 8a 1d 21 36 9d bf ae 03 93 c9 a2 a3 9d 3f
       -0.028526799610189914 0.02894453387557732
000420 0e eb 9e 11 aa c9 ae bf 38 89 02 23 75 17 bc bf
       -0.06013232674691525 -0.10973293404325524
000430 a7 79 4e a4 2c 73 99 bf d0 f6 f9 41 59 a5 91 bf
       -0.02485341790053899 -0.017232317592507596
000440 35 55 ee e1 8d 5a b0 3f 05 8b a0 d5 88 a8 92 3f
       0.06388174787419561 0.0182210331332824
000450 53 be 2d 57 11 6a 95 bf 31 4a de 96 56 18 bb bf
       -0.020912428804363902 -0.10584012206371864
000460 40 67 69 38 f1 a7 70 bf 82 a6 cf a0 50 66 a7 bf
       -0.004066412226700511 -0.04570247614885849
000470 05 3c c0 56 4e d4 97 bf 8a 3c 7f ff 20 2c 93 3f
       -0.023270820660453512 0.018723025888729462
000480 5f fc 07 48 b8 96 b0 3f 5f 35 4c b2 67 58 94 bf
       0.06479980238508308 -0.01986848855726941
000490 99 b5 42 1a a7 7c 8c bf 82 1b cf 9e f4 a7 a4 3f
       -0.013909631241712005 0.04034389914118376
0004a0 62 9c 04 e3 e5 73 b2 3f 57 7b 0d d1 8f fe b4 bf
       0.07208096306259074 -0.08200930455994403
0004b0 43 ab 3b 5a 4f aa b6 3f e6 e2 de 57 19 46 80 bf
       0.08853622391658882 -0.007946203226184289
0004c0 47 44 5e 93 2a 88 83 bf 62 b6 34 05 cb 7f b1 3f
       -0.009537060377427532 0.0683562171659218
0004d0 b1 d7 5e 5b 3f c1 aa 3f 8c 86 2f d0 28 3e ad bf
       0.05225561132776536 -0.05711486378983208
0004e0 6b 74 c0 45 19 14 61 bf 87 fe 69 57 f1 0f a9 3f
       -0.002084779129303762 0.04894975845399779
0004f0 2e ba 68 5e a1 72 9b 3f d5 0e c3 ce 38 34 98 bf
       0.02680446757056581 -0.023636710757968544
000500 03 95 e2 bc b6 6f a6 bf 92 54 df 88 a8 c9 79 3f
       -0.04382105880476141 0.00629583200312313
000510 51 85 66 26 3d 0a a6 bf 1c 37 e4 50 63 2f a0 3f
       -0.043046866357381426 0.03161154138989117
000520 42 96 11 6c 05 42 af 3f 9c ff e0 52 c1 e3 a3 bf
       0.06105057663152681 -0.038847009055188425
000530 7e a2 aa d6 8e ec a4 3f 86 a8 2f 89 67 e3 a5 3f
       0.04086729402962862 0.042750583168371256
000540 60 60 80 2f cf 76 56 bf b0 56 4e 62 c5 1e ad bf
       -0.001371099786416273 -0.056875389337773696
000550 71 0f e6 d8 13 59 92 bf 33 70 b3 37 3a 55 91 3f
       -0.017917928803867725 0.01692667927714826
000560 33 53 c3 c1 d4 ce b0 3f 6f 4b ec 4f 3f e0 a8 bf
       0.06565599184552866 -0.04858587122557522
000570 f1 4a 65 5b dd cb a3 bf 32 c2 ee 56 cf 79 8b bf
       -0.03866473904294832 -0.013415927734827002
000580 c7 0e 47 52 55 8f ac bf b1 30 1f 14 65 20 9e 3f
       -0.055781046193741406 0.029420451501025627
000590 e0 c3 d0 ad 0d 40 8e bf 47 6f b6 1b 44 0e a5 bf
       -0.014770609728744277 -0.04112446630753524
0005a0 a6 28 76 95 ff 00 a0 3f 46 d0 51 2e df 9b b0 bf
       0.03125761699182421 -0.06487841492509103
0005b0 49 18 f8 76 47 38 9e 3f 0e 4e ce a1 00 f9 87 3f
       0.029511562954233992 0.011705403268741168
0005c0 8d 5c e9 5a ee 28 39 3f 65 1e cd 63 0d 2e 92 3f
       0.0003839094087302951 0.0177538005985113
0005d0 2f 70 52 75 df 18 9d 3f e3 2e 8d 0f 52 4c 9c 3f
       0.028415195022361835 0.02763488979262164
0005e0 80 7e 89 47 cc 4c b1 bf 36 89 37 b0 ef ab af bf
       -0.06757809397231007 -0.06185864473424589
0005f0 d0 f8 c3 a7 63 69 b2 3f 17 f6 e6 6c f2 ca 9e 3f
       0.07192061277234818 0.030071056267607057
000600 94 4c a0 fd 49 9a b5 3f 35 b4 0b 83 25 45 a4 bf
       0.08438551370663766 -0.03959004616431409
000610 9e 1e 43 f0 97 16 bc bf 7e 7a 88 40 b4 01 b3 3f
       -0.10971974960113548 0.07424475265040972
000620 76 a3 1b 5e aa 8d 85 bf fe 7e dd ee 48 a5 b3 3f
       -0.010524111744830238 0.07674079734487901
000630 6d 21 29 eb 59 2e ad bf 6f 07 7a 3d 4b 70 ae 3f
       -0.05699425693143465 0.05945048451850609
000640 65 02 3e a2 dc 61 79 bf 64 ab fe b8 06 7d ae 3f
       -0.0061968439584921585 0.05954762466657007
000650 c8 b9 a4 3a 0d 76 b6 3f 73 8c f0 72 55 9a ae 3f
       0.08773882562375157 0.059771223335950995
000660 66 8c e7 ee e8 b8 b3 bf ae 05 43 da 3e ab 82 3f
       -0.07704025108937315 0.009115687404462527
000670 94 c3 7e 5e 57 44 b3 bf 54 41 73 cf bc 11 b1 3f
       -0.07526155526171713 0.06667690338804749
000680 01 46 3d db 45 41 aa 3f c6 83 07 f7 1b 57 9c 3f
       0.05127924252759542 0.02767604537246251
000690 49 1f 26 e0 4d 1f 92 3f b8 c9 05 da f1 5a bb bf
       0.017697541051830332 -0.10685645649736031
0006a0 fb d2 a4 e2 41 81 a5 bf fa ef 20 86 c6 d6 ab bf
       -0.042001780430302525 -0.05437298190415159
0006b0 f0 37 96 f6 e5 e7 b1 bf 8e 81 79 c2 08 7f 9f 3f
       -0.06994473715005234 0.030758034581937425
0006c0 44 b2 35 c9 cc 07 9c bf 75 b2 8a 87 2f 86 9d 3f
       -0.0273735044296919 0.028832190177740153
0006d0 1e 08 0b a2 a3 c9 af 3f 80 1f d2 de 48 13 99 bf
       0.06208525994362922 -0.024487627601530004
0006e0 ba ff 83 a4 cd 59 af 3f 11 dd 58 fd 5b 3d a4 bf
       0.06123201974150967 -0.03953063457123041
0006f0 f4 4f 4b a5 e5 0f 9f bf 5d b9 50 9b 66 e8 9f bf
       -0.030334079946285855 -0.031159976224608744
000700 fd 01 f4 94 21 46 ad bf ff eb 7c f2 4c 70 b3 bf
       -0.05717568343425581 -0.07593232078663446
000710 3b c5 61 00 2e 25 b0 bf e7 74 a6 00 2b e1 c0 bf
       -0.06306731709789386 -0.13187158138035857
000720 89 d9 f6 01 11 8d 77 bf ce 8d 11 e2 a4 d1 9d bf
       -0.005749765812132054 -0.029120041177874083
000730 25 3c cd 2e cf e1 b6 bf b5 f5 68 a8 dd 63 8a 3f
       -0.0893830765974007 0.012885791494336421
000740 7d 41 cf 17 f5 35 81 3f f2 e9 cb 1e c4 95 9f bf
       0.008403696812735667 -0.030844749812766588
000750 19 2e 8c e0 2f 9b 89 bf 6d 22 52 13 de 63 8d bf
       -0.012503027000568644 -0.014350638355851342
000760 33 7b c5 71 b6 00 90 bf 50 f8 a0 49 38 a0 b5 bf
       -0.015627718633705 -0.08447601125314574
000770 12 f8 7d 42 c3 f9 a8 bf ee 59 b6 00 1f 46 ab 3f
       -0.04878053843184217 0.053269356572105284
000780 78 4b 9e da dd 26 86 3f a8 62 ce c6 3f d2 a9 3f
       0.01081631968898987 0.05043219854195985
000790 5e ab 75 c4 6d e1 73 bf ac 8a ee b8 7a 35 63 3f
       -0.0048536575116980545 0.0023448368951489353
0007a0 9f 8c 4f a0 46 be b4 3f 37 e2 63 2b 85 65 a3 bf
       0.08102837957226193 -0.03788391260781448
0007b0 40 ba e4 7e 30 84 72 bf 41 2d c9 e1 f2 74 94 bf
       -0.004520596920242925 -0.01997737410628742
0007c0 60 7b 59 f8 74 3e 9f bf a0 b0 5c 88 f8 c5 ab 3f
       -0.03051169172101298 0.05424477257324267
0007d0 18 85 8a 78 ce 7c b3 bf 4e 4d a4 5a 42 1b b1 3f
       -0.07612314646623408 0.06682219231543238
0007e0 cb f4 e3 e7 25 a3 9d bf 44 a3 97 4d 0a df 81 3f
       -0.028942672995061963 0.008726196759157319
0007f0 85 4b 23 d7 ea 22 b0 bf 07 86 33 cc c4 93 a5 bf
       -0.06303279640569144 -0.042143011023437586

linear2.linear.bias f8 [128]
000000 db 6d b8 4f 4a a5 bf 3f 26 c4 35 c4 15 48 ba bf
       0.12361587950038404 -0.10266243019374652
000010 80 55 80 26 9c 42 bb 3f 2e a8 45 75 71 87 bc 3f
       0.1064851373669935 0.11144169915283506
000020 3b 26 3d 11 b4 b2 b2 3f e0 41 3d a0 60 07 c6 bf
       0.07303929730292051 -0.17210014175590427
000030 56 f1 e8 b2 52 ac b4 bf c4 f5 6e cd 00 62 96 3f
       -0.08075444095533632 0.021858227289831125
000040 a9 66 e9 d7 ae 09 81 bf 88 8f 02 d0 15 2b b1 bf
       -0.008319250072577349 -0.06706367805833058
000050 1a 58 5f 14 a6 ad 42 3f 7e 21 83 a4 be 86 af bf
       0.0005700169501732272 -0.06157489546018534
000060 57 86 06 dd 15 c5 a2 bf 5b 99 e9 57 0d 8f c6 3f
       -0.036659892302179635 0.17624060433008534
000070 ea db 92 53 9b 69 24 3f de ef c7 ca a1 3e a4 3f
       0.00015573521685549537 0.03954034424165774
000080 0f 58 38 05 5f 4a 85 bf b8 73 86 f3 2d 48 ba 3f
       -0.010395758005909554 0.1026638717216447
000090 9b 38 78 1b 14 0c c1 bf 17 57 67 11 b1 34 ab bf
       -0.1331811079148267 -0.05313638055274177
0000a0 6f b4 1c a4 50 f1 bd 3f fa 34 a6 93 2d 3d b6 bf
       0.11696342474597697 -0.08687100271909634
0000b0 99 55 dd c5 dd 80 92 3f 12 b7 df 1d bc 28 a7 bf
       0.01806971092385865 -0.04523265709563708
0000c0 69 44 fd e0 79 c4 b3 3f bd 97 ee 01 20 bf b0 bf
       0.0772167372026772 -0.06541633650939978
0000d0 a6 1e 29 fd 0d 86 a1 3f 4d 25 ad f3 cf a2 b4 bf
       0.034225880769154046 -0.08060931872491502
0000e0 38 62 de 2e 5f 23 b4 bf f5 49 9d 6f 4e f6 a9 3f
       -0.07866473097090754 0.05070729362946117
0000f0 17 83 6f c2 91 ab 9c 3f 32 df c6 04 24 b0 b3 bf
       0.02799823521843611 -0.07690644375440739
000100 13 6c f7 54 d1 d5 be 3f 5e 7c 0e e7 11 c4 b6 3f
       0.12045009922387377 0.08892928973226463
000110 4d b7 49 f3 73 83 b8 bf c2 34 6c 94 02 a9 c1 3f
       -0.0957558125462274 0.13797027823640035
000120 e0 97 8f 74 79 0f b3 3f 5e 97 0c 68 1f 27 96 3f
       0.0744548711369073 0.021633616185816044
000130 ce 7d 41 75 09 c4 a6 3f 01 df 1a e7 a3 90 8c bf
       0.044464393199401195 -0.013947754373802025
000140 bb fc 8c ba b7 d7 c0 bf 0c 0a 25 ff 8b 85 a2 bf
       -0.1315831814663165 -0.036175131698218704
000150 20 11 ed 5e 7f f1 b5 3f f1 a2 e0 f1 29 02 a1 bf
       0.08571621005564056 -0.033219633842525804
000160 8c db 20 5c 0a ba 77 3f 75 73 2f 09 a9 54 ba bf
       0.005792656391398487 -0.10285431360484927
000170 2c b6 2a 89 3d 5a c0 3f f2 5b e8 57 14 94 b3 3f
       0.12775391767120092 0.07647826334174093
000180 b6 b1 06 01 bf c4 a7 3f cc fc 33 18 94 49 c1 bf
       0.046422928691160534 -0.1350579374484141
000190 76 a2 40 56 01 85 c1 bf 0f 74 39 7e ac a2 bc 3f
       -0.13687149726435494 0.11185720521594099
0001a0 74 06 3d aa 01 20 a8 3f a8 c0 12 f4 35 c9 bc bf
       0.04711919024567815 -0.112445232475468
0001b0 d0 d4 0f 6f 28 7d bc bf 3a 35 d3 9f ee b6 a2 3f
       -0.11128475867720344 0.03655191136349818
0001c0 a2 25 04 fb 83 34 a1 bf 86 02 17 5c f6 22 a4 3f
       -0.033603786841989405 0.03932924150604315
0001d0 d2 e6 e7 e7 1e 2b 87 3f 9d 0e 79 6a cc f9 8c bf
       0.011312715007977845 -0.01414832782678071
0001e0 0d a6 70 0e 30 2d bc 3f aa 62 12 78 18 3b b4 bf
       0.11006450989284407 -0.07902672702256078
0001f0 db 8d 4f 5b d3 e8 7c 3f 91 1c 71 01 38 1d a6 3f
       0.00705797730640564 0.04319167153931248
000200 6c 49 8a 72 e1 1b 96 3f 93 22 48 06 94 23 ad bf
       0.021590731254556614 -0.056912065283602285
000210 83 ee 86 61 12 0b b8 bf 73 30 d1 cc 60 f2 99 3f
       -0.09391894227058555 0.025338661671682815
000220 15 dd a9 36 08 ba a4 bf c3 c6 db 1b e3 95 a9 bf
       -0.040481812165064 -0.04997167315549469
000230 15 bf 3a fd 7b 3d ba 3f 5a d4 67 9b 7c c1 b8 bf
       0.10250067646370227 -0.0967023734481968
000240 2b a0 3e 7e ab 4a 71 bf 93 af 42 26 f3 12 a4 bf
       -0.004221601386156275 -0.03920707552001015
000250 3c b5 26 00 af 58 a1 3f c4 fd 99 d8 b1 79 7f bf
       0.03387972714277018 -0.007684416495635064
000260 13 74 6a 6f 54 27 bf 3f 52 b1 ff 95 c3 62 b0 3f
       0.1216938755046189 0.06400701915817322
000270 f5 cf 1d 5b 66 be 9a bf 30 a7 cb c0 fc f1 88 bf
       -0.026116942702586205 -0.01218030417790636
000280 5a d7 1a cd 97 64 ab 3f ee 4e 53 4e df 27 b9 3f
       0.05350183848115249 0.09826465284578109
000290 c8 01 b1 ee 4f 62 98 3f 3b fb ac 35 6a 75 b7 bf
       0.023812531417435584 -0.09163535891000844
0002a0 1c 47 34 4e a2 cc 94 3f c7 a6 36 2b 39 fb b8 bf
       0.020311866782385044 -0.0975833635808626
0002b0 7e 13 00 f0 03 08 b4 3f e5 5b 54 30 d1 07 a5 3f
       0.07824730500585805 0.04107526507339524
0002c0 dc 84 b1 9b 8e b9 c3 3f 5c b9 39 74 6f 40 af 3f
       0.1541002521726459 0.06103847783821223
0002d0 ed de 86 f2 7a 89 bc bf 44 45 6e 75 c7 4e ac 3f
       -0.11147278233590514 0.055288537106330554
0002e0 21 6c 9a f4 5f a3 b6 bf 2e 12 e9 7e 7c cf b5 bf
       -0.08843040200956455 -0.0851972398605276
0002f0 98 bb 6f d6 e8 72 a4 3f 5d 58 ed ab 1f 26 76 3f
       0.039939190079045506 0.005407451359891705
000300 e9 77 39 85 57 59 c4 bf 91 62 76 7c be d4 9f 3f
       -0.15897649769880154 0.031084991785606923
000310 44 2e 45 53 ab 51 b1 3f 67 5d 81 cd e7 48 b2 3f
       0.06765242369618202 0.07142494933338171
000320 68 5a 23 bd 61 24 a0 bf 52 ea c3 84 82 d5 63 3f
       -0.03152757104696918 0.002421145362061319
000330 e7 4f 11 e7 6d c7 ba bf a3 8b ee 5a 63 f7 a5 bf
       -0.10460554972934198 -0.04290304646499201
000340 58 9a 1c e4 4e 9e b4 3f 1c 8e 1e 39 9b 21 aa 3f
       0.08054059094556842 0.051037646029069544
000350 b1 48 df c1 47 3d b6 3f a4 ec d7 68 6f ef af 3f
       0.08687256320198135 0.06237362055613829
000360 62 24 51 89 19 c4 86 3f eb f4 46 f9 a1 14 81 bf
       0.011116218092995737 -0.008340135021052983
000370 5e 6a 37 b5 15 e9 b5 bf 9e 6a 0d 48 42 8a b9 bf
       -0.08558784174184939 -0.09976591357318873
000380 0c 3a 88 05 14 79 b1 3f f7 8a ca 85 80 18 b4 3f
       0.06825375685750873 0.07849887148271849
000390 62 43 87 26 21 ff 90 bf 89 9e a2 9e b8 18 b3 bf
       -0.01659824178370018 -0.07459596512728174
0003a0 f6 b1 72 d8 f5 1c 51 3f 1e 8c 3d 20 5e a9 ae 3f
       0.0010445023379289631 0.05988592284736448
0003b0 10 ab e0 81 87 2d b0 3f e0 a5 52 e0 4e a1 c6 3f
       0.06319472237434476 0.17679773286117406
0003c0 6f a8 0a 1a c8 70 aa 3f 15 08 ff 71 03 19 ca 3f
       0.05164170568362258 0.20388835016461884
0003d0 f9 c7 2d 6a ab 63 ac 3f 8c 88 8e c6 a6 89 b2 3f
       0.05544791861656501 0.07241289470269602
0003e0 9f ee 00 8a fa fa 86 bf 19 03 25 41 0d b0 b4 3f
       -0.011220891319786928 0.08081133690303623
0003f0 f8 86 d6 08 35 f9 b8 bf 45 62 34 7f b0 c8 c4 bf
       -0.09755259958049212 -0.16237455569423012
