ptlpinns/models/train/overdamped_k15/model_overdamped_k15.pth (torch, 425834 bytes, 36 tensors)

linear1.weight f8 [128, 1]
000000 18 a7 67 f4 ef b0 e5 3f a8 d1 b7 35 23 84 c1 3f
       0.6778487943203997 0.13684501765204726
000010 18 f0 2d 9d 2d ca d8 3f 29 21 2a 2e d6 c7 e8 3f
       0.38733997678332477 0.774394121327565
000020 c2 e9 f6 cc 5c 22 d4 bf a1 ab a4 16 78 4e ed bf
       -0.31459732070984725 -0.9158287470103127
000030 f6 ac da fa 83 01 e7 3f 7b 1c 80 4a 78 6c e6 3f
       0.7189350032325865 0.7007409529768575
000040 f4 63 72 76 84 86 80 bf 44 52 65 b3 5a 74 e2 bf
       -0.00806907164069235 -0.5767034057449298
000050 27 a1 4a e2 7d 6a cc bf 0d 73 3c 29 fc 9b d4 bf
       -0.22199986981764505 -0.32202056910482285
000060 d4 b2 e0 dd d5 ca bd 3f 3e 3f 15 8a 9e ec ea 3f
       0.11637627283989654 0.8413841912206192
000070 45 bc ee 86 fa d6 f0 3f e1 81 6a b4 b7 a8 e8 bf
       1.0524850149920593 -0.7705954097510209
000080 57 ad 33 b0 bd 4c e1 bf af b5 5b 2c 03 e3 ea bf
       -0.5406177941744471 -0.8402114740726371
000090 5f b4 22 e5 3d 39 e2 bf ea 35 bc ba 7f 89 9e bf
       -0.5694875216773986 -0.02982139184228131
0000a0 68 45 cd 5e 8a 38 e3 3f fa 49 af 98 d6 bd d1 3f
       0.60065191761002 0.27721180830590664
0000b0 95 00 e7 14 34 2f e5 3f 88 7d 1f c5 8a a4 e9 3f
       0.6620121391533923 0.8013357019480489
0000c0 e0 e2 93 fe 51 f2 e8 bf 9f f2 4a 2a 95 af cb 3f
       -0.7795801136226963 0.21629585805012128
0000d0 ed 30 02 73 9b af f0 3f 60 1a 85 16 a8 1a d6 3f
       1.0428728573343122 0.3453769893571117
0000e0 7f 8a ee 08 e2 7c e1 3f 6b 8f 06 cc 4c b0 c1 bf
       0.5464945005845293 -0.13819274866284145
0000f0 11 36 5b 1f 36 43 d2 bf 04 17 2b 66 9e a9 e0 bf
       -0.2853522592748457 -0.5207054133868216
000100 4c 3e 1b cd 0f ad 80 3f 50 7b 30 3d 8e 07 d9 bf
       0.00814258904156797 -0.39108615851903483
000110 6a 1c d7 09 ae 3c df 3f ed 84 26 82 73 78 ed bf
       0.4880786033722361 -0.9209535161973271
000120 11 a8 96 c4 3c b6 b9 3f 06 4e fb b2 31 1a e0 3f
       0.10043697165988898 0.5031975265250714
000130 54 01 32 90 18 21 ed 3f e9 96 2a 92 99 93 e4 bf
       0.910290032989034 -0.6430175642787762
000140 17 60 05 80 a1 77 e6 3f 1c a6 40 03 c8 b6 cb bf
       0.7021033764276606 -0.21651554259123962
000150 40 31 cc bb 8b 53 ef 3f 1b cd d4 61 30 8c e2 3f
       0.9789484661028283 0.5796129141585057
000160 58 08 a5 f4 c2 b8 e2 3f f8 bd d6 f1 fe 7b d0 bf
       0.585053899594878 -0.25756810776780936
000170 64 88 58 67 6d 6c a7 bf 34 c3 f2 1c 0a 19 a0 bf
       -0.04574911009355345 -0.03144103625652975
000180 e1 f9 a5 32 b6 d6 e9 bf c1 86 b6 4c 92 11 ee 3f
       -0.8074599255776854 0.9396449564266832
000190 7e 3a d4 16 75 ef e9 bf 15 0a b9 c5 cc 51 e7 3f
       -0.8104806371573685 0.7287353383802065
0001a0 36 4c 07 50 44 68 af bf 72 f5 25 f4 a3 44 b7 bf
       -0.06134236790571672 -0.09089112005854874
0001b0 8f 9a 17 e1 28 ec ee 3f a6 ce 6e e6 f1 eb e3 bf
       0.9663280865032265 -0.6225518704072399
0001c0 15 58 35 2f 65 07 d9 3f 16 89 13 e7 5f 10 f0 3f
       0.39107637033646486 1.0039977098863964
0001d0 d8 e7 35 87 1f f0 e8 3f ed 1f 4d 43 a6 86 e3 3f
       0.7793119088012146 0.6101867022016428
0001e0 9c 03 2c 72 3f fe e3 bf 38 e7 83 1f f5 ec c6 3f
       -0.6247861127777585 0.17910636938887037
0001f0 03 be b6 d1 3c fc dd 3f 08 72 7c 43 03 ee b2 3f
       0.46852035980097656 0.07394428632364491
000200 d2 50 0e 87 9c c5 e2 bf e4 47 0a 1f 8f 2f d0 bf
       -0.5866224897204353 -0.25290277510896275
000210 20 da 7d d8 eb a4 e1 bf 5d 31 c4 8c f3 7e e7 3f
       -0.5513819912292242 0.7342469930022549
000220 70 3e 91 ed be c0 e4 bf d1 f4 6f 4f 94 8f ef bf
       -0.6485285415637474 -0.9862767745504702
000230 b7 3d ce 71 4d 5e cb bf c3 20 58 28 2a 3e bf 3f
       -0.2138153844539212 0.12204230771033324
000240 67 e1 1e c1 3e d2 d3 bf 2b e6 ff c0 c8 db e4 3f
       -0.3097073446220037 0.6518291253589202
000250 2a 28 85 68 fb 75 d4 3f a3 0f 08 34 4e 13 ef bf
       0.3197010536865742 -0.9711066261520397
000260 15 4a a7 79 f5 99 e8 bf e2 a7 50 1b e4 77 e1 3f
       -0.7687938095135133 0.5458851369378375
000270 7e 03 4a 69 54 11 d0 3f c1 48 23 a5 0b d8 e3 3f
       0.2510577228750249 0.6201227403019162
000280 d3 d6 db a3 f3 5f d4 bf d6 14 4e 6c 8b c3 b2 bf
       -0.31835642816382154 -0.0732962741295354
000290 8a a7 ad 35 09 9b ca bf 30 3b 7a 7e 0d 4f ec bf
       -0.2078563224889048 -0.8846499891531945
0002a0 42 1c e2 32 7e ee c2 3f a4 17 cc fa 99 07 ea bf
       0.14790322765859015 -0.8134279154189596
0002b0 b1 3d 5e a6 45 f2 c0 3f 2d 1d 73 e6 31 6e f0 bf
       0.13239355681842604 -1.0269030572834013
0002c0 bf 3c 36 f4 22 96 c4 bf 38 73 f0 65 60 47 e5 bf
       -0.16083180355460588 -0.6649629584313521
0002d0 95 c3 1b cd 04 80 d2 bf a3 89 2e a6 07 76 eb 3f
       -0.289063644696449 0.8581579442728081
0002e0 25 2e 9a b7 24 8c ed 3f e7 1f c5 9c 9f 45 da 3f
       0.9233573518735666 0.410499480338784
0002f0 58 1c d4 2b 9c 3b d9 bf 73 b9 54 7b fb 44 e0 bf
       -0.39426330833561485 -0.5084206970985136
000300 c9 81 1f 6d e7 8b e6 bf 27 fd 88 d6 cb 08 f0 3f
       -0.7045781260786096 1.0021475200918049
000310 77 25 b4 b8 06 29 d5 3f e8 7a 66 e5 66 2d ee 3f
       0.33062904393644693 0.9430422287440168
000320 6a c1 4a 30 93 3a e9 3f d3 ae 05 ff c1 d0 cb 3f
       0.788400263138141 0.2173082823968487
000330 38 78 04 96 8d 4f cb 3f 3d 36 b0 ec 93 0c e6 3f
       0.21336526703902492 0.6890353796786212
000340 71 ff 65 a9 99 ac e4 3f 22 b5 5e be bb 67 e8 3f
       0.6460693653643671 0.7626627653277505
000350 a5 12 35 b3 bf e6 ea 3f 0f 1b 76 88 e6 bd d4 bf
       0.8406675815718542 -0.32409060789397953
000360 4e 0f 26 a5 d0 84 d8 3f 1d 61 9a 03 28 1b e6 bf
       0.3831063854961386 -0.6908149786350212
000370 48 ec 13 68 b1 8d cf bf 48 f6 7d 91 df f0 6a 3f
       -0.24651162702488905 0.003288685471430939
000380 79 fa cf 1b b6 88 e0 3f 8b bc ba eb 85 e5 c2 3f
       0.5166883986674541 0.14762948999620948
000390 0a 36 93 e3 9c 70 c4 3f ac b8 12 10 c3 91 6b bf
       0.15968667137205755 -0.0033654031581909685
0003a0 75 c7 43 ee 8f e6 c9 3f 58 74 19 18 05 04 f0 bf
       0.20234870084783166 -1.0009814206489605
0003b0 b8 48 50 79 69 1b c9 bf c8 3c d8 0c ef d2 c8 bf
       -0.19614904807582945 -0.19393718840772167
0003c0 fa b0 d6 6a 5e 2c d2 3f c8 f6 47 ac fc 62 e3 bf
       0.2839580577226709 -0.6058333744874398
0003d0 bc 45 40 3c 94 1d cd 3f 01 39 07 79 71 a2 d8 bf
       0.22746518079706657 -0.38491474932824593
0003e0 4a 90 93 0a d9 01 ee bf d2 7f c2 2d 23 1a ce 3f
       -0.9377255636759483 0.23517265066493437
0003f0 47 61 4d e7 13 35 dc bf b8 ba 58 fc fe ab a9 bf
       -0.44073960865127443 -0.05014035063174077

linear1.bias f8 [128]
000000 e2 ec f4 88 30 b7 e7 3f ad a9 2f 46 e6 84 ea bf
       0.7411120104729003 -0.8287230845283396
000010 6f 68 40 3a 01 13 e7 3f 04 38 6a 10 4e 28 e5 bf
       0.7210699212767063 -0.6611700363735058
000020 5f 17 8d 5b 27 c0 d9 bf ec 57 18 a8 a0 3c e6 bf
       -0.4023531335882264 -0.6949008257968194
000030 2b 84 85 5d 15 08 e1 3f 7d e4 0f 95 3b 18 c6 bf
       0.53223675027778 -0.17261452463552365
000040 d0 e0 72 67 08 2d c4 3f 64 25 e5 d4 70 da e1 bf
       0.15762429286201618 -0.5579151304347474
000050 2a 3b 62 c3 64 4a d3 bf de 65 5d 67 84 ed e7 3f
       -0.3014156253856749 0.7477437990993925
000060 d1 66 89 88 7f 47 e2 bf 28 e4 0e d3 99 12 b7 3f
       -0.5712278048260605 0.09012757685458495
000070 45 bc 3e 67 d8 d5 df 3f 11 e3 a5 39 66 3f dc bf
       0.4974270828487913 -0.4413695872276984
000080 f8 1e 71 14 9c dd d1 3f 7e d3 d3 cc 35 a1 bf bf
       0.27915098186757303 -0.12355362177534165
000090 68 22 19 cd c2 86 d5 3f e5 96 85 d1 fd 7f d6 3f
       0.3363501551544119 0.3515619798766763
0000a0 6b fe f6 46 db 84 ed bf 57 de ab 7e 38 f9 e9 3f
       -0.9224678407699235 0.8116724466371562
0000b0 c9 75 d7 8f 33 4f da 3f 75 87 92 46 12 52 d0 3f
       0.4110840706542516 0.2550092400725739
0000c0 84 c6 9b a2 5a 5c d2 bf e6 e0 d9 e4 50 1c ed bf
       -0.286886843488084 -0.9097065419910251
0000d0 50 96 88 53 98 82 ea bf 87 9e b3 69 74 04 b9 bf
       -0.8284417754663966 -0.09772422390562428
0000e0 16 bd e5 80 2c a5 ed bf b3 d5 52 47 85 11 eb 3f
       -0.9264128224876085 0.8458887475050488
0000f0 7a 8d ab df d5 fb de 3f 15 6b 11 26 07 3a e4 3f
       0.48412081568513765 0.6320834868923578
000100 04 72 50 6f 9e 87 a5 bf 17 5f 84 7b 09 ac d4 3f
       -0.04205031498733905 0.3230003076764531
000110 8a d5 e7 d2 7f 93 ca 3f 45 4e 13 ba 56 1b d6 3f
       0.20762632177472212 0.3454186265127855
000120 0f 7e 13 f6 ac a1 83 3f 53 aa 59 c0 f4 a5 e8 3f
       0.009585715541503807 0.7702583081093713
000130 bb 2f e8 7e 28 32 dd 3f 66 c7 cb 12 f9 a6 e8 bf
       0.45618641274699784 -0.7703824393376919
000140 8c 1a c0 08 6e b7 e7 bf 49 1e 5d 58 6f 59 d4 3f
       -0.7411413355738019 0.31795867566367925
000150 78 c2 84 86 53 44 df 3f 84 4f 21 6a 5c 80 c1 3f
       0.4885453046472672 0.13672976667532677
000160 a5 48 34 57 15 fe e1 bf 16 12 f1 2e 82 3d ee 3f
       -0.5622660353858647 0.9450083653287631
000170 18 e7 b4 47 d1 7f e7 3f 2b 2d fc f6 98 89 db 3f
       0.7343527222176105 0.4302732860530393
000180 4e 99 e6 be e0 9b e8 3f 01 d4 07 19 0e ad cc bf
       0.7690280655413433 -0.2240312216014502
000190 82 fd 5d 0d 4d 5c 9a 3f 57 2f c4 0e a0 60 d4 bf
       0.02574272531591993 -0.3183975357248889
0001a0 99 1d 9a 66 c7 fb d8 3f f2 8a e1 1c 3e d0 e3 bf
       0.39036736507156317 -0.6191702426989123
0001b0 b2 dc 6a 96 34 7b d5 bf 63 cc 97 23 b0 cc d5 bf
       -0.3356448620720115 -0.3406181666934513
0001c0 b8 31 ec a4 fb a4 ea 3f 38 1c 68 db 0c b6 e9 3f
       0.8326395245690525 0.8034729275976877
0001d0 47 6d 13 67 ba 8c ea 3f 2c b8 75 4d ec a4 ce bf
       0.8296787274552252 -0.2394080522748835
0001e0 30 28 d1 4c 0e 03 e0 bf b2 a9 18 08 09 fd df bf
       -0.5003730297405635 -0.4998190478387655
0001f0 7a 18 ce e4 c0 d7 e6 3f 6c 93 74 ef d1 d5 c8 bf
       0.713837096104512 -0.19402527038723905
000200 37 85 dc d3 cc bc d8 3f 13 34 60 a3 15 83 eb 3f
       0.3865234440764484 0.8597515288289536
000210 fc e3 bc 05 2b 5f e6 3f 1c 1b ae 5c 4c f8 d0 bf
       0.6991171943728882 -0.26515492487708214
000220 48 3d d8 f1 8f 9d dc bf 94 3b d9 99 38 0f e4 bf
       -0.4471168386234763 -0.6268580441336433
000230 1a 95 0e 6a 6f 85 d5 3f 9c b4 87 76 c8 7c a2 3f
       0.33626923901677375 0.036108269185072234
000240 34 9a 2c ee 10 62 c6 bf 26 13 8a 8f f1 0b d5 bf
       -0.1748677409134004 -0.32885397927775484
000250 70 5e 17 d4 d1 f0 d8 3f 42 0c 60 ff 70 9e e9 bf
       0.3896984645084336 -0.8005909908100721
000260 44 8a c9 96 46 29 e1 bf d7 c9 c3 31 54 28 ca 3f
       -0.5362885422767438 0.20435573987886244
000270 2d 95 9f 62 6a 0b e5 bf 32 5a 9b 49 a0 0f e0 3f
       -0.6576435018766112 0.5019074857362453
000280 33 4c 30 0f de a3 e9 3f 95 3d e7 b6 05 06 ee bf
       0.80125334707771 -0.9382351467447047
000290 92 7e c2 b8 47 5f e5 3f ff ad af bd 9c 41 aa 3f
       0.667880879267573 0.05128183188920942
0002a0 04 f4 91 21 bb 8f de bf d5 12 31 89 94 83 e0 3f
       -0.47752264288266155 0.5160620383763567
0002b0 3f 07 ea 2a 11 6c 94 bf 92 c0 84 53 78 8d f0 3f
       -0.01994349312236143 1.0345385801738627
0002c0 d1 16 58 54 85 ce ed 3f c8 d8 df de 30 f9 e5 3f
       0.9314600608201663 0.6866688111320167
0002d0 ef 89 84 cf 09 8c dc 3f 57 21 bd 89 1a 93 e6 bf
       0.4460472609081582 -0.7054569902621023
0002e0 78 97 3f 27 6d 81 b0 bf 46 97 19 93 d9 f1 b4 bf
       -0.06447488983357441 -0.08181533662135818
0002f0 fc 4b 12 de da 1c d5 3f 78 3f 57 03 63 53 e2 3f
       0.3298861664454191 0.5726790490389098
000300 70 e1 71 71 09 bf c3 3f 95 6a b3 f4 ed c9 e9 bf
       0.15426748313235406 -0.8058995990098362
000310 68 a6 09 22 c5 2d e8 bf 93 d3 2a 07 c0 e9 d0 3f
       -0.7555871643828143 0.2642669744484973
000320 53 2c 76 60 bf a5 df bf ef d6 9a 2f ea 2e ed 3f
       -0.49449142856673695 0.9119769029409478
000330 bd 5d 15 72 8d 61 be bf 6d fa 4d 3b 4a 4f e6 3f
       -0.11867603335610162 0.6971789511006371
000340 56 c0 15 bb 24 5e e7 3f f2 8f 94 b6 f3 bd e3 bf
       0.7302421239855998 -0.6169375005742934
000350 c8 c3 8b f8 9e 08 b5 3f d4 d0 e8 c7 0e d2 e9 3f
       0.08216279571548946 0.806891813705557
000360 5f 64 43 ea 64 17 ec 3f fa f2 af cb 18 5b eb bf
       0.8778557372526271 -0.8548702219264606
000370 16 5d 29 18 a6 b0 e8 3f 73 7a ae 9e 45 0b b2 bf
       0.7715635749727052 -0.0704844963461058
000380 6a ee 52 9e bc a0 d7 bf 0e d8 6a d2 78 f7 c1 bf
       -0.3691855951435402 -0.14036474489483947
000390 de 61 0b 36 ed d3 d0 bf 52 c1 a6 61 21 cb db 3f
       -0.26293497350482464 0.4342730954768018
0003a0 3e 99 a8 e2 8c 07 d1 bf 86 f0 27 c7 14 af ed 3f
       -0.2660858357870842 0.9276222123876472
0003b0 e2 23 c5 93 a5 fa de 3f 50 f6 23 b6 3d 24 cd 3f
       0.484048265749662 0.22766848939493167
0003c0 b5 c4 40 36 3c 6b d4 3f 71 0e 8b 25 1a 74 e8 bf
       0.31904511736054114 -0.7641726239457524
0003d0 23 66 ee 7f 69 11 df 3f a3 c6 88 2d e8 64 ed 3f
       0.48543775075231305 0.9185677422849107
0003e0 47 4b 02 b9 5d e2 e7 3f 36 5d c9 54 51 69 d1 3f
       0.7463825810867569 0.27205308227481184
0003f0 33 55 bf b6 dc 33 c2 3f 02 44 fe 66 62 a3 eb bf
       0.14220770762646281 -0.8636943828188353

linear2.weight f8 [128, 128]
000000 2d 35 53 a1 30 ae a7 bf 1b eb 58 71 f0 a9 b2 3f
       -0.04625083894061741 0.07290556685704212
000010 0d 8d 7c 7f b8 57 b8 bf 02 e8 db 07 73 bf a9 3f
       -0.09508851158584637 0.050288767537452386
000020 d4 16 62 0f f7 ae 9e 3f f6 8e 07 bb 86 c9 c5 bf
       0.02996431380645144 -0.17021259434033426
000030 2b 83 56 54 84 41 a0 3f c1 fc c4 77 49 cc 95 3f
       0.03174985436931473 0.02128710549845603
000040 cd 74 f4 46 1f 12 89 3f 0d d9 4c 37 4f b2 74 bf
       0.01224159655844872 -0.005052861630977523
000050 be df 12 41 ba 9d 94 bf de 7d ca ef db 63 b7 bf
       -0.02013293287447459 -0.09136747936508224
000060 12 df 55 47 08 54 6e bf 71 6f ed a9 98 e6 a3 3f
       -0.003702179116483858 0.0388686854773529
000070 19 a3 1b bc e0 93 82 bf 49 8c 14 35 5c 32 b2 3f
       -0.009071117153739249 0.07108093543915674
000080 6c 12 67 31 ca ea a4 3f fb 3a e4 76 1e bc 99 bf
       0.040853804140657285 -0.025131679541170886
000090 54 9e b0 8c ae c8 a0 bf ce 6d 70 f5 77 0a 90 3f
       -0.032781080888807296 0.01566493449727862
0000a0 ab 54 7e f8 71 88 b4 3f e9 7e 71 70 44 0d 9b bf
       0.08020698849425638 -0.026417798388478273
0000b0 b7 32 07 94 aa f3 b0 3f 2a 98 5f d6 a0 a8 a6 bf
       0.06621805299728122 -0.0442552816091822
0000c0 f2 fe 58 0e 94 7d 9f bf 46 a4 f6 a0 7a 25 6b bf
       -0.030752480865202388 -0.0033137698262249186
0000d0 75 54 dc ee ba b7 d4 3f ba e5 5b 42 ee 5b 77 3f
       0.3237140019057912 0.005702906322534168
0000e0 72 07 7f d6 a9 4f 71 bf 48 53 36 63 bd 8e a0 3f
       -0.00422636359138716 0.03233901821218993
0000f0 91 c0 e3 59 63 a2 b7 bf 3d c4 46 13 87 56 ab bf
       -0.09232159561702448 -0.05339452848728186
000100 75 8e ba cd de bc 5d 3f 8d 04 17 87 df 50 8c bf
       0.0018150497261694408 -0.013826128301732044
000110 d2 08 72 d6 4a 58 58 3f 97 49 11 c9 87 d2 b5 bf
       0.0014858942829794508 -0.0852436891448519
000120 1c 00 a3 18 99 b4 b5 bf a1 c8 83 db 0a 40 a5 bf
       -0.08478695727808411 -0.04150422982810765
000130 af 73 0d a5 24 15 a5 3f 1c 4d d5 f8 4f 1f 93 3f
       0.04117693438340752 0.018674134790967675
000140 b3 60 ed 83 b4 bb b2 bf 91 94 17 65 30 f5 92 3f
       -0.07317665310745518 0.01851344697015073
000150 47 fe eb d8 c6 54 cd 3f 0d fe 6d c3 6d 48 b8 bf
       0.22914968101393837 -0.09485517522079352
000160 5c 5f 85 80 6b 93 b1 3f 6c 9f 3d 8f 2e 3f a7 bf
       0.06865569961280243 -0.045403914437712384
000170 6b 6c 42 46 b6 81 83 bf 3a a1 17 e2 d9 f2 b9 bf
       -0.009524749774121063 -0.1013618638022579
000180 d1 d5 70 40 95 bc 92 bf 9a e5 ca 70 b6 1e c1 3f
       -0.01829751210990144 0.1337497759575797
000190 9f 0d db 23 ff 7f 87 3f e1 6d 2b 4f 1d d7 b8 3f
       0.011474602967956936 0.09703238661625548
0001a0 ef c5 23 42 91 c3 a4 3f 3d a9 17 e5 de 0d 9e bf
       0.040554560970018964 -0.029349787457172417
0001b0 df 86 49 24 8e 02 be 3f 97 c9 2a e1 b8 be a2 3f
       0.11722648988645855 0.03661134480116173
0001c0 df 6f e9 ae 2b 40 93 3f 71 61 51 7b e4 89 ac 3f
       0.018799479056141762 0.055739536336377855
0001d0 c7 26 a2 c2 e4 ee a0 3f 8c fd 60 01 8e 96 9f 3f
       0.03307261348625228 0.030847758134994005
0001e0 65 fd b7 46 41 b8 84 3f 18 eb 67 48 80 6b a9 3f
       0.010117063494361653 0.049648293341269134
0001f0 6b 93 a3 66 c7 17 43 3f b8 26 f0 80 bb 04 b1 bf
       0.0005826686513300377 -0.06647846124556167
000200 73 2f 6c 09 9a 13 b3 bf e7 1b a6 d9 ed bc 60 3f
       -0.0745178483013527 0.002043213416246459
000210 7a b2 19 46 d9 6f 90 bf 0f 3d 31 00 a6 4f b7 3f
       -0.016051669028842565 0.09105908875175238
000220 c7 2f 94 fe 31 f4 a4 bf c5 5c 9e d6 33 83 b3 bf
       -0.04092556221630122 -0.07622074117385853
000230 b0 86 1a 79 ee b1 93 bf 88 e9 7a 17 0f f0 ac bf
       -0.019233442441538073 -0.05651900445578223
000240 38 e5 29 15 e7 d0 ac 3f c3 fd eb 4a 15 4e a1 bf
       0.05628130086274513 -0.033798852344257856
000250 da d2 88 c2 02 ef 94 3f d5 c9 5d 84 34 81 c9 bf
       0.020443003772203074 -0.19925552809907168
000260 ac 26 58 77 b7 b6 8f 3f 55 17 db 05 2c b7 82 bf
       0.015485223130798552 -0.009138435295777883
000270 a4 e1 cb 8a ad e3 a5 3f 73 14 05 8f 6f c7 af 3f
       0.042752669518395764 0.06206844921920487
000280 af 3f 26 d6 e8 9a a4 3f 28 3f 96 94 5a 88 98 bf
       0.04024436582687884 -0.023957648581528407
000290 89 84 25 47 28 51 b6 bf 03 b8 5c a3 fe 22 aa bf
       -0.08717586266495138 -0.05104823822181006
0002a0 ec 62 c3 db e6 2b a5 bf 20 7c 71 c0 95 77 a3 3f
       -0.041350569082799854 0.03802173589860325
0002b0 3c 31 c6 d0 e8 16 ad 3f 95 bf ec ec 10 2a d4 bf
       0.05681541012299582 -0.3150675119131788
0002c0 08 87 d1 7b b6 2c 91 bf 6e 97 d3 cd 55 d3 b4 bf
       -0.016772128398208103 -0.08134971880971673
0002d0 b1 84 28 cd cf 64 a9 3f be b7 eb 3d 81 f5 ac 3f
       0.04959725741742583 0.05656055336827091
0002e0 ab 37 1c 0d 69 52 b1 3f 95 ed c2 1c be 27 b5 3f
       0.06766373224328841 0.08263767435248888
0002f0 ca b4 f6 fa c4 4c b5 bf 43 3d b3 de 19 10 83 bf
       -0.08320265891116488 -0.009308054074067434
000300 aa 35 a7 e2 21 e6 b1 3f aa 8a 3b 28 3f 9f cc 3f
       0.06991779120945432 0.22360982384187383
000310 f4 59 ee 31 bd de a1 3f 00 65 42 86 93 8e c9 3f
       0.0349024890376092 0.1996635823786974
000320 6c 3d 3f 83 1e 50 b8 3f 87 cd d3 6c d5 36 90 3f
       0.09497252182267396 0.01583417393426381
000330 2d 17 bf 42 a7 3d ae bf 8a 10 42 9f 92 c1 99 3f
       -0.05906412782455415 0.025152483911839364
000340 42 ed 82 c4 42 5c ad 3f ac a8 58 25 3e 52 a2 3f
       0.057344519127094276 0.03578371244323483
000350 61 76 5b eb 65 af a2 3f a8 d8 ec 76 f7 18 90 3f
       0.03649443147672283 0.015720240243546485
000360 b3 21 f8 a0 e2 2b b0 3f 56 f9 fe db 8e 2c 96 3f
       0.06316963605798413 0.021654350450029135
000370 e5 16 2f 5e 04 6d af bf b8 bb 0f 6f 1f 18 a3 bf
       -0.06137860917764985 -0.03729341726999941
000380 42 d6 1c 53 21 47 a5 3f 89 bc a0 96 08 27 66 bf
       0.04155830516394278 -0.002704159521293163
000390 7b f5 c5 97 a9 b1 a0 bf 90 86 fe 54 37 b7 af bf
       -0.032605457093249655 -0.061944703221581965
0003a0 d6 fc bb ee 15 a0 a5 bf 17 39 67 78 bd 37 b1 bf
       -0.04223698176610362 -0.06725677670985807
0003b0 a2 86 a6 61 4f 8b b1 bf 7b 5d 1c b4 2b ef a9 3f
       -0.06853195318265162 0.05065285276048833
0003c0 44 c9 32 c9 45 58 af bf aa 76 da 94 17 fe 42 bf
       -0.061220341501569325 -0.000579606546768215
0003d0 28 64 c3 ce 29 bf b2 bf 4f 76 37 5e 41 59 b6 bf
       -0.07322942064219318 -0.08729942846499593
0003e0 ab 74 da c2 45 bd 85 3f 5b 89 f4 6d d5 65 b0 bf
       0.0106149149026414 -0.06405385908559451
0003f0 ef 09 98 b7 9b bb 62 bf 81 69 c4 3f 07 df a6 3f
       -0.0022867242194035613 0.04467032102020863
000400 a7 56 8e 84 06 7d 82 bf 00 c9 41 80 52 d2 b2 3f
       -0.009027529640472777 0.07352176314615022
000410 af d3 15 80 82 80 a2 bf c0 5c 44 25 df 0a a3 3f
       -0.036136701712997314 0.03719231920165944
000420 57 97 a6 d5 b8 17 a8 bf 0a 89 07 b7 1f fd 92 3f
       -0.04705598457375853 0.018543715997915412
000430 23 94 46 ea 6e 71 b3 bf 34 48 ca 98 4b 82 a5 3f
       -0.07594960422154932 0.04200969925035772
000440 6d ff 4d 05 f5 39 a9 3f c1 39 a0 d5 08 fc b5 3f
       0.04927030267481212 0.08587699141955964
000450 f6 d0 69 6e 11 cc a4 3f 8f 11 42 22 54 83 a3 3f
       0.04061941597766065 0.038111333066839774
000460 f5 c0 54 e5 f9 5d b2 3f e9 89 b2 f6 ea 98 76 bf
       0.07174646233466205 -0.005516927553943487
000470 78 30 c6 3a 51 ff b2 bf f9 a4 44 15 59 ce 8c bf
       -0.07420833287159379 -0.014065452539016908
000480 e8 78 f5 c1 29 ed 61 3f 4e 69 f8 c0 cc cb 84 bf
       0.0021882834986818207 -0.010154342307079258
000490 23 b6 b5 e6 5d 63 a6 bf d8 41 ad bd 5f 49 a2 bf
       -0.043726858532732636 -0.03571604910269216
0004a0 d1 1e a4 72 8e 0f b0 bf 5e f6 e0 d0 27 01 a8 bf
       -0.0627373723874556 -0.04688381600179235
0004b0 a0 fd 37 50 80 15 77 bf cb b3 16 30 7c 4d 5e 3f
       -0.005635739540138657 0.0018495285770356747
0004c0 30 70 aa 2b f4 f2 9e 3f f3 2d 2b fb 32 a0 5a 3f
       0.030223670163295135 0.0016251085150312788
0004d0 87 f8 11 0c 12 6d a7 bf d1 aa 12 45 ea 22 ae bf
       -0.04575401685086527 -0.05886013119864731
0004e0 a8 fb ad d9 70 63 a3 3f d5 00 05 b0 b8 a5 a0 3f
       0.03786804825994433 0.03251435421634744
0004f0 c9 37 a7 1b a9 bf b7 bf dd ef ba 57 7d 4e 93 bf
       -0.09276825833441572 -0.018854101638439025
000500 6d 9f e7 ea 88 33 b0 3f d5 dd 75 51 23 ed a7 3f
       0.06328635916690724 0.04673109406843038
000510 f2 6a 86 b8 19 f3 a5 3f bd 0d 10 1b 12 c2 a2 bf
       0.04287033441069878 -0.03663689213137953
000520 5a b2 d3 7a 12 89 a5 3f 52 db 5e b0 0d ae aa bf
       0.042061402791522 -0.052109172610861024
000530 36 8c d7 b4 eb ed a0 3f c8 ac f6 e1 3a 87 80 bf
       0.03306519110244503 -0.008070430775509854
000540 f3 12 25 85 e3 38 af 3f 44 dc 8c 13 5f 8b 19 3f
       0.06098090172102912 9.744422721956562e-05
000550 b2 e1 1a da bf c2 a0 3f bb 67 25 85 99 7a b0 3f
       0.032735820173403055 0.06437072277677107
000560 1b 54 97 fa dc 88 b0 3f 18 39 7c 23 34 ae b5 bf
       0.064588366679644 -0.08468938700045603
000570 f5 8f 49 87 cd 81 b2 bf 2f f4 91 c1 de 94 a1 bf
       -0.0722931342402829 -0.034338914040724304
000580 45 e5 a2 98 35 17 ac 3f 7a 5a ab 1c af 35 b2 bf
       0.05486457336651055 -0.07113165330825125
000590 4e 7f 21 b7 d7 a5 b8 3f d6 df 3e 22 9b a9 b2 3f
       0.0962805578324126 0.07290048204492847
0005a0 0b 2a 39 58 e2 50 a7 3f 29 3d d4 56 68 a9 aa 3f
       0.04553897215790322 0.05207372722554233
0005b0 d1 ac 05 44 94 13 b5 3f 8c fb ec 90 0d d7 9a bf
       0.08233000431725947 -0.026210987062991672
0005c0 f0 b4 5d fe 4d b5 a4 bf 48 2b 8b 71 b9 97 b9 bf
       -0.04044574480108476 -0.09997138044415721
0005d0 58 fa 20 33 c7 ab 7b bf 71 0f 6d 1a 4b 49 a8 3f
       -0.006755617259897116 0.047434184051353585
0005e0 70 6e b4 cf af 6d 9c 3f b3 e1 89 a7 15 04 b2 bf
       0.027762171795173207 -0.07037482586191039
0005f0 e1 d8 8b fd 0e b8 b9 bf 15 74 78 62 6e db 70 bf
       -0.10046476068586997 -0.004115515890160478
000600 c8 e9 ee 42 2a b0 a7 3f 7c 59 36 ea f2 32 b6 bf
       0.04626590792709667 -0.08671491830896189
000610 27 69 7e 27 ce da 96 3f bf 11 4c 99 ec 66 8d 3f
       0.022319050941953435 0.01435646860910189
000620 bd ae 0e 1d 04 8b 9b bf f4 f7 a1 30 9d 6f b8 3f
       -0.026897491715927247 0.09545309483834769
000630 30 0f e8 7f 8a e8 ac bf 0f 70 4a b0 14 0b a8 3f
       -0.05646164714201374 0.046959539909238505
000640 c9 44 60 7d 85 59 a8 bf bb 4f d7 28 8d 3f a0 3f
       -0.047557994417851975 0.0317348587374506
000650 73 78 63 c3 47 50 a1 3f 16 e1 a4 5e d2 14 b2 bf
       0.03381561527361123 -0.07063021479269013
000660 da 64 a3 fa f5 03 b6 3f 94 b3 6d 3c a9 cf b3 3f
       0.08599793786142432 0.07738740659051607
000670 05 f2 38 b1 50 7e 93 3f f0 4d 58 9c 4c 38 ad 3f
       0.019036541764068122 0.05707015427119788
000680 e0 d8 9a 5f be 7e b1 bf 64 05 c2 18 e6 30 ae bf
       -0.06834020456412615 -0.058966818353847456
000690 bb a3 ac 71 17 61 b1 3f 73 5a f9 f5 f4 e3 b1 3f
       0.06788774991276984 0.06988459592080591
0006a0 d0 32 46 49 8a a5 8a bf d5 d8 52 0c b7 f0 09 bf
       -0.013011055337096705 -4.947718256558131e-05
0006b0 4b fb 07 3f 6b f1 a1 3f ac 9e f7 93 26 e6 94 3f
       0.035045005268321626 0.020409205228047497
0006c0 50 ff 9d aa 8f 7c ad bf 9d 2d 7d 96 ee bc ad 3f
       -0.05759095151643001 0.05808206164382599
0006d0 9a 85 5f a0 ef ed 80 3f 68 a4 c7 07 21 e2 8a bf
       0.008266326982211681 -0.013126619386598828
0006e0 f7 cf 65 63 b8 06 a5 3f 8e 45 05 61 fa 8a b2 3f
       0.0410668965659226 0.07243313664118586
0006f0 95 cd e9 8c 06 20 74 bf 4d ca b3 66 fa 2a ad 3f
       -0.004913354480425088 0.056968522107031384
000700 34 e6 35 a9 ac 30 84 bf 96 22 e1 dd d7 d5 7a bf
       -0.009858464158912651 -0.006551593045579415
000710 1b 1b 22 15 0e ee 91 3f 83 f8 b3 bc cd b9 a3 3f
       0.017509670295591123 0.03852694443229245
000720 eb f0 b8 07 06 19 92 bf 7b 7b 4e 51 f8 11 b2 bf
       -0.01767358228811215 -0.07058670029662821
000730 49 35 25 5a 46 bd b1 bf ec a9 5a 68 c5 b0 a0 bf
       -0.06929435444654532 -0.03259865664343295
000740 b1 72 94 78 25 61 a1 3f 26 f3 42 2c cc 37 a0 3f
       0.033944292992804555 0.031675701525705244
000750 c8 a0 bd 6d 3b d0 97 bf eb 76 d9 cb 1d b9 8a 3f
       -0.023255280087511904 0.01304839399670806
000760 31 bc 7c 04 15 a3 b4 3f ab 81 12 95 1a a7 a4 3f
       0.08061343535949629 0.04033740110139957
000770 d8 d4 ed bb a5 a1 a7 3f 76 3b b3 8f e3 bb b4 3f
       0.04615514678054361 0.08099195726684436
000780 19 e7 9c 9f e6 fb ae bf 12 52 65 c7 b8 65 a2 3f
       -0.06051560114288019 0.0359323256876999
000790 13 b7 20 11 2c fb a2 bf 20 71 6a 7d 58 3e 8f bf
       -0.0370725413234664 -0.015255633666406754
0007a0 a9 7d 5d 6c e5 85 b2 bf 5e e9 86 e2 3f 3e ad bf
       -0.07235559363970502 -0.057115551378461346
0007b0 0b 5b a6 66 79 e2 b1 3f d3 86 1c 36 f5 7d ad 3f
       0.06986197239016805 0.057601607184791036
0007c0 e9 26 f7 3e 69 f2 91 3f fa 64 9f 2c 7f 69 82 bf
       0.017526287525277438 -0.008990281628870712
0007d0 f2 0a 4d 93 93 be b3 3f 72 6a ac cd 87 b8 b2 bf
       0.07712671610083158 -0.07312821170163789
0007e0 9d 55 12 7e e0 11 a0 3f 9d 43 4b e8 2b 25 a6 3f
       0.031386390103914176 0.04325234614009974
0007f0 c6 86 a5 cb 03 b2 b2 3f 77 43 cf 90 24 c2 9a bf
       0.07302879068222543 -0.02613122114036367

linear2.bias f8 [128]
000000 8a df db c0 1c e5 b0 3f 34 73 7b fe 2f 6d 8f bf
       0.0659959765288233 -0.015344977334672195
000010 62 7b 53 f6 21 56 a5 3f dc af b7 50 59 0b b6 bf
       0.041672765082458665 -0.08611067028658631
000020 0d 4f 68 29 f0 63 a2 3f de b5 32 38 ec 04 89 bf
       0.03591871743642914 -0.012216420617131737
000030 2f 97 64 12 dd bf 9a 3f 41 0f 5c d4 6e 8c a7 bf
       0.026122526404967757 -0.045993293211749726
000040 27 75 2d af 5b 2b 7c bf ea 84 99 12 02 21 9e 3f
       -0.006877287046191761 0.029422790894732133
000050 62 3e 5a 27 32 c7 b5 3f 81 ec 47 94 31 91 a6 bf
       0.08507073841814752 -0.044076489783003055
000060 58 96 05 d4 fd 8b b6 3f 52 4f 9d b0 3e 9a a0 3f
       0.08807360101999373 0.032426795062433414
000070 bd fb b7 78 92 66 b2 3f c6 5c d9 18 d2 0c ae 3f
       0.07187762686952133 0.058691564114889114
000080 4d 93 14 5a ad 94 a2 bf fa 55 ab 1e 7d 99 61 bf
       -0.03629056667913364 -0.002148384451497118
000090 b1 74 6f 31 98 55 95 bf 80 bd e0 3f c6 99 b2 3f
       -0.020834329621597095 0.07265891131895863
0000a0 56 27 ca 3a 1c 55 a9 3f 28 da c5 1e 2e 6e b4 3f
       0.04947746484420061 0.07980621577539948
0000b0 36 cf 16 14 cf 50 a2 bf e6 12 18 84 a5 71 b5 bf
       -0.03577277298191321 -0.08376535868599042
0000c0 a4 7d 59 6e 9b e1 b1 3f a0 76 f6 3e f4 cb b3 3f
       0.06984874195176488 0.07733084237266974
0000d0 93 48 31 6f 6a 4a b9 3f a1 69 7c cc 08 19 b1 3f
       0.09879174437199571 0.06678824417432462
0000e0 a8 2c 42 94 b8 37 a4 3f 2c 31 3c 23 9c f4 84 bf
       0.03948761758609837 -0.010232181382456483
0000f0 6e a2 a5 11 fa c8 6e 3f d2 ad 3a 35 a1 35 96 3f
       0.0037579425963268276 0.02168895614037842
000100 6a 55 1d 36 07 2b aa bf 51 05 c9 bf e2 47 a6 3f
       -0.05110952888086724 0.0435171946633185
000110 0b a3 26 80 54 da 97 bf a1 d5 b6 73 32 7f af bf
       -0.02329380066081214 -0.061517311692493644
000120 e0 44 46 c1 71 aa 9e 3f 08 c8 4d f1 0c c8 b2 bf
       0.02994706861642704 -0.07336502925116417
000130 8f d9 b8 e1 d4 cf 99 3f 49 16 05 ad 86 a2 af 3f
       0.025206877018911163 0.06178685056742645
000140 32 f3 a3 19 71 5f b6 bf 9b 9c 16 4d b4 83 a1 3f
       -0.08739382625567485 0.034207949075885945
000150 13 9c ed 61 fb 94 7f 3f 26 c2 b8 12 79 2e a7 3f
       0.007710439646735362 0.045276435408940593
000160 53 97 31 ef 83 a3 a3 bf 03 11 42 aa 98 db ae 3f
       -0.03835689825863988 0.060269137175994934
000170 86 65 6b 15 6d 64 b6 3f d2 33 b9 c6 b3 77 ba 3f
       0.08746988079965065 0.10338901139876036
000180 4a 3e e7 65 16 61 95 bf 1a d7 04 1c b3 d5 a2 3f
       -0.020878171891864285 0.036786648912693745
000190 e6 89 aa 02 f1 ce ae 3f 91 7b 6c 47 45 88 ba bf
       0.060172587943515585 -0.10364182466262963
0001a0 3d 30 fa 5d 84 0d ac bf b7 a0 17 e8 d3 ed a2 bf
       -0.05479062697585888 -0.036970731813029394
0001b0 f3 33 34 ab 88 5f a6 bf 70 e5 35 39 00 d1 a6 bf
       -0.04369761552707265 -0.04456330011721377
0001c0 fb 57 a0 bf ec 20 a5 3f 50 d6 59 ef 01 9e b4 3f
       0.041266821281325826 0.08053600400475003
0001d0 d1 36 4a 58 48 4b b5 bf 07 64 23 04 12 57 b2 3f
       -0.08317997127070532 0.07164108849555371
0001e0 40 18 c5 5e 61 e8 97 3f 49 c6 34 08 88 c5 a9 3f
       0.02334739819459508 0.05033516979382264
0001f0 e9 a6 83 98 c2 e9 b0 3f 32 08 fb 1f 43 e7 a0 3f
       0.06606689666264355 0.033014390615349845
000200 45 64 92 ad d0 63 b9 3f f2 6b 0d d8 d2 66 b5 bf
       0.09917930829614459 -0.08360021376340379
000210 20 3b 7e 03 fb 18 5a bf 35 85 db 67 7c b8 b1 3f
       -0.0015928698830724522 0.06922128234466103
000220 3c d5 38 a3 02 a9 b0 3f b2 df 26 47 77 5d 54 3f
       0.06507889256393623 0.00124298713909175
000230 a1 e2 f5 b8 39 ee ae bf 3c 0a 2c e5 92 b3 b1 bf
       -0.06041126616304849 -0.06914632887859623
000240 df 65 88 2a 1f 36 a4 bf 39 63 ec 5a 25 c4 b0 3f
       -0.039475416128151634 0.06549294919785788
000250 c0 6f 7d 72 08 06 9a 3f bb 64 dc 8b d4 c9 b0 bf
       0.02541363905707761 -0.06557968535016105
000260 60 16 a9 28 e2 b2 ad 3f 05 c6 a1 e9 87 40 b2 bf
       0.05800539728492704 -0.0712971635237168
000270 0e 8a ea 02 b8 7d aa bf 9d 63 7f a1 99 2a 61 bf
       -0.051740408283212344 -0.002095508632902156
000280 dd af 26 5b d1 9c a1 3f f1 1b c7 9f 85 9f 9a 3f
       0.03439954984364111 0.02599915301996342
000290 a9 4f 01 b5 0c 07 a2 3f 4e 2e 29 8f ce 23 7c bf
       0.035210034461356905 -0.0068700855941404414
0002a0 b5 c3 6e be ad 8d a2 bf 83 88 eb 05 66 c4 a9 3f
       -0.03623717259996032 0.050326526854193275
0002b0 62 09 65 db bc f4 b6 3f b6 f4 d2 9d 16 5f 83 3f
       0.08967190128627103 0.009458710376174611
0002c0 92 80 77 49 fc 31 a5 3f 15 ef 31 f4 fd 3f b7 bf
       0.041396984069934764 -0.09082019054215736
0002d0 49 ff 9d 32 59 74 7b 3f 51 32 02 dd 77 8d 95 bf
       0.006702755383116551 -0.021047470917027692
0002e0 2c 71 74 6d 29 0f b1 bf 6d 90 51 fe 17 27 b0 bf
       -0.0666376011108169 -0.063096522893433
0002f0 17 b9 10 14 1e 0c 2c bf 2b f0 d3 e4 cc e9 b0 3f
       -0.0002139841763279602 0.06606751047724006
000300 4b 58 e2 b2 80 e8 ad 3f 0f 64 36 05 02 20 8b 3f
       0.05841448005337265 0.01324464395911387
000310 81 98 62 e4 37 3e 74 bf 12 95 b1 02 c7 6a a1 3f
       -0.004942148522024793 0.03401777179605338
000320 5a 93 a0 47 7f 19 86 3f 09 79 64 0b 07 85 ae bf
       0.010790819524183416 -0.05960866941517124
000330 fe 26 33 29 61 20 ac bf 93 e7 e0 2f 49 33 a0 3f
       -0.05493453624656118 0.03164128026442294
000340 32 ef e5 69 34 47 a0 bf 5f 57 b7 be 68 3e b9 bf
       -0.03179324906065374 -0.09860853820950187
000350 4d 22 5c 53 98 51 b5 3f 0b 77 ae ca 7d f2 90 3f
       0.08327629122880716 0.016550031181046736
000360 f2 68 dc f0 a5 ef a8 3f 19 a2 6d 08 a0 71 97 3f
       0.048703370716070796 0.02289438296739563
000370 95 dc 2e 2e 6a 99 7f 3f 11 b4 4d 23 7e 4e b4 bf
       0.00771466709823367 -0.07932270395186004
000380 ea 66 2d db 0e a0 b2 3f e9 7e 76 4a 4d 51 ab 3f
       0.0727547917462307 0.05335465940447454
000390 72 a6 b2 2e 0a c4 b8 bf b8 a7 1c 0b 2f 09 b3 3f
       -0.09674132957538875 0.07435888310706573
0003a0 c9 ba e9 93 3b 88 8c bf d8 38 af 3a 5b 85 b7 3f
       -0.013931718303152778 0.09187860663152791
0003b0 d0 04 12 62 0a 45 9e 3f 97 af b2 9d 55 92 a0 3f
       0.029560243831387834 0.03236644315742792
0003c0 3b f4 66 7c d6 1a b2 3f 14 04 c1 8a 3f 61 94 3f
       0.07072201287424289 0.019902222484464785
0003d0 f2 31 24 6b ec 25 b2 bf 76 e5 90 7f 39 e9 89 bf
       -0.07089116683727761 -0.012651871877198611
0003e0 a0 6b 7f ec cf 24 aa bf 45 e7 e7 8c 91 c7 a2 bf
       -0.0510621048158193 -0.03667883725206748
0003f0 5d c0 85 41 f2 0e b2 3f a0 88 32 19 5d d2 90 bf
       0.07054056262654869 -0.016427473700453832

linear3.weight f8 [256, 128]
000000 b7 24 9b 73 4c 1d 91 3f 95 18 57 75 c0 da 91 bf
       0.01671332793811039 -0.01743603435695514
000010 c7 93 87 01 8b 6d b0 bf 3a 4e 43 15 24 f5 bd bf
       -0.06417149340957372 -0.11702180403818199
000020 86 ea 4c 12 cf 9f aa bf 6f 92 85 b6 19 e9 73 bf
       -0.05200049494165619 -0.004860973779021379
000030 f6 84 33 d3 a9 ab a1 3f bb 2d f5 a7 b9 5f c2 3f
       0.03451281264438848 0.1435463018518542
000040 71 59 bd 74 65 d9 a7 3f f9 27 74 e4 81 aa a5 bf
       0.04658047723812587 -0.04231649316541559
000050 1c dc 85 54 f4 ed a2 3f 40 1c e8 02 5c c6 c0 3f
       0.03697169811032827 0.13105344907691752
000060 ef d3 60 07 fc 99 7d 3f f2 98 00 ad f6 b0 b7 3f
       0.007226929175932802 0.09254399989785947
000070 e5 87 83 f5 13 da ab 3f 8f c4 43 e0 3b 04 8e 3f
       0.054398177833505014 0.014656513005748798
000080 2a 58 45 bc 78 51 8e bf 21 d5 a7 2f eb 2e b4 bf
       -0.014803832288333114 -0.07884092248408027
000090 7b 29 1b df ed 2b c7 bf e0 c5 cd 74 1f b9 99 3f
       -0.18102811235287306 0.025120250229013652
0000a0 17 21 ec a0 56 73 b1 3f 4b fe ba 00 0c 94 a6 3f
       0.06816617420929948 0.044098258103528375
0000b0 9b 6c 05 b7 4e 4f c1 bf df 9b f1 e9 60 9e b8 3f
       -0.13523277222234217 0.0961666651870554
0000c0 ab 29 e9 e0 a7 4d 9f 3f 64 72 fd ec bd 80 b4 bf
       0.030569670774903617 -0.08008944545640301
0000d0 d0 47 73 33 bf 40 c0 3f f9 48 ff 5a c8 35 a3 3f
       0.1269759179327239 0.03751970396810295
0000e0 3f 02 d7 52 e5 58 ae bf 2d bd 5f 30 b4 04 9a bf
       -0.05927197109440784 -0.025408568813813637
0000f0 db 03 eb ee f8 3e 7f 3f e9 0e a3 9e b9 24 ad 3f
       0.00762841453132609 0.056920815100537876
000100 32 23 31 3e 21 71 c8 bf 52 a1 0f af c0 45 a7 3f
       -0.19095244919506055 0.04545404564834378
000110 a6 7c d7 05 a8 e6 b8 bf 77 e0 62 21 24 25 80 bf
       -0.09726953642483468 -0.00788334109198295
000120 03 75 e8 6d c6 d6 a0 bf 33 a5 9d 8b 9b eb a8 bf
       -0.03288860408449958 -0.048672543328232364
000130 1e 73 8b 23 70 c4 c3 3f 81 f2 90 27 cf 4e b5 3f
       0.15443231330473223 0.08323378292056739
000140 52 6f 3a 05 2c c1 8c 3f f7 33 f5 55 e1 4e 90 bf
       0.014040321263841502 -0.015925904151391248
000150 ba 1a 72 26 4e 61 95 3f 5e 1e ce 82 52 2b bf 3f
       0.020879002663174197 0.12175479596600655
000160 4a 4b 30 7f ce 50 b1 bf f5 94 b0 2b 7b 71 a0 bf
       -0.0676392612952387 -0.03211579235384391
000170 61 94 8b bf 20 71 95 3f b6 14 66 6a 12 88 ab 3f
       0.02093936127757379 0.05377252148449811
000180 4e bc da be 8a 8d b0 bf 65 e4 1e 94 6a 1e ad bf
       -0.06465975913555264 -0.05687268312562636
000190 00 ff 18 d6 9b 00 b0 3f 02 eb 61 b5 25 d7 82 bf
       0.06250928856843174 -0.009199423406462074
0001a0 08 74 e1 9b 67 bb ae 3f 79 5e 14 19 bf 2e b2 3f
       0.06002353456344883 0.07102579462331872
0001b0 59 3f 7f 79 72 39 98 bf f8 bb 04 b7 a5 74 c0 3f
       -0.023656643548576415 0.128559793819903
0001c0 46 77 39 01 eb c9 ba 3f 9f c4 38 11 bc eb bb 3f
       0.1046435239781803 0.10906577511265646
0001d0 39 15 6d 3f 6c be 7c bf 18 ec cc c7 30 58 be 3f
       -0.007017538874440726 0.118533180980123
0001e0 78 9e 35 3e 1c cd c2 bf 25 e0 57 0c 17 83 b4 3f
       -0.14688447034426466 0.08012527514790742
0001f0 38 4a ad ea 2a a5 b6 bf e5 8f 90 40 a2 32 bf 3f
       -0.08845775823036994 0.12186636043821826
000200 a1 07 3a 12 56 6a 9a 3f 45 f3 da 14 4e 09 b9 3f
       0.025796265470951266 0.09779823311960197
000210 52 70 e2 f2 80 53 ad bf 62 a9 5c 2a 0b 2f ae 3f
       -0.05727770771883968 0.05895266430009617
000220 1a 4f c5 02 d3 15 ac 3f ee e4 68 d6 76 bc b9 bf
       0.05485400589773644 -0.10053198561299201
000230 8f fe 87 00 a7 ac b9 bf 5b 6d 71 e7 42 12 ad bf
       -0.10029071581811365 -0.056779947998360135
000240 89 73 7f f7 43 29 b9 bf 7d b0 c7 e5 a3 cd 89 3f
       -0.09828591148784772 0.012599258851843093
000250 3c 13 d2 90 05 c3 b0 3f ec e7 53 b2 32 3a 98 bf
       0.06547579560908628 -0.023659507879507588
000260 53 25 e3 74 96 62 bd bf 31 68 a0 0d 73 0f 84 bf
       -0.11478557923978387 -0.009795092442846794
000270 ba e8 16 05 41 8c c4 bf 07 1e bf 8b 75 ac c0 bf
       -0.16053021191129863 -0.1302630359989367
000280 0c a9 3f 2e 25 d1 b9 bf 3d 85 a3 8d d4 aa c1 3f
       -0.10084755305402754 0.13802582660631826
000290 c2 db 8d a3 e7 7a 90 bf 6b 8f f4 11 c7 78 c0 3f
       -0.01609384475474563 0.12868584038471495
0002a0 e8 ea 19 d1 9b de b1 bf 44 0a c8 de 09 a7 bd bf
       -0.06980298857699163 -0.11583005608557878
0002b0 01 85 b8 a4 45 6c b4 bf c6 a9 b8 c4 2c a3 b4 3f
       -0.07977710029128461 0.08061485102431395
0002c0 5c 59 40 11 35 88 b4 3f b5 3d e1 1c 12 ff 73 3f
       0.08020335837531917 0.004881926301166063
0002d0 ab 95 08 57 c9 9b ae 3f e4 38 a2 73 21 d2 b4 bf
       0.05978230655118052 -0.08133133957946687
0002e0 fb ac b0 b5 39 28 c0 bf 2f 84 83 bf 7e 88 9d bf
       -0.12622758266056863 -0.028841000022002013
0002f0 26 d4 be 67 09 6c a7 bf 9b 90 71 0a f6 3e b0 3f
       -0.045746129907833485 0.06346071009608283
000300 3d b9 3a 62 e5 61 9d bf fc 70 a5 88 e6 6e b1 3f
       -0.028693756218381983 0.0680984576806089
000310 71 57 7d c5 a2 51 b2 3f df 31 2f 23 d5 d4 c1 bf
       0.0715581638481504 -0.13930763452516623
000320 e3 11 f6 4e ab 22 c2 bf 1b 27 25 47 42 a6 91 bf
       -0.14168301921394208 -0.017235789863924027
000330 9f 37 a6 21 c9 97 ad 3f 54 e1 1f ea 60 5d b1 bf
       0.05779865775831116 -0.06783109394007641
000340 6e 75 87 73 16 b1 bb 3f 34 51 9b c1 c5 93 9e bf
       0.10817089386497056 -0.029860582296195662
000350 14 03 29 6d 8c 19 86 3f a8 af f3 0c 3d c9 bb 3f
       0.010790917474083929 0.10853940550049279
000360 70 f0 1f 38 58 0b 9e bf cb c3 d7 3b d7 da c9 3f
       -0.02934015123899808 0.20199098989499328
000370 a8 65 57 70 d7 65 bc 3f 41 50 40 c8 a3 09 c5 bf
       0.11092897885045849 -0.1643566825665648
000380 1b c4 ce 3b fc b3 b0 bf 4b 4b 49 0b 24 07 b7 bf
       -0.06524635753773149 -0.0899527099184471
000390 88 26 49 96 11 40 b4 bf ee 1e 69 6c fc 56 c4 bf
       -0.07910261077008773 -0.15890460294234948
0003a0 ed 3c 6a 01 f4 88 61 3f 20 2e 77 ff 6a ce 9a 3f
       0.0021404996617274603 0.026178047029857265
0003b0 f9 b0 bf f3 dc 9b ab bf b3 6c 96 9f 2b f3 c4 3f
       -0.05392351603936336 0.16367097179759113
0003c0 b3 4a e5 2c de ec 53 bf d8 c1 f2 03 8a 48 a9 bf
       -0.0012161416703590333 -0.04938155458637866
0003d0 6d 2a 1c bc 78 23 98 bf af 28 36 39 8a 2d b4 3f
       -0.023572813493084533 0.07881988426939544
0003e0 5e 3a f5 6e 68 cc ac bf 64 be 94 2c 7b 6a b9 3f
       -0.0562470088431055 0.09928102339176231
0003f0 5f 41 31 0b 36 b9 86 3f 28 01 ff ab f4 29 b9 bf
       0.011095449654164367 -0.09829644393085302
000400 ba ff 86 6f ce 6e 93 3f ff c7 21 fd a9 bf aa 3f
       0.018977380330170247 0.05224353041639062
000410 db 68 ab f2 8d d6 94 3f 64 c1 7e 58 a6 e1 ac 3f
       0.020349710403800052 0.056409071257237625
000420 ab dd 3d fb 0d 55 9e bf 8d f7 20 37 b2 0a 89 bf
       -0.02962133260686321 -0.012227432544132966
000430 37 56 52 39 01 4c b5 bf 67 6d c2 59 3b 13 98 bf
       -0.08319099091962633 -0.023510863641246795
000440 24 06 26 19 18 ef a9 3f c1 57 67 a7 60 a5 b3 3f
       0.05065226847638041 0.07674221121791815
000450 a9 1e c8 c0 ef 4c c0 bf 57 8d dd 1b 88 7e c0 bf
       -0.12734791672868553 -0.1288614402829846
000460 bc 78 ed 9d 35 50 aa bf 6f ce 40 b1 c1 f6 9b bf
       -0.051393199470781664 -0.02730848926894541
000470 81 87 20 28 ec 93 42 bf ac f5 9a a0 c7 6b c3 bf
       -0.0005669501408684803 -0.15172667829567155
000480 c8 6b 64 a3 a0 5b 9c bf 31 f6 85 93 3f 32 c3 bf
       -0.027693281147644716 -0.14997095778737582
000490 8a a7 23 df cd 2b 9a 3f 6c 92 c7 d1 8d 4b 81 3f
       0.02555772470888188 0.008444889034714374
0004a0 18 b4 ed 2f 22 22 ad 3f c6 8a dc 03 be 3f ab 3f
       0.05690104327263884 0.053220689746259306
0004b0 5a 47 f4 57 09 19 74 3f 6e 9b 55 64 2c ea aa 3f
       0.004906689165425105 0.052567851302959365
0004c0 8e 1a 03 f5 f7 d8 ab 3f 92 7b 4e 46 38 95 a1 bf
       0.05438971391554502 -0.03434158189997229
0004d0 ee 55 83 6d 1a cf ae bf 99 44 d7 b6 85 be b8 bf
       -0.060173822277345454 -0.09665713991059234
0004e0 cc 32 25 0d 89 a2 c1 3f a3 79 37 f6 13 3d 87 bf
       0.13777268545017873 -0.01134696574348199
0004f0 69 b8 0e 74 74 92 b7 3f 73 1e f2 59 65 4b c1 bf
       0.09207847436366169 -0.135113400381886
000500 4e bb 39 1b 35 a1 a3 3f 99 cd 8f b9 96 1f a5 bf
       0.038339290212084806 -0.04125662818105553
000510 19 e3 58 c7 96 38 a3 bf 43 ec 09 2d 8d 3f b6 3f
       -0.03754111464917837 0.08690721845225462
000520 f5 f1 75 c8 5e 88 a9 bf 84 94 09 4a aa 4e 90 3f
       -0.04986854741125405 0.015925083893666883
000530 64 55 77 ae c2 f7 b2 bf 80 7c 37 01 de e7 bf bf
       -0.07409302482058916 -0.1246317627878728
000540 ab 20 c1 2c a0 0b a5 3f 8a 4e 70 7e cb 50 75 3f
       0.04110432192152421 0.005204005144168309
000550 e8 97 e8 f7 82 67 af 3f 2c 5a f1 b6 87 b3 c3 bf
       0.06133660579898487 -0.1539163249278358
000560 83 7b a4 5d e0 e3 99 bf 3f b4 91 63 ca 06 a9 3f
       -0.025283342090115745 0.04887993302768522
000570 05 f3 6b 8c 77 dd c0 bf b4 a3 8b 39 c6 64 bf 3f
       -0.1317586360600204 0.12263144402426357
000580 23 d6 d2 ae cb 02 b4 bf 3c c5 70 51 88 d4 b3 3f
       -0.07816765802530105 0.07746173847478571
000590 1d 80 be d5 d4 93 ac bf ec df 4c 65 67 c7 be 3f
       -0.05581536397153306 0.1202301618876615
0005a0 9a 59 50 7f 5d 46 a1 3f e6 72 e3 5f 26 a2 bb 3f
       0.03373996905445438 0.10794296113040111
0005b0 53 79 a8 82 29 6b b0 bf 17 b1 d4 05 54 4e b2 bf
       -0.0641351646413331 -0.07150769369463138
0005c0 f8 f2 17 9e 39 0c a9 3f 85 89 f3 e9 3e b8 61 bf
       0.048921394871262736 -0.0021630505358284946
0005d0 ca 40 30 61 78 10 ab 3f 00 4e ff 17 e6 1b b2 bf
       0.0528600329054157 -0.0707382019602889
0005e0 58 06 21 bf 7d 4e a3 3f 71 e5 41 b9 4e 60 a1 3f
       0.03770821531408036 0.033937893022946926
0005f0 fa f5 49 81 aa 0b a8 bf 14 74 5d 70 08 46 a4 3f
       -0.04696400478585967 0.039596809116780346
000600 8e 40 87 f7 15 71 b7 bf 92 71 70 79 51 78 b6 3f
       -0.0915693024937829 0.08777341093850158
000610 b1 18 90 44 0a 92 b0 bf df 0b 4f 8a 81 b9 a5 3f
       -0.06472839521311148 0.0424309235891298
000620 bb 0f 65 95 95 88 a1 bf 74 20 04 dd 6e 95 b3 3f
       -0.034245180594126144 0.07649891754056332
000630 6d f5 d8 2d f2 a9 b1 bf ad 86 f9 57 ad d0 a7 3f
       -0.06899942035029989 0.04651395510587739
000640 dd d3 a7 73 54 3e b2 bf 6b dd b7 bb e9 c5 a1 bf
       -0.07126357864019846 -0.03471308151704985
000650 09 8c eb 03 03 78 a9 3f 6a 86 f4 9e 9d 38 c1 3f
       0.04974374220707751 0.13454027425273135
000660 70 91 d8 6c 45 94 ad 3f 9e 4d 5d ed f9 8c a0 3f
       0.057771844422208285 0.03232556364551019
000670 1f 41 e4 b7 d9 8e b5 3f 8e 2c 2a 6b 2a cb bf 3f
       0.0842109750703952 0.124193812526004
000680 ad 82 18 83 1f 32 60 bf 01 4f d6 0c 1f b8 c0 bf
       -0.001977025553756859 -0.1306189358407366
000690 31 ca 61 31 03 ee be bf d5 96 8d f3 fd 5b c1 bf
       -0.12081928210845018 -0.1356198729728734
0006a0 f4 1d 97 1f 99 21 bf 3f a6 61 5c 1a ac 2d c2 3f
       0.1216064169049032 0.14201880728866206
0006b0 92 2a a6 9b 20 44 b6 bf 4e 04 ea ee 32 1a a5 bf
       -0.08697704124475994 -0.041215507187197006
0006c0 9d b2 ed f8 4c 64 a7 3f bd 5a 75 5a 19 98 a8 3f
       0.04568710840871868 0.04803542355755528
0006d0 74 8a 19 98 59 6e af 3f f3 7f 2f e6 cf 3d ae bf
       0.06138877851187355 -0.05906533894426493
0006e0 7f 27 ba 9f 57 27 a8 3f a2 25 88 d9 6f 62 ae bf
       0.047175157783455816 -0.05934476404588486
0006f0 8d f9 a2 f9 0a a8 ab bf 57 f5 7d 73 dd 23 b5 bf
       -0.054016440366001374 -0.08257850713376534
000700 ed 50 4c c3 98 d3 b4 3f c6 bf 24 a3 f2 4d 9a bf
       0.08135370986957798 -0.025687972266666546
000710 89 8d 8b 62 ad 2c 89 bf 41 c4 70 a8 31 20 75 3f
       -0.012292246408327727 0.005157655693481423
000720 35 8b 69 36 7e 6a 94 bf 98 db e8 cb 17 ae a5 bf
       -0.01993748862367824 -0.04234384884005421
000730 31 99 df bd 1b aa b3 bf 59 2e 8a 65 b0 bc c0 3f
       -0.07681439767438715 0.1307583328056008
000740 af 14 ec 3d 59 05 b2 bf fb ab 8b 44 b3 76 87 3f
       -0.070394113176081 0.01145687153753804
000750 7e 2e fa af 8f cf ae 3f 8d e1 45 9b 9a d2 ae bf
       0.060177316886520935 -0.060200530485363314
000760 52 31 a2 55 b4 38 a2 3f 36 fb 59 b4 01 f7 b5 bf
       0.03558887048083882 -0.08580027249443564
000770 0b 02 57 0f 38 c3 72 3f fa e8 77 ad 5f cc c2 3f
       0.004580706581180492 0.14686199159752517
000780 86 99 ca 8b 54 5c 84 bf c7 fb 9d 43 d2 24 a3 3f
       -0.009941730991454244 0.03739029956249556
000790 28 0f 14 03 4f eb b6 3f b7 6d 4a 7e c1 ac a9 bf
       0.08952802491336043 -0.05014614740977257
0007a0 e0 35 ed e9 70 c0 b5 bf a9 95 bc 42 be 3b 82 bf
       -0.08496766768549646 -0.008903013621941751
0007b0 9b 5a d4 22 d5 06 93 bf 76 03 1b 39 2c e3 95 bf
       -0.018580751658272204 -0.02137440775436824
0007c0 4e 7f 86 94 16 0e a1 bf 2b a3 55 be 4d e4 b5 3f
       -0.03331060946515994 0.08551488777960674
0007d0 46 41 46 fe bd ab bf 3f b6 1b d3 cd 09 fc b2 bf
       0.12371432741043006 -0.07415829920783676
0007e0 e6 31 cc d9 c9 80 a3 3f cb a0 e1 bd ae b3 b3 3f
       0.03809195312178186 0.07696048866057763
0007f0 a4 80 36 e0 3c 5f b0 bf f3 36 fd 02 22 ac ce 3f
       -0.06395321344325794 0.23962807794526206
